tmp/model.tflite (tflite, 181444 bytes, 10 tensors)

dense_1/bias f4 [10]
00000000: fadd b5bc 4099 cd3d 06a9 21bc a5dc 103d
00000010: e508 c9bb 79a7 dcbd ca12 32bc 18f6 733d
00000020: bc16 02bd 29dd 00bd
-0.022200573 0.10038996 -0.0098669585 0.035366673 -0.0061350935 -0.107741304 -0.0108687375 0.059560865
-0.031759962 -0.031460915

dense/bias f4 [84]
00000000: def3 9dbc 0bd0 1f3c 9c47 84bc 530c 483b
00000010: adc5 c63a 363a 98bb b18c 833c a479 65bc
00000020: ca87 d4bb d9ba 75bc f717 a83a 2ed6 983b
00000030: c081 983a 11ed 97bc 726e ca39 68e5 8bb9
00000040: 89f2 a33c 4427 133b d972 d3ba adf6 b7bb
00000050: 5c6e 423c 3446 f7ba cae8 013b 6db8 8cbb
00000060: 1f48 09bc 1dc0 17bc cfe2 42bc b4d9 e3ba
00000070: a943 94bc 3e7a d3ba 4873 a63b 5f83 15bc
00000080: 850b 18bb 8ffe 49bb 6fd2 143c 760b 723b
00000090: 1f3a 2dbc 67ad 59bc 3bd1 89bc a1bd 54bc
000000a0: 54be 2f3c a728 233c be2e edbb 0d0f 2c3c
000000b0: 4fe6 d739 d7b8 bfba fbe7 153c c5c8 3dbc
000000c0: cdf3 0cbb 7a95 30bc 0c1c 203c caa8 93bb
000000d0: bb47 60bc 0224 13bc 0f0d 5f3b e688 9abb
000000e0: 6dba beba fb3d 183b 5ed1 88ba a54a 223c
000000f0: 4e7d 65bc af4f 453c 2b71 bc3c 6689 333b
00000100: 21c8 213c 1b44 dcba 23d2 913b 3c2c 383c
00000110: 48d7 243c 0798 31ba 0878 0d3c 4d96 e9ba
00000120: 44de 72bc 3b3a f43c 6f3b 67bc 5990 1fbc
00000130: 01e2 023b 7892 583b b0ef 293c da81 a43c
00000140: 20aa 9c3a 1c95 3ebb ab61 a8bc c11b 8c3c
-0.019281324 0.009754191 -0.016147427 0.0030524924 0.0015165113 -0.004645611 0.016058298 -0.014006052
-0.006485914 -0.014998161 0.0012824525 0.004664204 0.0011635348 -0.01854566 0.0003861073 -0.00026683067
0.02001311 0.0022453824 -0.001613225 -0.005614123 0.011867132 -0.0018865527 0.001982259 -0.004294446
-0.008379011 -0.009262112 -0.011894896 -0.0017383606 -0.01809867 -0.0016134453 0.0050796606 -0.00912556
-0.0023200226 -0.0030821895 0.009083374 0.00369331 -0.010572939 -0.013285971 -0.016823402 -0.012984664
0.01072653 0.009958423 -0.007238238 0.010501635 0.0004117959 -0.001462723 0.009149547 -0.011583512
-0.0021507621 -0.0107778255 0.009772312 -0.004506205 -0.013688977 -0.008980753 0.0034034883 -0.0047160266
-0.0014551409 0.0023230303 -0.0010438373 0.009905492 -0.014006926 0.012042924 0.023003181 0.0027395128
0.009874375 -0.0016804965 0.004450099 0.011241015 0.010061093 -0.0006774668 0.008634575 -0.0017821282
-0.0148235 0.029812923 -0.014113291 -0.009739005 0.0019971135 0.0033046287 0.010372087 0.02008145
0.0011952557 -0.0029080575 -0.020554384 0.017103078

sequential/dense/MatMul f4 [84, 120]
00000000: f2bb f43c 25c8 cc3c 63c5 07bd ac5a 8bbd
00000010: 2bdf c0bd 82e3 3fbc d6c9 ef3b 412f cebb
00000020: b934 22bc 97fd e0bd 605c b03c c28f 753d
00000030: 331a 8cbc 2761 63bc 35e4 243d c329 223d
00000040: 3397 aebc b210 3dbd be42 683d e378 853d
00000050: 55f2 b0bc 0323 cd3c 1705 df3d 8a8a a9bd
00000060: 5a0e 3abc 2278 b43c 0c75 c73c 6b8b ebbc
00000070: 3c47 35bd 804f dc3c da15 8abd ea7c a4bd
00000080: 9a13 8c3c 4355 4e3d caa4 41bb f19f c23c
00000090: 7504 e5ba 529e e4bb 9a7e 1e3c 4d95 6b3c
000000a0: f955 71bd cb93 703d adb8 82bb 9a55 093c
000000b0: 58ec 0cbd ed56 6a3d 4bdf d8bc d7e2 61bd
000000c0: aceb 42bc 1dc5 9abc d4d0 d63d 80f1 253d
000000d0: 9699 003d ef45 e13b 1b90 783c b447 d53c
000000e0: 6da8 02be 7e51 2c3b ed39 e93b 6818 42bc
000000f0: 467f 87bc a32b 703d 114f cb3c e915 c2bc
00000100: c900 913b 85fd 9d3c 90c5 3cbb fad6 7abd
00000110: 3742 9bbc 8ada 013d ebe9 d4ba 86d5 a6bc
00000120: 258e 34bd 06cc 533d 6a4b e3bc 100f 8a3d
00000130: bf6a b3bc da66 4f3b 2622 88bd 6749 ba3c
00000140: 5c0b b93c ef52 983d e6c0 55bd 4fc5 51bd
00000150: 23ff 693d 7582 82bd a630 5f3d 5343 903d
00000160: b203 a2bd 3b73 ca3c 332e 41bd 1cdf ac3d
00000170: 4466 a2bb 6a59 0e3c de5f e3bb 5157 09bd
00000180: f747 093d f148 d43c 8dfe ccbc abb5 30bd
00000190: 95ee 023d 4765 403c 4a34 9f3c 2cca a4bc
000001a0: 52f7 973d eacc d3bb 34cf 9ebc 67a2 9ebc
000001b0: 5ad9 8b3c 6051 803d 3ceb 0dbd 155c 293d
000001c0: caad 843d cc0e 9c3d 918e 12bd 8750 a2bc
000001d0: 9ffe 823d 0ee8 38bd 9f17 6abc 82f6 593d
000001e0: 67e8 aebd 1c32 aebd 8c65 383d 2fc7 673d
000001f0: 04a6 743d afb0 3fbc b918 12bd d2a4 09bb
00000200: 284d 9dbc 985c 373d ebd1 4fbd 6acb 843c
00000210: 5d0c 39bd 3290 9bbd 3410 853d 088c 64bd
00000220: 80d3 17bd 64e1 21bd 3a5a 67bd cbb8 7abd
00000230: b391 833d 7de8 a13d 861d 52bd a21d 76bd
00000240: 6dbb d03c 0dda 67bd fcdb d1bc 25a6 59bd
00000250: d13a 33bc 03b7 3a3c 28f1 4d3c 16d0 c4bc
00000260: d019 3dbc f5bf 14bd 1aea 5b3d 0c47 193d
00000270: e94c a53c b44b c0bc ac07 abbd fbac 27bd
00000280: 37e2 793d 2446 7f3d 3540 39bd 56e3 5b3c
00000290: 43a9 b4bc d792 47bb 6cb9 98bd df21 083d
000002a0: a30a e83c 73da 01bb 34eb 14bb 4af4 0b3d
000002b0: 2256 383c a713 9b3d 5c30 d2bc 6df4 c63d
000002c0: d85b 883d d446 7cbd 93f8 33bd 3203 77bc
000002d0: a744 1fbd b076 253d 7a91 04bd 78d0 54bd
000002e0: 5bb9 86ba 60c7 c23c 1c13 103d 97ad dfbc
000002f0: a22a 2a3d b38e 63bd af5e 1d3d 984e a23d
00000300: 44a6 263c 93a5 efbc 8403 753c c16b a73d
00000310: bbe7 4dbd e31e c4bd 494a e6bc 09d0 e43b
00000320: 4145 eebb 96a8 a03c 3666 ebbd 11f4 243d
00000330: 6d90 813c d133 d63c e21d 0c3d 0f33 93bd
00000340: 03fb 553c 1af2 6c3d d195 2fbd c7b8 89bd
00000350: c8ff 08bd 8d6a e43c a9f9 123d 8b34 ad3c
00000360: 2cba f93d d2c7 6abd 2485 1ebd 3c41 753d
00000370: 9c2d 1cbb 6f1d 91bd feb3 443c 3dca ad3d
00000380: c341 36bd 4f00 64bc 3228 febc 952f cd3c
00000390: 5821 acbd bb3f f93b 232d 203d 0275 b1bc
000003a0: 2af1 2cbd b346 813d 9d7b c2bd a8dc 1d3d
000003b0: 1bcd 67bc fd1d 6dbc 010b 933c e4d6 73bd
000003c0: 63d6 14bd 34cf 363c a771 80ba bc26 213d
000003d0: f09c 56bb e20f 15bc ea1c 49bd c1e9 7bbb
000003e0: 1f3a 373d c3f8 a53c 600f 43bd 9842 e03c
000003f0: 26a3 483d 7114 3f3d 8ebf 2abd ee03 9e3c
0.029874776 0.02499778 -0.033147227 -0.06804404 -0.09417566 -0.011711957 0.007317762 -0.006292254
-0.009900265 -0.109858684 0.021528423 0.05995155 -0.017102337 -0.013878143 0.040256698 0.03959061
-0.021312332 -0.0461585 0.056704275 0.06517198 -0.021599928 0.025041109 0.10889643 -0.08278377
-0.011355961 0.02202994 0.024347804 -0.028753003 -0.044257388 0.026893377 -0.06742449 -0.08031638
0.01709919 0.05037428 -0.0029547685 0.023757907 -0.0017472642 -0.006976881 0.009673739 0.014378858
-0.05891988 0.058734696 -0.0039893 0.008382225 -0.034405082 0.057211805 -0.026473662 -0.055147972
-0.011897009 -0.018892819 0.104890496 0.040513515 0.03139647 0.006874792 0.015171076 0.026035167
-0.12759562 0.002629369 0.007117501 -0.011846639 -0.01654018 0.058635365 0.024817975 -0.023692088
0.0044251424 0.019285927 -0.002880428 -0.061240174 -0.018952472 0.031702556 -0.0016244029 -0.020365488
-0.044080872 0.051708244 -0.027745921 0.06741154 -0.021901486 0.0031646998 -0.06647138 0.02274008
0.022588424 0.07437693 -0.052185915 -0.05121356 0.057128083 -0.06372539 0.054489754 0.07044091
-0.07910861 0.02471315 -0.0471632 0.08440992 -0.0049560387 0.00868831 -0.0069389185 -0.033530537
0.033515897 0.025913687 -0.025023723 -0.043142002 0.03196581 0.011742896 0.019434113 -0.020115934
0.074202195 -0.0064636366 -0.019385912 -0.019364549 0.017071415 0.06265521 -0.034648165 0.041347582
0.0647846 0.0762001 -0.035780493 -0.019813789 0.06396221 -0.04514318 -0.014287858 0.053213604
-0.08540421 -0.08505651 0.045018718 0.05658644 0.059728637 -0.0116998395 -0.03566811 -0.0021002782
-0.01920183 0.04476604 -0.050737303 0.016210277 -0.045177806 -0.075958624 0.06497231 -0.055797607
-0.037066936 -0.03952159 -0.05648253 -0.06121139 0.06424274 0.07905672 -0.051297687 -0.060086854
0.025479997 -0.056604434 -0.025617592 -0.053136963 -0.010939316 0.011396172 0.012569703 -0.024025004
-0.011541799 -0.036315877 0.053690054 0.03742127 0.020178275 -0.023473598 -0.08351073 -0.04093645
0.06100675 0.06232275 -0.04522725 0.0134209 -0.022053367 -0.0030452514 -0.074572414 0.033235427
0.028325384 -0.0019814044 -0.00227232 0.03416852 0.011251004 0.07572108 -0.025657825 0.09714589
0.06658143 -0.061590984 -0.04393823 -0.015076445 -0.03888383 0.040396392 -0.0323653 -0.051956624
-0.0010278629 0.02377671 0.035174474 -0.027304454 0.041544564 -0.05555601 0.038420375 0.07925147
0.010171477 -0.029253757 0.0149544515 0.08174849 -0.050269824 -0.09576204 -0.028111594 0.0069828075
-0.0072714393 0.019611638 -0.114941046 0.040271822 0.015815938 0.026147755 0.034208186 -0.07187473
0.013060334 0.057848074 -0.042867485 -0.067246966 -0.033447057 0.027882839 0.035882626 0.021143219
0.121937126 -0.05731947 -0.03870119 0.059876665 -0.0023830896 -0.07085692 0.012005804 0.084858395
-0.04449631 -0.013916089 -0.031025026 0.025047103 -0.08404797 0.007606474 0.039105546 -0.021662239
-0.04222218 0.06312313 -0.094962336 0.038540512 -0.014148022 -0.014472482 0.017949583 -0.059531108
-0.036337268 0.0111577995 -0.0009799496 0.03934358 -0.003274735 -0.009098025 -0.04909984 -0.0038438889
0.044733163 0.02026022 -0.047622085 0.027375504 0.048983715 0.046650354 -0.041686587 0.019288983

sequential/dense_1/MatMul f4 [10, 84]
00000000: d0ab 89bb cfaa e4ba af5f 4c3c 213b a13c
00000010: fea0 34bd 9a03 2d3c ef34 253d 379a 423d
00000020: 8f07 ec3c 4e37 a3bc ddff eebc 59fa 5dbd
00000030: 98fe 06bd 7c85 12bd 39c4 01bc df4f e23c
00000040: ad2d 4bbd 1e3b 2d3d 8ab7 a6bd 5680 3ebc
00000050: 70ab 55bd f80a 323d 1e67 393c 6a56 89bb
00000060: 6944 c9bc fbc7 a93d 8891 c8bd 1ed4 c3bc
00000070: 8866 103d cecb 48bd 5279 123e 9e54 85bb
00000080: eabe 833d 1430 8a3b 1bbe f0bc 8953 4f3d
00000090: 504b ad3b d9d9 35bd 43c4 803c 0703 ed3b
000000a0: 5ece 5b3d c9c2 0ebd c643 a53d 1dc1 38bd
000000b0: 0e21 58bc 489d 103c 95a0 b3bb ea3e 97bd
000000c0: 61ec 553d 5472 a93b 0a44 7e3d f113 afbc
000000d0: 2013 803d 1ed6 16bd 715d 303d 84c5 87bc
000000e0: 1109 023d 8afd b8bd dacb aabc c064 bcbd
000000f0: e07a 863d d93b 143c db48 d73c 158d a2bd
00000100: 1daf 5d3d a2f7 0bbd 4d12 71bc 02c2 12bb
00000110: 42b5 163d 3a93 5fbc b411 37bd ae51 fb3c
00000120: f084 893d 16ac 5d3c 827a 003d d27f 93bc
00000130: 0bc2 64bb 25b2 b13c 46c5 a43c 2c3b 20bc
00000140: 6bb2 30bc 3703 1b3c be1d d8bc d173 f1bc
00000150: cfa6 1c3c 6ecf 053c 1fdf b63c 6edc 913c
00000160: 9eef 1cbd 36e6 7c3c ecb0 b43c f12e 2e3d
00000170: 6d1a da3c dc20 a83a 4355 49bd 1966 0cbd
00000180: 2754 e4bc 0718 bebc 29b3 c1bc 5bdb 3b3d
00000190: ab2b 56bd 9baa 193d 55ef b4bd a472 3d3c
000001a0: 2118 32bd a0de 983c b850 b8bb 1eeb 8e3c
000001b0: 6728 efbc 3895 ac3d 38bf a4bd 2f43 fdba
000001c0: 7aaf f43c d41d 86bd fcbc 143e 7edb a2bc
000001d0: 33b1 533d ae97 21bc f22b 1ebd 657f 263d
000001e0: 9f84 6f3c ca0a 00bd 797c af3b 8434 d83c
000001f0: cf6d 523d 3379 3dbd e57e 993d 61d5 53bd
00000200: 1340 43bc a9f2 cf3c fe66 1cbc 67ab 9fbd
00000210: f66f 563d 2137 f73b 1b17 923d 26c0 89bc
00000220: 801c 683d 3f29 90bc b915 003d 93ae e5bc
00000230: b58e d23c 593e c6bd cc85 ccbb db14 d9bd
00000240: 5fff 883d 92df 8f3c 22ba 4f3d 766d 8fbd
00000250: bf27 6c3d 19ba 0fbd 1810 38bc 9da2 ab3c
00000260: ea23 633d 87d5 c3bc 203d 7ebd 937c ff3c
00000270: 411f 633d 4abf 28bc c450 293d 7985 d2bb
00000280: 2bea 9cbc c044 9f3c cac8 7b3c 888b 96bc
00000290: b877 8cbc c52d a9bb 13ae cdba bc27 33bc
000002a0: 1259 bb3b 1aef d93b a7e8 17bb 5ca8 163c
000002b0: cdff a4bc cc85 d03c 15e8 e43c 0b89 063d
000002c0: bcbb 173d 4d1b 9fbc 993c 1fbd 143d 4bbd
000002d0: cb00 0cbc 4a0c 80bc b23c 16bd 1739 553d
000002e0: 5a1b 7fbd be45 b83c dcd2 e2bd 0027 9a3b
000002f0: b1eb 3abd e644 af3b d8c1 8fbb 2d86 8e3c
00000300: 73d4 16bd a4c4 883d 3bb1 b4bd 16dc 07ba
00000310: f936 403d 09d8 6ebd 7807 273e 2f71 9cbc
00000320: 16b2 8f3d e5e3 b0bc e17f 4dbd 9459 253d
00000330: 8b6f e83c 1c9b 18bd 7658 83bc b670 513c
00000340: b355 643d 77f0 7fbd b336 623d ea2a 58bd
00000350: f061 8fbb 3e99 eb3c 6686 8ebb e0a9 a7bd
00000360: a230 193d 8399 0b3c 4895 813d e05a b5bc
00000370: 3d3a 173d 834c 57bc c175 0d3d 6db7 30bd
00000380: 064a 0c3d 98aa c1bd ca0c b2bc 5653 03be
00000390: c630 753d 314a 993c fdfa 193d 26ea 93bd
000003a0: a7b0 443d 8598 43bd 3ac1 fd3b 564c a93c
000003b0: 8ba4 793d 6748 98bc 55e5 5bbd e89c 133d
000003c0: 32d5 8e3d f8b9 01bc 8aed 303d a648 a33b
000003d0: 19d4 adbc 1caa 193c a43e ec3b 799a 413b
000003e0: 45f5 85bc a4ff 53bb 4589 d1bc 0c5c 58bc
000003f0: 6d17 533c d745 fbbb f40c 39bc dc20 a83c
-0.00420139 -0.0017445924 0.012473985 0.019681515 -0.044098847 0.010559941 0.040333685 0.047510352
0.028812198 -0.019923832 -0.02917474 -0.05419383 -0.032957643 -0.035771832 -0.007920318 0.027625976
-0.049604107 0.042292707 -0.08140476 -0.011627277 -0.05216545 0.043467492 0.011316089 -0.0041912096
-0.024568753 0.08290096 -0.09793383 -0.023904856 0.03525403 -0.04902249 0.14304093 -0.004068925
0.06432898 0.004217157 -0.029387524 0.050616775 0.005288519 -0.04439721 0.015718585 0.007233027
0.053663604 -0.03485373 0.080695674 -0.045106042 -0.013191475 0.008826561 -0.0054817894 -0.07385047
0.05222738 0.0051710997 0.062076606 -0.021371813 0.06253648 -0.03682529 0.043057863 -0.016573675
0.031746928 -0.09032734 -0.020849157 -0.09198904 0.06566405 0.009047472 0.026279857 -0.079370655
0.05412208 -0.034171708 -0.014713836 -0.002239347 0.036793955 -0.013645941 -0.044694617 0.030678596
0.06714809 0.013529798 0.031366833 -0.018005285 -0.0034905698 0.021691391 0.020113599 -0.009779733
-0.010784726 0.009461216 -0.02638137 -0.02947417 0.009561255 0.008167131 0.02232319 0.017805304
-0.038314454 0.015435746 0.02205702 0.042525236 0.026623929 0.0012827176 -0.049153578 -0.034277055
-0.027872158 -0.023204817 -0.023645 0.04586349 -0.05228774 0.037516218 -0.088347115 0.011562977
-0.043480042 0.018660843 -0.005624857 0.017446097 -0.02919407 0.08426899 -0.080442846 -0.001932239
0.02986883 -0.06548658 0.14525217 -0.019880053 0.051682662 -0.009862823 -0.03861613 0.040648837
0.014619022 -0.03126029 0.0053554145 0.026392229 0.051374253 -0.046258163 0.07494906 -0.051717166
-0.011917132 0.025384264 -0.00954604 -0.07796364 0.052352868 0.0075444137 0.07133313 -0.016815256
0.056667805 -0.017597793 0.031270716 -0.028037345 0.025702814 -0.096798606 -0.006241536 -0.10599681
0.06689333 0.017562661 0.05071462 -0.070033 0.057655092 -0.035089586 -0.011234306 0.020951563
0.055454172 -0.023905529 -0.062070012 0.031187331 0.055449728 -0.010299513 0.04133679 -0.0064246026
-0.019154629 0.019441962 0.015367696 -0.01837708 -0.01714693 -0.005162927 -0.0015692137 -0.010934766
0.005717405 0.0066508176 -0.0023179443 0.009195413 -0.020141507 0.025454424 0.027942697 0.032845538
0.03704427 -0.019422198 -0.03887615 -0.049618796 -0.008545111 -0.01563086 -0.036678977 0.0520564
-0.062281944 0.022494193 -0.110753745 0.004704356 -0.04563493 0.0053487895 -0.0043871216 0.017397964
-0.0368237 0.06678131 -0.088228665 -0.00051826367 0.046927426 -0.058311496 0.16311443 -0.019096939
0.07016389 -0.021593044 -0.050170783 0.04036863 0.0283735 -0.0372573 -0.016033392 0.01278322
0.05574579 -0.062485185 0.055227946 -0.0527753 -0.0043756887 0.028759595 -0.0043495176 -0.08186698
0.037399895 0.008520487 0.06327301 -0.02213806 0.036920775 -0.0131408 0.034536127 -0.04314368
0.03425028 -0.09456366 -0.021734614 -0.12824759 0.059860967 0.018712135 0.037592877 -0.07222395
0.04802003 -0.047752876 0.0077439817 0.020666283 0.060947936 -0.018589212 -0.053685505 0.03603831
0.069742575 -0.007917874 0.043195285 0.0049830256 -0.0212193 0.009378936 0.007209616 0.0029541536
-0.016352305 -0.0032348419 -0.02557815 -0.013205539 0.012884003 -0.0076682377 -0.011294592 0.020523481

sequential/conv2d/Conv2D f4 [6, 5, 5, 1]
00000000: c0d4 0ebd ddd3 22bd 849b 263e 4d71 00bd
00000010: 71ac 4a3e f52f 63bd 27f7 7e3e bc8c 61bd
00000020: 67cc 1e3e ea20 8c3e 252e eb3d 54b6 b73c
00000030: b7ae 92bc 8784 7b3e 3d86 193e b6c8 873e
00000040: bd7a a73d 599b 033e 6977 313e ebad 073d
00000050: ed82 6abd 74ee 173e b659 113e 70b2 ba3d
00000060: 784e f63c 8ee3 023e c66b 223d c237 f33d
00000070: 46cc 3c3d f881 0ebb 1220 493e 5fa7 d13d
00000080: f78c 62bd 897b dd3d 294b 213d aef4 a33c
00000090: 96bd 223d fdc7 4d3e 066d 2b3e 6c0e aa3d
000000a0: ea40 d83d 8cfc 753e 2190 033e c558 8e3d
000000b0: a1da 773e b8a0 543e b555 e73d ef20 333e
000000c0: bcff b53d 1b47 193e d276 ce3d ae66 1f3e
000000d0: cdbd afbb 6692 91bc 3b4d 903e 9bbd 623e
000000e0: 1c07 663d cecb 2abc dee4 87bd ba24 683e
000000f0: 06fa 323e 39c1 a2bd da8a 4f3c edb5 9f3d
00000100: 30fb 493d ec8f 7b3e 55a0 573e 0f23 883e
00000110: 84a0 493d 852d fb3d 5a59 7bbd fb9d 4f3d
00000120: a0bb 503e e8e5 87bc ad57 ab3d 3e84 9cbd
00000130: e764 af3d 3e73 b1bc f994 083e 450e 8d3e
00000140: 3531 123e 081f 333e 149e 653d 3b28 b03d
00000150: 4623 93bd 3849 2f3e 0031 383e e730 1d3e
00000160: c537 0a3e 4683 36bd 5023 f33d 4f3a 053e
00000170: 8def 253e 6b0d 8f3e 5467 003d f161 05bd
00000180: d871 a33d c451 4bbc 3113 823e 1230 70bd
00000190: 7154 153e 9e7e f6bb 5089 21bc 16be 84bd
000001a0: b629 3d3e 9df1 3abd f12d a53c e413 c23d
000001b0: cf89 0e3e 1654 823e a92d 763e 260c 8fbc
000001c0: 4b42 113e a4b1 d93d 754e 653e a36b 543e
000001d0: 06a1 053e e822 283e c6ce 553d 2959 3e3e
000001e0: 8bfc 8cbc 793e 333e a10d c23d c5d8 993d
000001f0: ab18 b43d 4705 2d3e d39b 693e e94e 01bb
00000200: a07a 003d 2669 e93d 4a2c 863e 7364 b23d
00000210: ebd7 14bd 1f71 103d 9754 5a3e 777a 893d
00000220: 4147 7a3d 7f22 81bd 6e7e 123e 6a2e 83bd
00000230: e014 773d df0f 8b3e 06f0 873e 024d 573d
00000240: 4750 c03d ce4c 1d3e 858d 1a3e 9c85 063e
00000250: eaa5 033e 7347 083d
-0.034870863 -0.03975283 0.16270262 -0.031358052 0.19792344 -0.055465657 0.24898969 -0.055065855
0.15507661 0.2736886 0.11483411 0.022425808 -0.017905576 0.24562274 0.14992614 0.26520318
0.08177707 0.12852229 0.17330708 0.033124845 -0.057253767 0.14837056 0.14194378 0.091160655
0.030066714 0.12782118 0.039653562 0.11875869 0.046093248 -0.0021744948 0.1964114 0.10237002
-0.055310216 0.10814578 0.03937832 0.020014133 0.039731584 0.2009582 0.16740808 0.08303532
0.105592564 0.2402212 0.1284795 0.06950525 0.24204494 0.20764434 0.11295644 0.17493032
0.08886668 0.14968531 0.10081257 0.15566513 -0.005363202 -0.017770004 0.28183922 0.22142641
0.056159124 -0.010424567 -0.0663545 0.2267026 0.17478189 -0.079470105 0.012667382 0.077983715
0.049311817 0.2456662 0.21057256 0.26589248 0.049225345 0.122645415 -0.06136451 0.05068777
0.20384073 -0.01658912 0.08366332 -0.07642411 0.085641675 -0.021661397 0.13338079 0.2754995
0.14276583 0.17492306 0.05605896 0.08601423 -0.07184462 0.17117774 0.17987442 0.15350686
0.13497837 -0.044558786 0.1187197 0.13010524 0.16204663 0.27939925 0.03134854 -0.032564107
0.07980698 -0.012409631 0.25405267 -0.058639593 0.14582993 -0.007522418 -0.009859398 -0.064815685
0.18472943 -0.045640577 0.020163508 0.0947645 0.13919757 0.25454777 0.24040855 -0.017461848
0.14185445 0.106295854 0.2239321 0.20744185 0.13049707 0.16419566 0.052199148 0.185887
-0.017210266 0.175043 0.09475256 0.07512049 0.087937675 0.16896544 0.22813348 -0.0019730872
0.031366944 0.113970086 0.26205665 0.087105654 -0.036338728 0.03526413 0.21321331 0.067128114
0.06110311 -0.06305408 0.14306042 -0.06405337 0.060322642 0.27160546 0.2655031 0.052563675
0.09390312 0.1536133 0.15093048 0.13136905 0.1285626 0.033271264

sequential/conv2d_1/Conv2D f4 [16, 5, 5, 6]
00000000: 5162 febd a0ab b2bd c0c6 edbd d2b4 f63c
00000010: 74da d7bd 19b6 11be b119 dd3c 9ce1 cfbd
00000020: 6fd3 c53c b9ec a0bd aead 1ebe d503 a2bd
00000030: 087b b1bd 50bc 18be 8081 cebc d5b6 e2bd
00000040: 9aba b3bb 16dc f7bd 4cb0 b03c f9c8 6f3c
00000050: 8560 f4bc 14c5 d83c 9a64 f23b 56d9 46bd
00000060: 06f6 083d 3ddc aabd 2bfa ffbd 929e a83c
00000070: 4e5b 8ebd fba9 cdbd de6f 00be aa41 d63c
00000080: 4c1a 79bd 31e7 64bd 196d b73c 417b 4cbd
00000090: a122 d2bd 3e66 d1bd 3ae9 f2bd 8524 22be
000000a0: 9558 15be efa0 92bc df9d 19be 5a61 9bbc
000000b0: ae73 703c 128d 2e3b 2e7e 15bd 1af3 c9bc
000000c0: c939 34bd c39b 64bd d6ec 1bbe 73c8 033d
000000d0: e308 b1bc 93b4 0bbe 8bc4 39bd 4a70 8c3c
000000e0: e9c6 eebc 7cc5 53bd d971 f7bd 015d 71bd
000000f0: 60bd 66bd 21e0 e5bd de59 2dbe 2a16 0dbe
00000100: 6ff7 22be 5684 76bd d9c1 0fbe 3fbf 1ebd
00000110: 26ff e4bd f6c4 b5bc 2873 20bd e88f 243d
00000120: 2444 08be 8c8d 833c 8bf0 2d3c 268f b839
00000130: 26c8 d9bd 2780 9dbd b03d ecbd 2186 d5bb
00000140: 00c2 b0bc 6d12 02be c55f 21bd e238 4cbd
00000150: 9e13 0fbd c985 133c df70 16be e563 92bc
00000160: c757 aabc f067 0ebe 332b 91bc 7bcf 12be
00000170: 6810 13be 9924 efbd b241 0ebe bade 28bd
00000180: eecc 993b 5887 e2bd 3e1c e3bd c977 0e3d
00000190: 8a3f 17bc 9bdf aabd a434 74bb 14c0 1fbe
000001a0: b80f f5bd e39a a1bd dde2 15be c0bc bfbd
000001b0: cbcd 09be 6d63 d9bd 9b85 26bb 1b3f d83b
000001c0: 6c9e b2bd 6428 923c 46ee cfbd 0080 ae3b
000001d0: 1527 fe3c 7ad3 ac3c ff28 4ebd fff9 89bd
000001e0: 5669 5abc a3d7 17bd a422 8dbd b20f a9bc
000001f0: 0cb9 2abd 92d5 ab3c fe8c c5bc 3ce4 0abe
00000200: 5ac3 24bd ebcd 25be 1682 dabc 0ce7 c2bd
00000210: 9b76 4fbd c886 09bd 3028 013d 6584 5ebd
00000220: 6b6e 6ebd 79b9 de3c aba3 96bd a75a e7bd
00000230: 4010 1cbe b88a 68bd c123 d13b e384 493c
00000240: e46d f43c f86f efbd e43e afbd e9ef 03bd
00000250: 3988 20be ba23 3cbc 8cec febd 99e1 0d3d
00000260: a8dd 1bbe ee9e 0dbe 1c85 8bbd 8861 c3bd
00000270: ba12 f43b dd96 83bc 9429 1dbe 4340 eabd
00000280: 9f4c e5bd 9b9a 2bbd 0616 03be 273d 98bc
00000290: a752 a9bd 0af4 a3bd b7fa 44bc be7a f63c
000002a0: f943 fdbc 8454 0b3d 1744 e1ba 0946 b5bd
000002b0: db6f 0bbe a8da 29bd 1b19 133d 86c8 1abe
000002c0: 70d0 9dbd 10f8 323c 63a4 57bc e708 b5bc
000002d0: d3a7 2abd 7bb3 b1bc 1aaf fbbd 345b 88bb
000002e0: 9537 0a3d 2cd4 6bbd cfee 16bd 5913 87bd
000002f0: 34b6 0ebe 7e77 f6bd b4d8 d8bd 3437 a3bd
00000300: 830e 323d a01d 92bd 3c40 b1bd e040 05be
00000310: b72f 533c 2fb4 1e3d fb5e 0a3d 5f77 8bbd
00000320: feac e139 59b6 073c d298 1bbe febe 4ebd
00000330: 0bc1 fbbd f306 e6bd 205a d6bd 5e81 d33a
00000340: 90a1 cabd f526 99bd c24f 27bd 65f9 13be
00000350: e85f 0dbe f467 1abd e5fd 01be 3dfb cdbc
00000360: e158 4abd f599 a3bb 8eb1 103a 92c4 e7bd
00000370: c196 c33c dd25 8ebd c5a7 95bd ad8d 433b
00000380: add2 b3bc 1717 e0bd f2cc 19bd 8265 d13c
00000390: f567 a33c 9820 7cbd 6941 c23c d88e fb3c
000003a0: 5a2f 1ebe cf25 f1bd 03b6 353c be3d dbbd
000003b0: 8724 9d3c f38f 983c 65e6 26bd 1e79 e2bc
000003c0: e466 00bc dbac b7bd 3401 1bbe c44b 29be
000003d0: daec fdbd 549d 99bd d3a4 18be 1272 36bd
000003e0: 9fee 9ebd 79ec 05be 9e77 fdbc f931 a2bd
000003f0: 5c5b 3ebd 6d6d 0ebe 3549 0ebd 25d5 17bd
-0.12421096 -0.08724141 -0.11610174 0.030115519 -0.105397135 -0.14229621 0.02698979 -0.101504534
0.024148671 -0.07857651 -0.15495941 -0.07910887 -0.086660445 -0.14915586 -0.025208235 -0.11070029
-0.005484891 -0.12102525 0.02156844 0.014635318 -0.02983118 0.026461162 0.0073972465 -0.04854711
0.03343775 -0.08342788 -0.12498888 0.020583425 -0.06951009 -0.10042187 -0.12542674 0.026154358
-0.060816094 -0.055884544 0.022390889 -0.04992223 -0.10260511 -0.10224579 -0.11860891 -0.15834244
-0.14584573 -0.017899005 -0.1500163 -0.01896732 0.014676018 0.0026634377 -0.036497287 -0.024652053
-0.04400042 -0.05581261 -0.15227064 0.032173585 -0.021610683 -0.13643102 -0.045353454 0.017143387
-0.029147582 -0.051702008 -0.120822616 -0.058926586 -0.056332946 -0.1122439 -0.16928813 -0.13777986
-0.15914701 -0.0601848 -0.14038791 -0.038756605 -0.11181478 -0.022188645 -0.03917232 0.040176302
-0.13307244 0.016058706 0.010616432 0.0003520187 -0.106338784 -0.07690459 -0.115352035 -0.0065162336
-0.021576881 -0.12702341 -0.039397974 -0.049858935 -0.034930818 0.009004065 -0.14691494 -0.017869899
-0.020793809 -0.13906837 -0.017720794 -0.1433696 -0.14361727 -0.11676902 -0.13892248 -0.041228034
0.004693619 -0.11060971 -0.11089371 0.034782205 -0.0092314575 -0.083434306 -0.0037262822 -0.15600616
-0.11965889 -0.078908704 -0.14637323 -0.09362173 -0.1345741 -0.10614667 -0.0025409225 0.0065993196
-0.08721623 0.017841525 -0.10152869 0.0053253174 0.031024495 0.021096934 -0.050332066 -0.06737136
-0.013330778 -0.03707088 -0.06891373 -0.020637367 -0.04168038 0.020975862 -0.024115082 -0.13563627
-0.040225364 -0.16191833 -0.026673358 -0.09516725 -0.05065022 -0.033575803 0.031532466 -0.05432548
-0.05821077 0.02718805 -0.07355436 -0.112965874 -0.15240574 -0.056772918 0.006382436 0.012299749
0.029837556 -0.11691278 -0.08556917 -0.032211218 -0.15676965 -0.011483127 -0.124474615 0.034638975
-0.15221274 -0.13830158 -0.06812498 -0.09540087 0.0074485214 -0.016063148 -0.15347892 -0.11438038
-0.11196255 -0.04189549 -0.1280137 -0.018583847 -0.08267718 -0.08005531 -0.012022666 0.030087825
-0.030916201 0.034016147 -0.001718643 -0.08851249 -0.13616888 -0.041468292 0.035912614 -0.15115556
-0.07705772 0.0109234005 -0.013161751 -0.022098972 -0.041663956 -0.021692028 -0.12289257 -0.004161263
0.033744413 -0.05757539 -0.03684884 -0.06595487 -0.13936692 -0.1203451 -0.10588208 -0.079695135
0.04347087 -0.07134557 -0.0865483 -0.13013029 0.012889794 0.038746055 0.033781987 -0.068098776
0.00043044233 0.008283221 -0.15195015 -0.050475113 -0.122926794 -0.11231794 -0.10466409 0.0016136577
-0.09894097 -0.074781336 -0.040847547 -0.14450605 -0.13806117 -0.037696794 -0.1269451 -0.025144214
-0.049401168 -0.0049927183 0.0005519622 -0.1131679 0.023875596 -0.069408156 -0.0730739 0.0029839084
-0.021951044 -0.10941904 -0.037548967 0.025561098 0.019947032 -0.06155452 0.02371283 0.030707762
-0.1544775 -0.117747895 0.011090758 -0.10705136 0.019182457 0.018623328 -0.040747065 -0.027645644
-0.007837031 -0.089685164 -0.15137178 -0.16532809 -0.123986915 -0.07500711 -0.14906625 -0.04454238
-0.07760357 -0.13078488 -0.030940827 -0.07919688 -0.046473846 -0.1390893 -0.034737784 -0.037068505

sequential/conv2d_2/Conv2D f4 [120, 4, 4, 16]
00000000: 6a6d 96bc 73c3 143c 2b6d 3b3c bd19 14bd
00000010: 1734 09bc fe06 b6bb 2617 65bc 9077 0dbc
00000020: ed48 55bd 2394 353d b500 403d cce2 253c
00000030: f2bf bcbc 7c5a 3c3d 89e0 4cbd 01a7 66bc
00000040: c077 94bc e1c8 23bd 6b2e 3c3d 4eab d13c
00000050: 375d 0cbc 7f66 63bc d274 d2bc 266f 5bbc
00000060: 1254 a9bc caf7 393d 0fcb 7d3c df7f fcbc
00000070: da7b a1bc 0ac5 2ebd 37c8 21ba e732 073d
00000080: 27d3 113d a9c1 1fbc 45f0 4b3d c0de 0ebd
00000090: a4bc 42bd 266f 843b ef39 52bc 7f05 503c
000000a0: 1cf8 30bc 96a6 073d eb12 203c 0154 473c
000000b0: 4c4e b0bb 12ef 2bbd b41c 413d ca0e 57bd
000000c0: 2d30 28bc f742 47bd 9a78 62bc 716f 023d
000000d0: 805a ca3c 176b 0cbd 432a 04bc a5cc 693c
000000e0: 3cf6 fa3c a154 9a3c 9cbc 273d b7ba 9d3c
000000f0: c42b 37bd d779 e2ba f6cf 823c f6d0 1cbd
00000100: 4a17 383c 8cbd 313d bdce b73c d29c d63b
00000110: 8d45 8b3b 98b8 14bd 7d27 bebc 039d 5e3c
00000120: 1ed3 86bc 4766 00bd 8b5c 6a3b c087 bd3c
00000130: ae17 8a3c aafe fe3b 520f 6cbc c808 343d
00000140: ff2e 4bbd 32c1 263d 7794 cc3c 3535 2f3d
00000150: fce2 d73b 1e03 35bd dcf2 b43a 1af0 babc
00000160: 1fd6 19bd cc4a 123d 11a3 cdbc efc5 55bc
00000170: 837c 00bd f830 1dbc 8ecd 723c 0793 a6bc
00000180: 9138 df3c 0d05 22bd 708a 0d3d bd73 68bc
00000190: 04db bc3a 3a7f 733b d059 083b c61e 60bd
000001a0: 4856 3f3d 6bd0 dbbb 445c a43a ce30 0a3d
000001b0: 3ca7 103d 1fd3 2c3d 4a8a 9b3a 45e4 eabc
000001c0: 66ff dc3c a3e9 fcbc cefa fc3c 8c0e 0bba
000001d0: 36b9 e3bc aaa2 4dbc f3cb 8ebc be3c 7abc
000001e0: eb9f 5dbd 0aa8 46bd 14fe ce3c 3873 853c
000001f0: f5af 0b3d 277e 3a3d 6b05 623b 9a3e a3bc
00000200: ab19 9bbc e1df d83a 0350 91bc e778 bdbc
00000210: 656e 16bb d8c9 febb 7dfb 49bc 8fbc b4bb
00000220: 5c62 1abd af36 753c bee7 52bc 442c 19bd
00000230: 454f f23b f410 e83c 044e 2c3c 2e29 58bc
00000240: 2172 1d3d ec00 3bbd c98a 32bc 7d79 d93b
00000250: 91c8 ea3c 001e 503b ca51 823c 1e13 0abd
00000260: cb21 b13b 9825 063d a3e2 593b 437b fd3c
00000270: 2560 57bd 100d 23bd c958 f7bc 05fa babc
00000280: b257 34bc a768 863b 2fbd 15bd 12b0 23bd
00000290: 7889 093d bf49 1dbd f42c 493d 29d2 373d
000002a0: 3197 a53c dbd7 48bd ac2e 673c 25e4 3b3d
000002b0: 95b0 0d3d 6ebb cebc df09 17bd 5e7c 63bd
000002c0: 6101 4cbb b539 ed3c 4019 03b8 00ce 1f3d
000002d0: badb f8bc f023 14bd f342 1bbc 4b7c a7bb
000002e0: 2bfd 27bc 0718 fdbc 46bc 343d 6685 31bd
000002f0: 073a 6dbc 3e08 09bd 0af6 57bd 0a07 22bc
00000300: c8d9 fd3c d9d0 183c 64f8 26bd 20a0 383d
00000310: b145 b03c dca3 303c 85dc 763c 0686 adbc
00000320: 9f81 1d3d 313c 2c3d 16bb 3dbc d97b 89bc
00000330: 140e 933b 23a9 2e3d eebb 11bd 7d6d 873c
00000340: 3bfe 52bd fcb8 1ebd 1ad6 413d e43b 0dbd
00000350: 076f f63c e523 ec3c 808a c4bb 8cd9 29bd
00000360: 1e95 423d db0e adbc 13f3 123d 0fa1 c8bc
00000370: c904 3f3d 94f6 003d ae42 5f3c 6761 a33c
00000380: ac99 96bb b01e 54bd 2589 193c 54d3 2c3d
00000390: 75fd 6f3c f472 b5bc 31c0 953c f9d3 ad3c
000003a0: 65e3 4ebd 14aa a3bc f0a0 04bd 4a04 5ebd
000003b0: 93db 223c 5416 233d 9b6c 53bd f6b1 a0bc
000003c0: dd3b ac3b be91 35bd 71a8 33bd 2a23 e83a
000003d0: 0861 12bd 8026 fabb 0b6e f03c ed74 a43a
000003e0: 286d d93c cf43 62bc 62bf a23c d8af 0f3d
000003f0: 760d eabc 3168 25bd 4c44 03bc 01d5 beba
-0.01836272 0.009079802 0.011439602 -0.03615736 -0.008374236 -0.0055550328 -0.01398257 -0.008634463
-0.0520715 0.044330727 0.046875674 0.010124873 -0.023040745 0.04598473 -0.05001882 -0.014077903
-0.018123507 -0.039986495 0.045942705 0.02559438 -0.008567146 -0.013879417 -0.02569047 -0.013393199
-0.02066997 0.045402326 0.0154903075 -0.030822692 -0.019712377 -0.04266838 -0.0006171497 0.03300753
0.03560176 -0.009750762 0.049789686 -0.0348804 -0.047543183 0.0040415702 -0.012831195 0.012696623
-0.010801341 0.033117853 0.009770135 0.012166024 -0.0053804275 -0.041976042 0.047146514 -0.05250434
-0.010265392 -0.048647847 -0.013822699 0.03184456 0.024701357 -0.034281816 -0.008066717 0.014269982
0.030634992 0.018839182 0.040951356 0.019254072 -0.044719473 -0.0017278743 0.015968304 -0.03828522
0.011236021 0.043393657 0.022437448 0.006549456 0.0042502345 -0.036308855 -0.023212189 0.013587239
-0.01645809 -0.03134754 0.0035760726 0.02313602 0.016856994 0.007781823 -0.0144079495 0.043953687
-0.049605366 0.04071159 0.024973137 0.04277535 0.006588338 -0.044192426 0.0013805288 -0.022819567
-0.037557717 0.035715863 -0.02510217 -0.013047679 -0.031368744 -0.009594195 0.014819516 -0.02033378
0.027248653 -0.039555598 0.034555852 -0.01418775 0.0014408533 0.003715469 0.0020805486 -0.054716848
0.046713144 -0.006708195 0.0012539704 0.03373795 0.035315737 0.04219353 0.0011866775 -0.0286733
0.026977252 -0.030873125 0.030881312 -0.0005304597 -0.027798276 -0.012550989 -0.017431235 -0.015273271
-0.054107588 -0.0485001 0.025267638 0.016290292 0.034103353 0.045530465 0.0034488093 -0.019927312
-0.018933138 0.0016546213 -0.017738348 -0.02312894 -0.0022953984 -0.0077755265 -0.012328026 -0.005515642
-0.03769146 0.014966651 -0.012872634 -0.03739573 0.0073947036 0.028328396 0.010516647 -0.013193412
0.03843892 -0.045655176 -0.010897347 0.006636797 0.02866009 0.0031756163 0.01590814 -0.033709638
0.0054056398 0.032750696 0.0033246658 0.030942565 -0.052581925 -0.03980738 -0.030193703 -0.022824297
-0.011007236 0.004101831 -0.036557373 -0.039962836 0.033578366 -0.038400408 0.049115136 0.04487816
0.020213695 -0.04903398 0.014110249 0.045871872 0.03459223 -0.025235858 -0.03687465 -0.055538528
-0.0031128752 0.02895818 -3.125635e-05 0.039014816 -0.030378211 -0.036167085 -0.009476411 -0.0051112524
-0.010253231 -0.030895246 0.044124864 -0.04334011 -0.014479167 -0.033455126 -0.052724876 -0.009889374
0.030987635 0.009327137 -0.040764228 0.045074582 0.021517606 0.010781255 0.015067224 -0.021182071
0.038453694 0.04204959 -0.011580249 -0.016782688 0.004487762 0.04264177 -0.035579614 0.0165317
-0.051511984 -0.038750634 0.047323324 -0.034480944 0.030082239 0.02882571 -0.005997956 -0.041467234
0.04750549 -0.021125248 0.035876345 -0.024490861 0.046635423 0.031485155 0.0136267375 0.019943906
-0.004595956 -0.05178708 0.009371077 0.042193726 0.014647831 -0.02214954 0.01828012 0.02121924
-0.05050983 -0.01997856 -0.032380044 -0.05420331 0.009940046 0.039816216 -0.051617246 -0.019616108
0.0052561597 -0.044328444 -0.04386181 0.0017710675 -0.035737067 -0.007633984 0.029349348 0.0012547054
0.026541308 -0.013810112 0.019866649 0.035079807 -0.028570872 -0.040382568 -0.008011889 -0.001455933

sequential/conv2d/BiasAdd;sequential/conv2d/Conv2D;conv2d/bias f4 [6]
00000000: 0504 e23d 5b26 dc3d 722b 0a3e ac54 e93d
00000010: 20ff 113e 7ffc db3d
0.11035923 0.10749503 0.13493136 0.11393103 0.14257479 0.10741519

sequential/conv2d_1/BiasAdd;sequential/conv2d_1/Conv2D;conv2d_1/bias f4 [16]
00000000: bf06 4bbd 09fd 50bd a98a 5bbd eebd 6abd
00000010: 3632 3bbd e994 46bd 71bf 49bd 3d00 50bd
00000020: a39f 2fbd 1dc6 54bd 31ee 4ebd 9295 47bd
00000030: fa4a 54bd 50dd 50bd da17 71bd 6a71 55bd
-0.04956698 -0.051022563 -0.053599034 -0.057310037 -0.04570218 -0.048481856 -0.04925484 -0.050781477
-0.04287685 -0.051946748 -0.050520126 -0.048726626 -0.051829316 -0.05099231 -0.058860637 -0.052110113

sequential/conv2d_2/BiasAdd;sequential/conv2d_2/Conv2D;conv2d_2/bias f4 [120]
00000000: 7f0d 4abb 762c 303c 84da 26ba 684f b8bb
00000010: c767 9ebb 0fd8 50bb 3ad9 8bbb 605c 103b
00000020: b4f0 bf3a e948 a2bb ed87 8e3b a4b2 d4bb
00000030: 7675 f33b e41a 463b 6103 b3bb d0ba a73b
00000040: 5a8d d0ba 8eb4 0abc 1231 73bb 95bc 123c
00000050: 3eb1 bebb 3dd1 653b 3af4 5dba 184a 4a39
00000060: bccf d5ba b24d 8a3b 6c0e cb39 5cd1 b2ba
00000070: ccf6 8d3b 174e 06bb ce73 723b f476 d4b9
00000080: 2cc4 20bb 9850 66ba 04e2 c6ba 285b ee3b
00000090: f640 2d3b 2a62 5f3b 1821 0d3c c225 74bb
000000a0: c835 0f3b 1ccc edba 6299 243b 9265 06b8
000000b0: db59 ab39 d84e 12bb d208 773b 13f4 153c
000000c0: 42c0 a9ba 9a83 69ba df26 6c3b e88b f43b
000000d0: d2e5 523b 8f30 1cba 0fee 853b 723d 5abb
000000e0: df4a be3b f19b 233b 0c7d 72bb c766 573a
000000f0: 3032 ed3a 784d 123b 3f0f 823a a499 0d3c
00000100: f863 61bb cdef ec3b 31a4 cf3a 72c1 c6ba
00000110: 609b e3b9 ab9b 82ba fb54 353b 3def bcba
00000120: ad46 db39 e91c 0a3a d153 03bb 60e8 73bb
00000130: e2cc a9bb 3add 3cbb 9b60 67ba 2677 e13b
00000140: 6e11 c9ba 2851 cf3b 3c67 943b fbfe 3cba
00000150: f5a8 93bb 788e f03b d768 98ba f96e 183b
00000160: 9c48 823b f5b7 03bb eb0b afba e198 e33b
00000170: f9a1 2abb 9844 afbb 8347 1d3c b624 723b
00000180: 812f 523b 86c0 19bb ee16 353b b954 8a3a
00000190: 8f3f a43b a349 06bb 0c3e c33a 8a46 37bb
000001a0: 1276 45bb b1ba 1439 b65a 9b3b a130 aebb
000001b0: 665d b0ba eba3 a23b f957 843a 701b d7ba
000001c0: 0dd9 063b 1fd0 0fbb fcf3 e53b 2419 cdba
000001d0: 7ee4 b5bb 3504 85bb 00fd 2f3b f29a bf3b
-0.0030830798 0.010752788 -0.0006364959 -0.0056247003 -0.0048341486 -0.0031867062 -0.004267839 0.0022027716
0.0014643879 -0.004952539 0.0043496997 -0.006491022 0.007429774 0.003022843 -0.0054630493 0.0051187053
-0.0015911267 -0.008465899 -0.0037108106 0.008956094 -0.0058194688 0.0035067343 -0.00084668736 0.00019291823
-0.001631252 0.004220688 0.00038729922 -0.0013642716 0.004332399 -0.0020493323 0.0036995295 -0.00040524418
-0.002453099 -0.0008785813 -0.0015173559 0.0072740503 0.0026436425 0.003408561 0.008613847 -0.003725395
0.0021852124 -0.0018142494 0.0025115837 -3.2042684e-05 0.0003268261 -0.0022324827 0.0037694466 0.00915243
-0.0012950974 -0.0008907855 0.0036033911 0.007462967 0.003218044 -0.00059581635 0.0040872167 -0.0033300784
0.005807265 0.0024964774 -0.0037000803 0.0008216914 0.0018096622 0.0022324007 0.0009922757 0.008642588
-0.0034391861 0.007230735 0.001584178 -0.0015163852 -0.00043412577 -0.0009964606 0.002766906 -0.001441456
0.00041823593 0.000526859 -0.0020038972 -0.0037217364 -0.0051818946 -0.0028818385 -0.0008826346 0.0068806587
-0.0015340277 0.0063268133 0.004528908 -0.0007209626 -0.004506225 0.0073412023 -0.0011627924 0.0023259504
0.003975941 -0.002009866 -0.0013354992 0.006945715 -0.0026036485 -0.005348753 0.009599569 0.003694815
0.0032071772 -0.00234607 0.0027632075 0.0010553814 0.0050124596 -0.0020490668 0.0014895811 -0.0027965629
-0.003013019 0.00014183928 0.004741038 -0.0053158556 -0.0013455569 0.004963388 0.0010097019 -0.0016411375
0.002057615 -0.0021944118 0.0070176106 -0.0015647751 -0.00555092 -0.0040593394 0.002685368 0.0058473283
