tmp/model.tflite (tflite, 181444 bytes, 10 tensors)

dense_1/bias f4 [10]
-0.018058514 0.058990553 -0.0031812794 0.018734269 0.004353213 -0.06846056 -0.0071853665 0.041735683
-0.016360827 -0.025538573
00000000: 73ef 93bc 14a0 713d 037d 50bb 9c78 993c
00000010: 66a5 8e3b 0d35 8cbd 3973 ebbb 09f3 2a3d
00000020: 2407 86bc 4536 d1bc

dense/bias f4 [84]
-0.008819829 0.043708187 -0.032752384 -0.032302763 -0.0018736728 0.0021968905 0.0039511733 -0.015605
-0.01840108 -0.015298707 -0.01093738 0.015771823 0.00316543 -0.02243245 0.008439735 -0.0057187374
0.02456927 0.0040307497 0.01306495 0.02131007 0.036282808 -0.007332309 -0.01010808 -0.019318111
-0.0028353017 -0.0046392404 -0.004699088 0.01660556 -0.010524535 -0.025827814 0.0069750273 0.005661538
-0.015088953 -0.008859654 0.025187908 0.0010292946 -0.023110878 -0.009026856 0.009928408 -0.01338553
0.0016409081 0.014836589 -0.007285971 0.008073025 -0.000763759 -0.011273798 -0.009110226 0.0014974629
0.039976165 -0.008637341 0.022970222 -0.0029284894 0.0017306446 -0.0055938005 0.016846761 0.0070292475
0.01539347 -0.0137302615 -0.009639905 -0.015663093 -0.016299749 0.017580401 0.03590625 0.013417214
0.048433583 -0.0062017487 -0.017759886 -0.045482844 0.018056355 0.0076714344 -0.016341902 -0.003394518
-0.012522703 0.015312452 0.008830485 0.010005043 -0.010422465 -0.0041628983 -0.0014096728 0.035626642
-0.015582541 -0.009441674 -0.026587952 0.012295969
00000000: 0b81 10bc 5b07 333d 5d27 06bd e74f 04bd
00000010: 0796 f5ba b5f9 0f3b d878 813b 1dac 7fbc
00000020: ddbd 96bc 6ea7 7abc b232 33bc e933 813c
00000030: 1a73 4f3b 42c4 b7bc d046 0a3c 3f64 bbbb
00000040: 7e45 c93c 6114 843b 5f0e 563c 7592 ae3c
00000050: 489d 143d de43 f0bb 5c9c 25bc 0441 9ebc
00000060: 78d0 39bb c504 98bb cffa 99bb 6208 883c
00000070: 196f 2cbc da94 d3bc c58e e43b 6c84 b93b
00000080: a837 77bc 1528 11bc df56 ce3c 65e9 863a
00000090: 0653 bdbc 61e5 13bc c3aa 223c fb4e 5bbc
000000a0: bd13 d73a 2a15 733c 28bf eebb b944 043c
000000b0: 0037 48ba bcb5 38bc 0f43 15bc 8446 c43a
000000c0: 0cbe 233d a283 0dbc 0c2c bc3c e6eb 3fbb
000000d0: ccd6 e23a 334c b7bb 3802 8a3c 9a55 e63b
000000e0: e534 7c3c e4f4 60bc b1f0 1dbc e34f 80bc
000000f0: 0d87 85bc c604 903c 6f12 133d e0d3 5b3c
00000100: 4b62 463d 0a38 cbbb 2e7d 91bc 384c 3abd
00000110: ecea 933c a860 fb3b 74df 85bc 9076 5ebb
00000120: 062c 4dbc 14e1 7a3c bdad 103c 31ec 233c
00000130: fdc2 2abc ec68 88bb c5c4 b8ba 3eed 113d
00000140: ea4d 7fbc 40b1 1abc face d9bc 0875 493c

sequential/dense/MatMul f4 [84, 120]
0.0140587855 -0.009904307 -0.10322798 -0.13262399 -0.13656944 -0.048773065 0.015336001 -0.085677676
0.005775392 -0.074473426 0.060692858 0.006606762 -0.048644464 -0.0033992967 0.025958955 0.06481473
-0.107034415 -0.024685236 0.09399126 0.08648911 0.0067577423 -0.013250972 0.13743864 -0.031149909
-0.048398472 0.029321812 0.12432912 0.02872081 -0.046093266 -0.0076097785 -0.15060091 -0.07852289
-0.019860005 0.11484351 -0.043217175 0.011241338 -0.005833291 -0.10984428 -0.034473546 0.07305476
-0.05153705 0.11330147 0.016518015 0.105905086 -0.116784155 0.09842838 -0.046178874 -0.13224787
-0.07360449 -0.1177453 0.12479593 0.091000475 0.0962938 -0.00353127 0.014784816 -0.028015215
-0.16906728 0.04123355 -0.010396628 -0.058670867 -0.11172719 0.13795672 -0.029755214 -0.069292754
0.06285452 0.009153659 0.009200752 -0.12174803 0.009352373 0.10543513 -0.019414917 0.07074395
-0.03905229 0.07412055 -0.051323563 0.090005316 -0.10001996 0.022160199 -0.13555638 0.04261795
0.003848423 0.10199716 -0.11952717 -0.117037885 0.10686895 -0.112295456 0.14047661 0.14951268
-0.14109647 -0.06417339 -0.1062657 0.04523179 -0.11306162 0.10281901 -0.06137159 -0.11832522
0.08641216 0.06173559 -0.06252225 -0.042151257 0.09446526 0.023302263 0.033270925 0.071113855
0.086454965 -0.079986215 -0.039385848 -0.06863436 0.02357329 0.07034289 -0.13853079 0.058030173
0.15152304 0.081949845 -0.10815402 -0.06911426 0.10431323 -0.024809282 0.013164161 0.08161987
-0.046618056 -0.18153995 0.0718995 0.021445919 0.12965196 -0.10346841 -0.07512685 0.05069297
0.011542614 0.095628686 -0.070875384 0.11836413 -0.090114005 -0.07402516 0.10152657 -0.028461209
-0.065020196 -0.08252354 -0.018450752 -0.083313726 0.11678724 0.13878468 -0.09944628 -0.09040814
-0.047879584 -0.088039 0.01190369 -0.0808192 -0.06459429 -0.040068705 0.059228905 0.06675917
-0.00404443 -0.07979247 0.066723794 0.06217089 0.10722788 0.024013937 -0.10092387 0.0005191399
0.06582442 0.11326524 -0.12620528 0.00085160893 -0.07615563 -0.05342873 -0.13903515 0.07233083
0.101430796 0.032931976 -0.02223612 0.09311014 0.013997742 0.13874178 0.0421528 0.13244437
0.1466061 0.00042982487 -0.11279778 -0.10130832 -0.047068067 0.027416732 -0.095041685 -0.039950605
-0.05454619 0.06455642 0.04196488 -0.06021375 0.069503754 -0.13062859 0.01796609 0.095957525
-0.023349043 -0.03425571 -0.0013419446 0.123401225 -0.1297456 -0.11779843 -0.004495948 0.11415214
-0.019685848 0.08473335 -0.10096759 -0.063781895 0.05481264 0.078330375 0.013412518 -0.111186
-0.034056462 0.11182525 -0.10871894 -0.029866675 -0.08267987 0.027962184 0.14542577 0.071438946
0.18482706 -0.13221762 -0.11808824 0.13217267 0.100455716 -0.13062301 0.054724213 0.12951468
-0.095096916 -0.10764439 -0.04338496 0.029164156 -0.12984064 -0.008520939 0.1141254 -0.058464054
0.041326452 0.09672317 -0.08529163 0.003255532 -0.039269354 -0.05730524 -0.04007775 -0.14414822
-0.05778578 0.037111733 0.04426306 0.09068344 -0.023937648 -0.08733523 -0.04875662 -0.0022078902
0.09280696 0.098372884 -0.009238509 0.011932767 0.07819305 0.07159518 -0.15210947 0.016131535
00000000: d256 663c ad45 22bc 3169 d3bd 95ce 07be
00000010: dcd8 0bbe 44c6 47bd da43 7b3c c777 afbd
00000020: 803f bd3b 8685 98bd 1399 783d 897d d83b
00000030: 6b3f 47bd bcc6 5ebb e0a7 d43c 96bd 843d
00000040: dc34 dbbd b138 cabc 7d7e c03d 3421 b13d
00000050: 0d70 dd3b 9b1a 59bc b7bc 0c3e 182e ffbc
00000060: 7a3d 46bd 4c34 f03c 44a0 fe3d e747 eb3c
00000070: 4bcc 3cbd 735b f9bb 2037 1abe 9cd0 a0bd
00000080: 73b1 a2bc 1333 eb3d 7e04 31bd 972d 383c
00000090: 3125 bfbb 0af6 e0bd 2234 0dbd bc9d 953d
000000a0: 8418 53bd 9a0a e83d ca50 873c c4e4 d83d
000000b0: 882c efbd d294 c93d 0f26 3dbd fc6b 07be
000000c0: f3bd 96bd 7324 f1bd 0295 ff3d 755e ba3d
000000d0: af35 c53d e16c 67bb 033c 723c 2a80 e5bc
000000e0: f91f 2dbe 83e4 283d 9e56 2abc dd50 70bd
000000f0: 3ad1 e4bd 8744 0d3e 35c1 f3bc 5ce9 8dbd
00000100: dfb9 803d 3bf9 153c c0be 163c 0857 f9bd
00000110: b23a 193c 60ee d73d 080c 9fbc 34e2 903d
00000120: 4bf5 1fbd 84cc 973d a838 52bd b554 b83d
00000130: 44d7 ccbd 4e89 b53c 4bcf 0abe 2990 2e3d
00000140: d335 7c3b e3e3 d03d a9ca f4bd 8fb1 efbd
00000150: 1cde da3d 29fb e5bd 1ad9 0f3e da19 193e
00000160: 987b 10be 576d 83bd d5a1 d9bd f844 393d
00000170: da8c e7bd c692 d23d c760 7bbd 7e54 f2bd
00000180: dcf8 b03d 75de 7c3d aa0b 80bd cca6 2cbd
00000190: 0177 c13d 63e4 be3c 1847 083d 24a4 913d
000001a0: 4d0f b13d d0cf a3bd 0e53 21bd 2c90 8cbd
000001b0: c61c c13c ef0f 903d 04db 0dbe 0cb1 6d3d
000001c0: db28 1b3e 52d5 a73d db7f ddbd c78b 8dbd
000001d0: 2da2 d53d d63c cbbc 7eae 573c 5228 a73d
000001e0: 93f2 3ebd 9ce5 39be 0c40 933d 5aaf af3c
000001f0: 7cc3 043e 3fe7 d3bd 1bdc 99bd 6fa3 4f3d
00000200: 3b1d 3d3c f9d8 c33d 1d27 91bd e568 f23d
00000210: b18d b8bd 819a 97bd 2aed cf3d 7b27 e9bc
00000220: 4f29 85bd 1a02 a9bd 0826 97bc 63a0 aabd
00000230: 262e ef3d 921d 0e3e 7eaa cbbd e727 b9bd
00000240: 621d 44bd cb4d b4bd b207 433c 8984 a5bd
00000250: 034a 84bd 151f 24bd 029a 723d 08b9 883d
00000260: 2387 84bb 3c6a a3bd 7ca6 883d e7a6 7e3d
00000270: 4a9a db3d e0b8 c43c 2db1 cebd e416 083a
00000280: f4ce 863d 9bf7 e73d f53b 01be 823e 5f3a
00000290: 7cf7 9bbd 16d8 5abd 3b5f 0ebe 3022 943d
000002a0: f3ba cf3d aee3 063d 8628 b6bc 87b0 be3d
000002b0: c956 653c 5312 0e3e 6aa8 2c3d 7f9f 073e
000002c0: e91f 163e 1e5a e139 8602 e7bd bd7a cfbd
000002d0: 72ca 40bd 0e99 e03c 37a5 c2bd 3fa3 23bd
000002e0: d36b 5fbd 2836 843d 5ee3 2b3d b1a2 76bd
000002f0: fc57 8e3d 80c3 05be 9f2d 933c 6185 c43d
00000300: 7e46 bfbc b74f 0cbd 30e4 afba c8b9 fc3d
00000310: 08dc 04be 4e40 f1bd bf52 93bb 99c8 e93d
00000320: 3744 a1bc ae88 ad3d 19c8 cebd 15a0 82bd
00000330: 3883 603d ad6b a03d 2ec0 5b3c 7cb5 e3bd
00000340: ca7e 0bbd a304 e53d 09a8 debd f5aa f4bc
00000350: 1054 a9bd f310 e53c 7eea 143e 954e 923d
00000360: 4e43 3d3e 0e64 07be 3fd8 f1bd 4658 073e
00000370: babb cd3d 0ac2 05be 7f26 603d 7f9f 043e
00000380: 2cc2 c2bd a974 dcbd 6eb4 31bd abe9 ee3c
00000390: f2f4 04be 699b 0bbc 94ba e93d 0178 6fbd
000003a0: ed45 293d cc16 c63d 61ad aebd c35a 553b
000003b0: e7d8 20bd e6b8 6abd 9128 24bd 979b 13be
000003c0: c8b0 6cbd 7902 183d 2f4d 353d 3db8 b93d
000003d0: e318 c4bc d0dc b2bd 06b5 47bd 40b2 10bb
000003e0: 9311 be3d b977 c93d 1e5d 17bc a781 433c
000003f0: ae23 a03d 7ea0 923d 96c2 1bbe 4826 843c

sequential/dense_1/MatMul f4 [10, 84]
-0.074674234 0.1036942 -0.02303881 0.051914107 -0.039625876 -0.027572464 0.12498175 0.019255625
0.027578771 0.04111494 0.05850679 -0.13916393 -0.071913145 -0.0065958756 -0.07386001 0.034815304
-0.008225925 0.025096321 -0.08900127 -0.095842466 0.032958414 0.08115332 -0.11951384 0.059632532
-0.07323499 0.0767848 -0.10369516 -0.024057489 -0.0416305 -0.059825733 0.17012013 0.019968677
0.090690285 0.04213042 -0.06699137 0.06946329 0.031296056 -0.034839813 -0.00685271 0.053875882
-0.02135373 -0.024619907 0.009729824 -0.05771528 -0.05512194 0.1102714 -0.036991056 -0.13964146
0.012987909 0.08886893 0.043740705 -0.018890835 0.06812698 -0.05293936 -0.07295484 -0.0008537883
0.045346275 -0.10181047 -0.08450491 -0.124052964 0.096286304 0.08752356 0.019057862 0.001732497
0.0058320556 -0.053310513 0.0025760287 0.03933939 0.033833593 0.028219128 -0.041340023 0.018383795
-0.008963251 -0.018558243 0.007399086 -0.049935095 -0.08757383 0.10041789 0.12265568 0.002695688
0.07633392 0.0075790756 -0.09851036 0.0034096865 -0.05891634 -0.02050046 -0.0951134 0.028299972
-0.09427623 0.06943897 0.14348465 0.02809805 -0.053741787 0.021726107 -0.10152339 0.05758689
0.044644404 -0.05407479 -0.035130817 0.045361344 -0.024596594 0.021898633 -0.12585038 0.051952887
-0.04734553 -0.01065442 0.02165184 -0.039740585 -0.057534188 0.08310345 -0.08978155 0.07616568
-0.022256803 -0.09260764 0.1534408 -0.039697926 0.017391765 -0.051706962 -0.014752405 0.072019674
0.006950156 -0.042370602 -0.00781702 -0.07008793 0.086742364 -0.08041167 0.17198291 -0.023458587
0.020185696 -0.02641173 -0.054941572 -0.13492207 0.13487498 -0.012755537 0.12630558 -0.022597961
0.0977282 -0.008008842 0.1311306 0.024948254 0.16925807 -0.11278046 0.07667624 -0.11071257
0.031844217 0.1244524 0.12639971 -0.08110899 0.1102932 -0.098045066 -0.053319693 -0.058357544
0.0783134 0.020736564 -0.10951994 0.024147768 0.08589035 -0.0034864116 0.092482135 -0.064139046
-0.10176019 -0.040338796 -0.07288219 0.087292105 -0.09929571 0.014387166 -0.062061086 -0.031813316
0.039414838 -0.053459633 0.0057886736 -0.042344373 -0.06488462 0.12229604 -0.0013324495 0.06821444
0.06765003 -0.009581072 -0.1038544 -0.16218178 -0.03082681 -0.019122679 -0.028134273 0.05347807
-0.030348519 0.030556675 -0.1116788 0.053600036 -0.09629084 0.0825001 0.15601236 0.06114512
0.0068255123 0.10418254 -0.07532398 0.017679198 0.06207372 -0.031690374 0.13420635 -0.03304422
-0.0017677355 0.004067687 -0.021611515 0.0059886696 -0.014228826 -0.003296391 0.06014579 0.06530768
-0.07124102 -0.09113762 0.13637078 -0.03445081 -0.0067576165 -0.011754871 -0.04362669 -0.13260569
0.0593293 -0.0017978346 -0.032159988 -0.015800437 0.10105454 -0.05731708 0.011490302 -0.047218766
0.124035016 -0.10233951 0.018795611 -0.07416355 0.026426474 -0.048227318 0.116835475 -0.103969984
0.07269096 -0.098557025 0.029917525 0.03923744 0.12166611 -0.0628064 -0.09692897 0.06047059
0.13128422 -0.00795813 0.06547447 0.006345247 0.012507691 -0.03269169 -0.11871165 0.023007499
0.013542454 -0.00795764 0.0010059384 -0.05190199 -0.029744448 0.0357476 0.109891474 -0.024590904
00000000: ceee 98bd a05d d43d e3bb bcbc e3a3 543d
00000010: be4e 22bd a6df e1bc 6ff6 ff3d f9bd 9d3c
00000020: e0ec e13c 2468 283d d1a4 6f3d fd80 0ebe
00000030: 3347 93bd 3722 d8bb eb43 97bd 7e9a 0e3d
00000040: 08c6 06bc cd96 cd3c 4c46 b6bd 0e49 c4bd
00000050: 67ff 063d b633 a63d acc3 f4bd 3e41 743d
00000060: 3afc 95bd 5941 9d3d 215e d4bd 3614 c5bc
00000070: be84 2abd d40b 75bd f933 2e3e 5a95 a33c
00000080: d4bb b93d f390 2c3d c532 89bd c542 8e3d
00000090: 4b30 003d 31b4 0ebd b38c e0bb f5ac 5c3d
000000a0: 04ee aebc b0af c9bc d769 1f3c dc66 6cbd
000000b0: 8bc7 61bd f9d5 e13d ef83 17bd 2cfe 0ebe
000000c0: 3dcb 543c ea00 b63d 7429 333d f4c0 9abc
000000d0: 2886 8b3d f1d6 58bd 5969 95bd c3d0 5fba
000000e0: 04bd 393d 0282 d0bd e910 adbd 7b0f febd
000000f0: c131 c53d 8d3f b33d 3c1f 9c3c f414 e33a
00000100: d41a bf3b 205c 5abd 97d2 283b 5722 213d
00000110: 1895 0a3d cd2b e73c 2854 29bd 9d99 963c
00000120: 99da 12bc 7507 98bc 0874 f23b be88 4cbd
00000130: e859 b3bd e5a7 cd3d e732 fb3d 24aa 303b
00000140: f554 9c3d e559 f83b cdbf c9bd 0c75 5f3b
00000150: 4352 71bd 95f0 a7bc d0ca c2bd 58d5 e73c
00000160: e513 c1bd 0536 8e3d a4ed 123e e22d e63c
00000170: 5920 5cbd f3fa b13c 7feb cfbd 3be0 6b3d
00000180: 0ddd 363d 877d 5dbd 55e5 0fbd d1cc 393d
00000190: cc7e c9bc c364 b33c ecde 00be 8dcc 543d
000001a0: 63ed 41bd e08f 2ebc 335f b13c 06c7 22bd
000001b0: f8a8 6bbd 2432 aa3d 64df b7bd c1fc 9b3d
000001c0: e653 b6bc 13a9 bdbd 961f 1d3e 4b9a 22bd
000001d0: 2d79 8e3c aeca 53bd 12b4 71bc 0d7f 933d
000001e0: 22be e33b cc8c 2dbd f512 00bc 438a 8fbd
000001f0: fba5 b13d e0ae a4bd 4a1c 303e 392c c0bc
00000200: 795c a53c 6a5d d8bc 6a0a 61bd 0329 0abe
00000210: ab1c 0a3e 9afc 50bc 4056 013e 5c1f b9bc
00000220: b925 c83d 8537 03bc 1a47 063e 4860 cc3c
00000230: fd51 2d3e 71f9 e6bd 6f08 9d3d 46bd e2bd
00000240: 156f 023d e6e0 fe3d ed6e 013e 781c a6bd
00000250: 67e1 e13d dacb c8bd c065 5abd 5208 6fbd
00000260: c762 a03d badf a93c fe4b e0bd 8ad1 c53c
00000270: 48e7 af3d 487c 64bb 4667 bd3d 555b 83bd
00000280: a667 d0bd 4b3a 25bd 4243 95bd 34c6 b23d
00000290: 8d5b cbbd 26b8 6b3c c433 7ebd ae4e 02bd
000002a0: 7471 213d 7df8 5abd eaae bd3b 4b71 2dbd
000002b0: 3ae2 84bd 5976 fa3d 96a5 aeba 03b4 8b3d
000002c0: 198c 8a3d eef9 1cbc 9eb1 d4bd fb12 26be
000002d0: 8288 fcbc 2aa7 9cbc d979 e6bc d20b 5b3d
000002e0: 759d f8bc fe51 fa3c dbb7 e4bd b68b 5b3d
000002f0: 2234 c5bd d0f5 a83d b4c1 1f3e 4e73 7a3d
00000300: 8ca8 df3b a85d d53d 7543 9abd f7d3 903c
00000310: 0341 7e3d c4cd 01bd 646d 093e 6059 07bd
00000320: 5cb3 e7ba 3b4a 853b a20a b1bc 9a3c c43b
00000330: 0620 69bc 4408 58bb 6f5b 763d 08c0 853d
00000340: d0e6 91bd 5ca6 babd c8a4 0b3e 4b1c 0dbd
00000350: ff6e ddbb 8197 40bc e6b1 32bd c9c9 07be
00000360: 4803 733d 52a5 ebba 31ba 03bd eb6f 81bc
00000370: aff5 ce3d 51c5 6abd d241 3c3c 7768 41bd
00000380: 1206 fe3d 6197 d1bd 41f9 993c 0fe3 97bd
00000390: 557c d83c 028a 45bd 7047 ef3d 37ee d4bd
000003a0: ffde 943d 44d8 c9bd 9915 f53c 70b7 203d
000003b0: 152c f93d a4a0 80bd b282 c6bd 02b0 773d
000003c0: 5f6f 063e d162 02bc 7b17 863d caeb cf3b
000003d0: 0fed 4c3c b9e7 05bd 181f f3bd 397a bc3c
000003e0: 2be1 5d3c c360 02bc b1d9 833a 2e97 54bd
000003f0: a1aa f3bc 136c 123d c80e e13d dd72 c9bc

sequential/conv2d/Conv2D f4 [6, 5, 5, 1]
-0.07457016 -0.07017124 0.14289317 -0.046453334 0.17973922 -0.08943842 0.22898385 -0.06586032
0.14803843 0.25987864 0.0887859 0.009412929 -0.021910597 0.2426114 0.13567826 0.24121253
0.070877075 0.1247207 0.16631404 0.012592714 -0.08385382 0.13230947 0.12977467 0.073082335
-0.0009800307 0.11911788 0.029441688 0.10525864 0.027384419 -0.026385395 0.18886244 0.09424984
-0.06580752 0.09045347 0.018955586 0.009511657 0.031096151 0.1907889 0.1561614 0.06924427
0.09140667 0.23036596 0.12022725 0.0634834 0.23498356 0.18885046 0.0991738 0.16800587
0.08530527 0.1437739 0.097808 0.1479048 -0.020596154 -0.04046712 0.25322455 0.22150213
0.05041064 -0.023874117 -0.08693911 0.2006219 0.17476693 -0.08364716 0.0025712636 0.06232407
0.028177049 0.24002166 0.20539443 0.25770923 0.03719851 0.10454164 -0.07361977 0.041372787
0.19495521 -0.026651558 0.06924081 -0.11238267 0.05727607 -0.046363577 0.10327025 0.23248994
0.12562144 0.16872883 0.050875664 0.07079129 -0.1051511 0.1674653 0.18859869 0.16250207
0.13088065 -0.069266796 0.11863289 0.14202361 0.1740579 0.27921078 0.012334542 -0.03725066
0.08526623 -0.006511736 0.2507868 -0.0766893 0.109428376 -0.045750793 -0.04681585 -0.09257232
0.16488719 -0.07764978 -0.012522307 0.069483496 0.1255451 0.24759062 0.21557657 -0.038061257
0.12984563 0.10309306 0.22228439 0.18807468 0.11664394 0.1575002 0.0519793 0.1841065
-0.039943196 0.1582121 0.08416974 0.07010347 0.081402406 0.14907375 0.21203253 -0.028193682
-0.011439322 0.05489427 0.25675237 0.08477292 -0.052015122 -0.001412724 0.1548984 0.07148142
0.06822213 -0.07004666 0.11240254 -0.119198486 0.0653338 0.27989483 0.26123923 0.02587889
0.04573405 0.1550147 0.15437353 0.12474343 0.10427355 -0.0075909137
00000000: 3db8 98bd f0b5 8fbd 9652 123e da45 3ebd
00000010: 8f0d 383e 7e2b b7bd be7a 6a3e c7e1 86bd
00000020: 6397 173e d00e 853e 62d5 b53d b038 1a3c
00000030: da7d b3bc 1f6f 783e 3eef 0a3e 6b00 773e
00000040: 0028 913d 916d ff3d 3a4e 2a3e ac51 4e3c
00000050: 8dbb abbd 227c 073e a7e3 043e 31ac 953d
00000060: 6074 80ba 13f4 f33d b22f f13c d891 d73d
00000070: 4a55 e03c 2f26 d8bc 2865 413e 0f06 c13d
00000080: 18c6 86bd ab3f b93d bf48 9b3c c8d6 1b3c
00000090: 5bbd fe3c 2a5e 433e c6e8 1f3e f1cf 8d3d
000000a0: 6c33 bb3d 0ee5 6b3e b439 f63d 9603 823d
000000b0: 889f 703e 0462 413e a21b cb3d bb09 2c3e
000000c0: 88b4 ae3d 7739 133e 904f c83d 5b74 173e
000000d0: 44b9 a8bc dac0 25bd a6a6 813e 74d1 623e
000000e0: 637b 4e3d a793 c3bc 220d b2bd d46f 4d3e
000000f0: 1af6 323e 344f abbd a582 283b 8647 7f3d
00000100: 8ed3 e63c 3dc8 753e eb52 523e 77f2 833e
00000110: 775d 183d ed19 d63d f6c5 96bd 8376 293d
00000120: 57a2 473e 5e54 dabc 20ce 8d3d e328 e6bd
00000130: 509a 6a3d bce7 3dbd 5a7f d33d d811 6e3e
00000140: e8a2 003e 40c7 2c3e 0063 503d 06fb 903d
00000150: 7659 d7bd 067c 2b3e 0420 413e f166 263e
00000160: 9405 063e c0db 8dbd cdf5 f23d a36e 113e
00000170: 3c3c 323e b7f4 8e3e d216 4a3c 2694 18bd
00000180: 10a0 ae3d 6760 d5bb 2167 803e 480f 9dbd
00000190: fc1b e03d 2f65 3bbd fac1 3fbd 8e96 bdbd
000001a0: 30d8 283e d906 9fbd 5d2a 4dbc 5d4d 8e3d
000001b0: e58e 003e 6588 7d3e 1bc0 5c3e 1fe6 1bbd
000001c0: 41f6 043e 7422 d33d 859e 633e a696 403e
000001d0: 05e3 ee3d bc47 213e 3fe8 543d 6a86 3c3e
000001e0: 7a9b 23bd 5a02 223e 2f61 ac3d 6892 8f3d
000001f0: 4eb6 a63d caa6 183e 0e1f 593e 70f6 e6bc
00000200: fe6b 3bbc d0d8 603d 0c75 833e 6d9d ad3d
00000210: cf0d 55bd 272b b9ba b09d 1e3e da64 923d
00000220: 0bb8 8b3d a074 8fbd 4e33 e63d 561e f4bd
00000230: bacd 853d 604e 8f3e 26c1 853e f7ff d33c
00000240: a153 3b3d 2cbc 1e3e 1814 1e3e 7c79 ff3d
00000250: 5f8d d53d 33bd f8bb

sequential/conv2d_1/Conv2D f4 [16, 5, 5, 6]
-0.11374542 -0.078453615 -0.10480589 0.041006923 -0.09200773 -0.13328744 0.03781674 -0.09230378
0.035525046 -0.066987164 -0.14201738 -0.06927539 -0.07600587 -0.13968119 -0.013155628 -0.09904768
0.0069004144 -0.11024746 0.031814076 0.023797903 -0.017897533 0.038015638 0.019286972 -0.03776062
0.04304486 -0.07503329 -0.113154076 0.03233992 -0.058648296 -0.089804694 -0.11474894 0.035078548
-0.048861135 -0.044304416 0.036899187 -0.040241826 -0.09170459 -0.09254803 -0.10670956 -0.14617921
-0.13191491 -0.007525897 -0.1396486 -0.009086222 0.02686924 0.014518781 -0.023936661 -0.013625334
-0.03445305 -0.046696637 -0.14080006 0.043295193 -0.010227999 -0.1259234 -0.037057795 0.025170054
-0.017878316 -0.04068668 -0.11068797 -0.04885041 -0.045142777 -0.10384244 -0.1567428 -0.1258823
-0.14358258 -0.050306678 -0.12899353 -0.02975846 -0.09989199 -0.010071173 -0.024749003 0.050281502
-0.12279339 0.025350465 0.02213621 0.01232888 -0.09398381 -0.06628409 -0.106282294 0.0024236448
-0.010235729 -0.115356304 -0.028181087 -0.039238676 -0.026839834 0.01754381 -0.13529457 -0.0065334938
-0.0096876295 -0.12853591 -0.0068533644 -0.13527781 -0.1308154 -0.10501502 -0.12441042 -0.031557027
0.015651684 -0.10252078 -0.09871336 0.046415392 0.004208425 -0.07355527 0.006151329 -0.14790268
-0.10827463 -0.06744814 -0.13460724 -0.083442315 -0.12557046 -0.097741306 0.009203387 0.018159881
-0.07555572 0.028469175 -0.09228956 0.014131988 0.043753598 0.03302291 -0.03739315 -0.056394797
-0.002782377 -0.028234903 -0.05578734 -0.008535246 -0.027531708 0.031452984 -0.013827659 -0.12734462
-0.027357684 -0.15000002 -0.013365218 -0.08460559 -0.040998336 -0.025869435 0.044076063 -0.04259014
-0.04568565 0.037558507 -0.06392778 -0.1051967 -0.13946317 -0.044974893 0.019307962 0.022767274
0.039650418 -0.10908757 -0.072202206 -0.019946171 -0.14345904 -0.0010649818 -0.11246048 0.045379635
-0.13738601 -0.12469678 -0.052711193 -0.08278713 0.018824248 -0.0051893224 -0.13974777 -0.102050915
-0.09719625 -0.030505355 -0.115650564 -0.0062192404 -0.06828534 -0.067308344 0.0045891427 0.0419579
-0.015797831 0.04816364 0.013872273 -0.07318789 -0.115877815 -0.027560165 0.053290494 -0.13596012
-0.060347352 0.029327141 0.008503465 -0.005954529 -0.030612694 -0.011119057 -0.108626604 0.0088885855
0.04797033 -0.044885278 -0.025934061 -0.05570868 -0.12625764 -0.1098382 -0.09186519 -0.06937564
0.05750691 -0.059094347 -0.07276772 -0.11803023 0.03037946 0.048841886 0.0518803 -0.05308386
0.01670422 0.025488295 -0.13048807 -0.036687978 -0.10347629 -0.096217245 -0.08616349 0.02258491
-0.077437036 -0.05697877 -0.03145422 -0.13468644 -0.12459375 -0.025300568 -0.11541841 -0.0132202115
-0.04027077 0.0036303783 0.0128457835 -0.10426131 0.035441622 -0.060763724 -0.059609313 0.012980261
-0.009299592 -0.098682515 -0.021742957 0.03293457 0.037886687 -0.048737776 0.03924399 0.047543902
-0.1348452 -0.106068686 0.02904439 -0.093032114 0.037027687 0.038803723 -0.022144271 -0.011191925
-0.0011690396 -0.08136957 -0.13971405 -0.15556867 -0.11598564 -0.064775236 -0.14294413 -0.03774902
-0.06756628 -0.12473224 -0.022638164 -0.07271585 -0.035702184 -0.13151191 -0.024432033 -0.028992584
00000000: 5cf3 e8bd 4aac a0bd 78a4 d6bd e0f6 273d
00000010: 8c6e bcbd 817c 08be bae5 1a3d c409 bdbd
00000020: b682 113d 9130 89bd 016d 11be 41e0 8dbd
00000030: f7a8 9bbd 9608 0fbe b48a 57bc 83d9 cabd
00000040: df1c e23b 6cc9 e1bd 7a4f 023d d2f3 c23c
00000050: d99d 92bc 49b6 1b3d b6ff 9d3c e1aa 1abd
00000060: cf4f 303d 0eab 99bd 53bd e7bd dd76 043d
00000070: 3239 70bd 86eb b7bd 7e01 ebbd 86ae 0f3d
00000080: 9d22 48bd 8c78 35bd 9a23 173d 9dd4 24bd
00000090: 9ecf bbbd d289 bdbd 8b8a dabd 01b0 15be
000000a0: b414 07be cd9b f6bb 0b00 0fbe 61de 14bc
000000b0: e11c dc3c 2ee0 6d3c d116 c4bc cb3c 5fbc
000000c0: a41e 0dbd f944 3fbd e42d 10be 4d56 313d
000000d0: 5693 27bc 10f2 00be eac9 17bd 6e31 ce3c
000000e0: 8c75 92bc 13a7 26bd 60b0 e2bd 5e17 48bd
000000f0: a2e7 38bd 58ab d4bd 2f81 20be 4ae7 00be
00000100: 5007 13be 600e 4ebd e116 04be 04c8 f3bc
00000110: 2c94 ccbd 9001 25bc 6cbe cabc faf3 4d3d
00000120: 1a7b fbbd c7ab cf3c ff56 b53c 12ff 493c
00000130: 957a c0bd f4bf 87bd 88aa d9bd 03d6 1e3b
00000140: c2b3 27bc ed3f ecbd 06dc e6bc bcb8 20bd
00000150: 36df dbbc 09b8 8f3c a98a 0abe eb16 d6bb
00000160: ddb8 1ebc eb9e 03be 3092 e0bb 4486 0abe
00000170: 79f4 05be 1d12 d7bd e4ca febd f141 01bd
00000180: f637 803c 6af6 d1bd 3b2a cabd 111e 3e3d
00000190: d4e6 893b 25a4 96bd 1691 c93b cd73 17be
000001a0: 17bf ddbd 4022 8abd 7bd6 09be cee3 aabd
000001b0: 8b95 00be 982c c8bd cec9 163c 08c4 943c
000001c0: f5bc 9abd 3038 e93c 4f02 bdbd db89 673c
000001d0: f936 333d 0843 073d 8f29 19bd 3bfe 66bd
000001e0: 8a58 36bb e24c e7bc 4481 64bd 6bd7 0bbc
000001f0: 2d8a e1bc d8d4 003d 688d 62bc a166 02be
00000200: 391d e0bc 9b99 19be caf9 5abc b245 adbd
00000210: dfed 27bd 23ec d3bc 1a89 343d 0073 2ebd
00000220: e020 3bbd f3d6 193d 91ec 82bd 5e71 d7bd
00000230: 6fcf 0ebe 9837 38bd bb2b 9e3c 6f82 ba3c
00000240: 7a68 223d 4e69 dfbd c0de 93bd 2766 a3bc
00000250: ede6 12be dc96 8bba ae51 e6bd ffdf 393d
00000260: ebae 0cbe 0761 ffbd b1e7 57bd 4c8c a9bd
00000270: 4f35 9a3c 310b aabb 0a1a 0fbe 1200 d1bd
00000280: d40e c7bd 5ee6 f9bc 34da ecbd c5ca cbbb
00000290: 2fd9 8bbd f5d8 89bd 8560 963b 0cdc 2b3d
000002a0: 746a 81bc 3d47 453d 8848 633c 88e3 95bd
000002b0: 5951 edbd dbc5 e1bc 2247 5a3d 2139 0bbe
000002c0: c92e 77bd 793f f03c 1e52 0b3c 361e c3bb
000002d0: 79c7 fabc b52c 36bc a077 debd 6ea1 113c
000002e0: 897c 443d a0d9 37bd ab73 d4bc c92e 64bd
000002f0: af49 01be daf2 e0bd d123 bcbd d114 8ebd
00000300: 5e8c 6b3d ea0c 72bd 3e07 95bd d5b9 f1bd
00000310: 58de f83c 6e0e 483d 7080 543d 766e 59bd
00000320: 4ad7 883c d4cc d03c aa9e 05be 2246 16bd
00000330: 61eb d3bd 8c0d c5bd 7c76 b0bd fd03 b93c
00000340: 4f97 9ebd 9262 69bd 24d6 00bd 3eeb 09be
00000350: 022b ffbd 2343 cfbc 7d60 ecbd 9699 58bc
00000360: f7f2 24bd a4eb 6d3b 1f77 523c f486 d5bd
00000370: 3c2b 113d 62e3 78bd e528 74bd 29ab 543c
00000380: 515d 18bc 0f1a cabd 491e b2bc 66e6 063d
00000390: 122f 1b3d 43a1 47bd 4ebe 203d 65bd 423d
000003a0: dc14 0abe 8a3a d9bd 80ee ed3c 9f87 bebd
000003b0: 58aa 173d a7f0 1e3d e767 b5bc 565e 37bc
000003c0: 763a 99ba 17a5 a6bd 3311 0fbe 654d 1fbe
000003d0: e189 edbd e1a8 84bd f25f 12be b79e 1abd
000003e0: 3160 8abd 9e73 ffbd ac73 b9bc 0cec 94bd
000003f0: 743c 12bd 0fab 06be b025 c8bc db81 edbc

sequential/conv2d_2/Conv2D f4 [120, 4, 4, 16]
-0.018380297 0.009162732 0.011479735 -0.036150448 -0.0084709665 -0.00519151 -0.013701443 -0.008483981
-0.052359793 0.04436037 0.047787 0.010415728 -0.022623068 0.046318337 -0.050249115 -0.013722247
-0.018084098 -0.03959643 0.045653965 0.02573491 -0.0086596245 -0.013586631 -0.025668899 -0.013268316
-0.020880884 0.045414064 0.015596048 -0.030587751 -0.0199563 -0.04244722 -0.0008257769 0.033460256
0.035580967 -0.009778196 0.04921972 -0.035016727 -0.04789368 0.0040630214 -0.012898135 0.012656499
-0.011188073 0.03295803 0.00854477 0.012188898 -0.005100312 -0.041885503 0.046752535 -0.05220835
-0.0104131345 -0.0490174 -0.013954889 0.03173235 0.02447573 -0.0340221 -0.008079798 0.014197355
0.030271232 0.018705806 0.041041184 0.019291159 -0.045202356 -0.0014703186 0.01526776 -0.038042124
0.01140988 0.043580774 0.02266244 0.0065592336 0.004161422 -0.035736963 -0.02260911 0.013930568
-0.016569536 -0.031139681 0.004856008 0.023559919 0.017740764 0.008235459 -0.014327863 0.044331238
-0.049324304 0.041372675 0.024912063 0.043102387 0.0065139052 -0.04381446 0.0017479388 -0.022381565
-0.03758169 0.036103543 -0.024565807 -0.012841053 -0.031452093 -0.009049028 0.014673629 -0.019887635
0.02726428 -0.039330773 0.034214124 -0.014114392 0.0013108957 0.0040485016 0.0019032838 -0.054600008
0.04653717 -0.0067774435 0.0010921152 0.03388953 0.035304207 0.04250805 0.0004152318 -0.028191056
0.02690533 -0.030924123 0.030479705 -0.00057596323 -0.02801928 -0.012185179 -0.017246744 -0.015213449
-0.05440711 -0.048550747 0.025405372 0.016412802 0.033492193 0.045706417 0.0029457486 -0.019586705
-0.01874643 0.0018448562 -0.017387195 -0.02294356 -0.0022873397 -0.0071841995 -0.011861751 -0.005198247
-0.037716676 0.015275466 -0.012022405 -0.037049998 0.0077652135 0.028711589 0.010579718 -0.012796237
0.03887642 -0.045019295 -0.010725483 0.007124647 0.028488625 0.0038243001 0.016166953 -0.033284843
0.0051539754 0.033197343 0.004571328 0.0311183 -0.052979313 -0.03923911 -0.03002868 -0.022169081
-0.010898328 0.004355158 -0.036606453 -0.039840493 0.03351576 -0.038042247 0.04909643 0.045327786
0.020107573 -0.04889027 0.014162557 0.04621159 0.034941867 -0.02473685 -0.037225135 -0.054938924
-0.002874828 0.02908218 -0.0001718007 0.039100856 -0.030473866 -0.03581235 -0.009078146 -0.004751184
-0.010418803 -0.030689463 0.044436485 -0.04312619 -0.014437734 -0.033074908 -0.052728914 -0.009456341
0.031064043 0.009283151 -0.040792678 0.04515678 0.021387683 0.011052489 0.015157563 -0.02112188
0.03832231 0.042163547 -0.011367366 -0.01661201 0.0044269515 0.04283661 -0.03569408 0.016867576
-0.05137214 -0.03872053 0.047505263 -0.034262773 0.029949225 0.029153608 -0.005947938 -0.04122958
0.04719422 -0.02110377 0.036408346 -0.02431602 0.046769176 0.031920414 0.013700543 0.020390386
-0.004449569 -0.05181085 0.009352464 0.042239845 0.014668401 -0.02194546 0.018394677 0.021473669
-0.050744526 -0.019861024 -0.03198397 -0.05392971 0.010540838 0.04026738 -0.051635183 -0.019156164
0.005444341 -0.044246756 -0.044010114 0.001748725 -0.035812903 -0.0074578472 0.029578533 0.0015135412
0.026327189 -0.01373167 0.02026379 0.035150487 -0.028286874 -0.040023554 -0.008062613 -0.001073083
00000000: 4792 96bc 491f 163c 8015 3c3c 7e12 14bd
00000010: cfc9 0abc 8b1d aabb 047c 60bc 6500 0bbc
00000020: 3977 56bd 38b3 353d 4dbc 433d bba6 2a3c
00000030: 0354 b9bc 4cb8 3d3d 04d2 4dbd 47d3 60bc
00000040: 1a25 94bc de2f 22bd a7ff 3a3d 05d2 d23c
00000050: 19e1 0dbc 769a 5ebc 9547 d2bc 5a63 59bc
00000060: 630e abbc 1904 3a3d 9186 7f3c 2a93 fabc
00000070: 657b a3bc 23dd 2dbd f378 58ba 9f0d 093d
00000080: 59bd 113d ba34 20bc 9e9a 493d b36d 0fbd
00000090: 2a2c 44bd 1823 853b b352 53bc 345d 4f3c
000000a0: 2e4e 37bc 00ff 063d 5dff 0b3c f2b3 473c
000000b0: 8520 a7bb 2290 2bbd 967f 3f3d 6cd8 55bd
000000c0: da9b 2abc 78c6 48bd 0ca3 64bc c8f9 013d
000000d0: 5381 c83c c25a 0bbd 2161 04bc 069c 683c
000000e0: 60fb f73c eb3c 993c cd1a 283d 7e08 9e3c
000000f0: 1b26 39bd b5b7 c0ba a025 7a3c 0fd2 1bbd
00000100: 81f0 3a3c c181 323d 95a6 b93c d7ee d63b
00000110: 8a5c 883b ec60 12bd be36 b9bc 093d 643c
00000120: d6bc 87bc a518 ffbc 261f 9f3b bb00 c13c
00000130: 1455 913c 05ee 063c 6abf 6abc ac94 353d
00000140: 4808 4abd 6576 293d 6214 cc3c 218c 303d
00000150: 9972 d53b cb76 33bd 181b e53a 8b59 b7bc
00000160: 42ef 19bd 4fe1 133d 3b3e c9bc 4863 52bc
00000170: e9d3 00bd 6042 14bc a969 703c 65eb a2bc
00000180: 5759 df3c 4e19 21bd 1c24 0c3d 0d40 67bc
00000190: 5cd2 ab3a 4ba9 843b 9b77 f93a 42a4 5fbd
000001a0: c29d 3e3d 5115 debb 4e25 8f3a bfcf 0a3d
000001b0: 259b 103d ec1c 2e3d 78b3 d939 eef0 e6bc
000001c0: 9168 dc3c 9654 fdbc 93b0 f93c 3dfc 16ba
000001d0: b088 e5bc 58a4 47bc 0b49 8dbc d441 79bc
000001e0: fdd9 5ebd 26dd 46bd ed1e d03c 2474 863c
000001f0: 1c2f 093d a736 3b3d 760d 413b 4c74 a0bc
00000200: 1d92 99bc 1acf f13a 976f 8ebc 22f4 bbbc
00000210: 31e7 15bb 6f69 ebbb ca57 42bc 0e56 aabb
00000220: cd7c 1abd f345 7a3c 9ff9 44bc bdc1 17bd
00000230: 5573 fe3b 9134 eb3c 8e56 2d3c 4fa7 51bc
00000240: e23c 1f3d 2766 38bd f0b9 2fbc df75 e93b
00000250: fa60 e93c 1ca1 7a3b 8f70 843c b055 08bd
00000260: aee2 a83b f0f9 073d 14cb 953b ceeb fe3c
00000270: d600 59bd 30b9 20bd b5fe f5bc ef9b b5bc
00000280: e78e 32bc b7b5 8e3b a6f0 15bd c92f 23bd
00000290: d247 093d 30d2 1bbd 5719 493d a1a9 393d
000002a0: a3b8 a43c 2a41 48bd 120a 683c 5d48 3d3d
000002b0: 341f 0f3d efa4 cabc 6279 18bd a307 61bd
000002c0: 9c67 3cbb c03d ee3c 6625 34b9 3828 203d
000002d0: 54a4 f9bc f9af 12bd 81bc 14bc d2af 9bbb
000002e0: a1b3 2abc 7868 fbbc 0803 363d 16a5 30bd
000002f0: 3f8c 6cbc 8e79 07bd 46fa 57bd c5ee 1abc
00000300: 057a fe3c 5b18 183c 3916 27bd 51f6 383d
00000310: 3935 af3c 8015 353c 6d57 783c cb07 adbc
00000320: dbf7 1c3d afb3 2c3d 303e 3abc e915 88bc
00000330: f60f 913b 7175 2f3d f533 12bd df2d 8a3c
00000340: 986b 52bd 6b99 1ebd e194 423d 1f57 0cbd
00000350: 1458 f53c 8cd3 ee3c ece6 c2bb 59e0 28bd
00000360: ba4e 413d d0e1 acbc eb20 153d 6432 c7bc
00000370: 0991 3f3d fbbe 023d 3e78 603c bd09 a73c
00000380: b1cd 91bb 9d37 54bd 143b 193c b003 2d3d
00000390: bc53 703c f7c6 b3bc 6fb0 963c 8ce9 af3c
000003a0: 7ed9 4fbd 96b3 a2bc a001 03bd 66e5 5cbd
000003b0: 7bb3 2c3c 69ef 243d 6a7f 53bd 63ed 9cbc
000003c0: 7166 b23b 163c 35bd f343 34bd 7935 e53a
000003d0: 8db0 12bd f560 f4bb ae4e f23c 0462 c63a
000003e0: 1eac d73c ccfa 60bc 3f00 a63c f5f9 0f3d
000003f0: e0b9 e7bc bdef 23bd 0d19 04bc b1a6 8cba

sequential/conv2d/BiasAdd;sequential/conv2d/Conv2D;conv2d/bias f4 [6]
0.049545657 0.089065075 0.10558002 0.051330533 0.09357276 0.052075353
00000000: 63f0 4a3d c067 b63d 563a d83d f73f 523d
00000010: 13a3 bf3d f74c 553d

sequential/conv2d_1/BiasAdd;sequential/conv2d_1/Conv2D;conv2d_1/bias f4 [16]
-0.042866293 -0.040968556 -0.04537012 -0.046976976 -0.036426008 -0.03978668 -0.040762458 -0.041453924
-0.0400031 -0.043095864 -0.03619344 -0.0399524 -0.038655788 -0.041449502 -0.04974309 -0.042796105
00000000: 9194 2fbd a5ce 27bd 05d6 39bd ee6a 40bd
00000010: 7033 15bd 5cf7 22bd 89f6 26bd 97cb 29bd
00000020: 4ada 23bd 4a85 30bd 933f 14bd 21a5 23bd
00000030: 8855 1ebd f4c6 29bd 69bf 4bbd f84a 2fbd

sequential/conv2d_2/BiasAdd;sequential/conv2d_2/Conv2D;conv2d_2/bias f4 [120]
-0.0035570506 0.0009586222 -0.00080792047 -0.0047081825 0.0025293285 -0.0054541416 0.0023715426 -0.0017363493
0.00010019113 -0.006801092 0.0006756157 -0.0018956568 0.0052831275 0.0006511356 -0.0020129916 -0.0037886575
-0.0017657144 -0.0038555602 -0.004226082 0.0059577883 -0.00022623724 -0.0016534836 0.00015811279 -0.0012670158
0.0034360725 -0.0016167207 0.003828406 -0.0013314844 -0.004095808 -0.004239745 0.0010511581 0.0039142403
-0.00094081747 0.0047697583 -0.0026707356 0.006590716 0.00015657172 -0.0016429899 0.004503383 2.7823873e-05
-0.00087195827 -0.0028214387 -0.0026617998 0.0039639655 -0.004696094 -0.0024973978 0.004586154 0.004388973
0.00090811664 -0.0019442559 0.0022529592 -0.0016143643 0.0020603645 0.0024651277 0.0056465045 0.0018391748
-0.0035293414 0.0009909858 -0.004488958 -0.00061241305 -0.0026014268 0.0024728433 0.0051832753 0.0019928582
-0.0054007894 -0.0048568132 -0.0020528582 -0.0009743427 -0.0038545937 0.0005045183 0.0034041603 -0.0012810234
0.000215001 -0.00268956 -0.00081080466 0.0011699435 -0.0030113298 0.00027357147 -0.005786719 0.005194272
-0.002061406 0.007598855 -7.977977e-05 0.0021860073 -9.105836e-05 0.0077853287 -0.0010443067 0.0045612315
0.0032216546 -0.0026414716 -0.0030396555 -0.0009904759 -0.0031134055 -2.6766207e-05 -0.0015830715 0.0033889895
-0.0039029259 -0.0021558644 0.0020683133 0.007055482 0.0013733447 -0.0024966479 -0.0050701234 -0.0006988969
0.006611036 -0.0016937734 0.0057211933 -0.007842863 -0.0023690932 0.0051439065 0.0011119968 -0.006027455
0.0029806846 0.00034864148 0.0014893474 -0.0037911097 -0.001538609 -0.0024715718 -0.0024607196 0.0011998762
00000000: 681d 69bb 0c4c 7b3a a0ca 53ba 1947 9abb
00000010: 17c3 253b a8b8 b2bb e26b 1b3b 3796 e3ba
00000020: b41d d238 b2db debb cd1b 313a b077 f8ba
00000030: 161e ad3b f8b0 2a3a 65ec 03bb 204b 78bb
00000040: 8b6f e7ba 91ad 7cbb f27a 8abb 8d39 c33b
00000050: 193a 6db9 b4b9 d8ba 14cb 2539 ff11 a6ba
00000060: bb2f 613b 25e8 d3ba ffe5 7a3b 3485 aeba
00000070: 2136 86bb 8fed 8abb 03c7 893a 0743 803b
00000080: 31a1 76ba a24b 9c3b 8207 2fbb eff6 d73b
00000090: 672d 2439 9859 d7ba 1d91 933b 5067 e937
000000a0: 2194 64ba e3e7 38bb 9771 2ebb 27e4 813b
000000b0: b1e1 99bb 62ab 23bb 7347 963b 60d1 8f3b
000000c0: ad0e 6e3a 67d6 feba 62a6 133b 1499 d3ba
000000d0: 2e07 073b fb8d 213b 5006 b93b 7710 f13a
000000e0: 864c 67bb f7e3 813a 1c18 93bb 588a 20ba
000000f0: b37c 2abb 6d0f 223b 77d8 a93b 9d9a 023b
00000100: 1bf9 b0bb e725 9fbb 3f89 06bb 086b 7fba
00000110: 5a9d 7cbb a641 043a 5518 5f3b 03e8 a7ba
00000120: e471 6139 5443 30bb 2e8c 54ba ca58 993a
00000130: bb59 45bb 246e 8f39 849e bdbb b634 aa3b
00000140: a718 07bb d1ff f83b 704f a7b8 1e43 0f3b
00000150: 96f6 beb8 121c ff3b 1ee1 88ba 6276 953b
00000160: 6522 533b 8a1c 2dbb f534 47bb dbd2 81ba
00000170: 470a 4cbb fe87 e0b7 117f cfba cf19 5e3b
00000180: 3bc8 7fbb 6749 0dbb 8a8c 073b ac31 e73b
00000190: cd01 b43a cd9e 23bb 4723 a6bb 2d36 37ba
000001a0: 64a1 d83b 9b01 deba d978 bb3b 5a7f 00bc
000001b0: ca42 1bbb 378e a83b 6cc0 913a f581 c5bb
000001c0: 9757 433b dec9 b639 3536 c33a 4474 78bb
000001d0: 27ab c9ba 18fa 21bb 0644 21bb 2a45 9d3a
