tmp/model_quantized_int8_io.tflite (tflite, 53080 bytes, 5 tensors)

sequential/conv2d/Conv2D i1 [6, 5, 5, 1]
00000000: f0ee 4bf1 5ce6 74e6 487f 350a f872 467b
00000010: 263c 500f e545 422a 0e43 153e 18ff 6736
00000020: e339 150b 1569 582c 377e 4324 7f6d 3b5c
00000030: 2f4f 2d46 fef8 7f64 19fb e266 4fdc 0623
00000040: 166f 5f78 1637 e417 5cf9 26dd 27f6 3d7d
00000050: 4150 1927 df4e 5246 3dec 363b 4a7f 0ef1
00000060: 24fa 73e5 49fc fbe0 5ce9 0a2f 457f 78f7
00000070: 4735 7067 4152 1a5d f757 2f25 2c4f 6bff
00000080: 0f35 7b29 ef10 641f 1de3 43e2 1c7f 7c19
00000090: 2c48 473d 3c10
-16 -18 75 -15 92 -26 116 -26
72 127 53 10 -8 114 70 123
38 60 80 15 -27 69 66 42
14 67 21 62 24 -1 103 54
-29 57 21 11 21 105 88 44
55 126 67 36 127 109 59 92
47 79 45 70 -2 -8 127 100
25 -5 -30 102 79 -36 6 35
22 111 95 120 22 55 -28 23
92 -7 38 -35 39 -10 61 125
65 80 25 39 -33 78 82 70
61 -20 54 59 74 127 14 -15
36 -6 115 -27 73 -4 -5 -32
92 -23 10 47 69 127 120 -9
71 53 112 103 65 82 26 93
-9 87 47 37 44 79 107 -1
15 53 123 41 -17 16 100 31
29 -29 67 -30 28 127 124 25
44 72 71 61 60 16

sequential/conv2d_1/Conv2D i1 [16, 5, 5, 6]
00000000: a3bf a917 b195 14b4 12c5 8cc5 bf90 edad
00000010: fca5 100b ea14 06dc 19c1 a20f ccb5 a214
00000020: d2d6 11db b3b3 a789 93f3 8ff2 0b02 e5ee
00000030: dfd6 8e18 f09a de0d ead9 a5d4 d6ac 8199
00000040: 89d3 97e3 acef e31e 9c0c 0800 b0c6 a9fb
00000050: f0a1 e2db e607 92f3 f098 f394 94a8 98e1
00000060: 04ad ad1a f9c1 fd8b a6c5 92ba 9bb0 fe05
00000070: bf0d b404 1710 dacd f6e4 ccf1 e110 ee9a
00000080: e287 ecb9 dae7 18d7 d414 c9ab 8ed5 0509
00000090: 16a8 c0e8 8af7 a31a 8f99 cdb9 06f4 8eab
000000a0: ade1 a1f2 c2c4 f716 e919 ffbe 9be1 1b8f
000000b0: c708 f6f0 e1f0 a4fd 19d5 e5cf 98a6 b1c5
000000c0: 20cb c09f 0a1d 19cd 0006 8fda a4ac b201
000000d0: b6c8 e294 99e4 a1ed dbfc 00ac 12cc ca02
000000e0: f0ae e413 0fd2 1217 8da8 08b0 0e0e e2eb
000000f0: fabd 8f85 a4c8 91df c69f e9c5 dd98 e6e4
-93 -65 -87 23 -79 -107 20 -76
18 -59 -116 -59 -65 -112 -19 -83
-4 -91 16 11 -22 20 6 -36
25 -63 -94 15 -52 -75 -94 20
-46 -42 17 -37 -77 -77 -89 -119
-109 -13 -113 -14 11 2 -27 -18
-33 -42 -114 24 -16 -102 -34 13
-22 -39 -91 -44 -42 -84 -127 -103
-119 -45 -105 -29 -84 -17 -29 30
-100 12 8 0 -80 -58 -87 -5
-16 -95 -30 -37 -26 7 -110 -13
-16 -104 -13 -108 -108 -88 -104 -31
4 -83 -83 26 -7 -63 -3 -117
-90 -59 -110 -70 -101 -80 -2 5
-65 13 -76 4 23 16 -38 -51
-10 -28 -52 -15 -31 16 -18 -102
-30 -121 -20 -71 -38 -25 24 -41
-44 20 -55 -85 -114 -43 5 9
22 -88 -64 -24 -118 -9 -93 26
-113 -103 -51 -71 6 -12 -114 -85
-83 -31 -95 -14 -62 -60 -9 22
-23 25 -1 -66 -101 -31 27 -113
-57 8 -10 -16 -31 -16 -92 -3
25 -43 -27 -49 -104 -90 -79 -59
32 -53 -64 -97 10 29 25 -51
0 6 -113 -38 -92 -84 -78 1
-74 -56 -30 -108 -103 -28 -95 -19
-37 -4 0 -84 18 -52 -54 2
-16 -82 -28 19 15 -46 18 23
-115 -88 8 -80 14 14 -30 -21
-6 -67 -113 -123 -92 -56 -111 -33
-58 -97 -23 -59 -35 -104 -26 -28

sequential/conv2d_2/Conv2D i1 [120, 4, 4, 16]
00000000: d615 1aad edf3 e0ec 8965 6b17 cb69 8ee0
00000010: d7a5 693b ece0 c5e1 d168 23ba d39e ff4b
00000020: 51ea 72b0 9309 e31d e74c 161c f4a0 6c88
00000030: e991 e049 38b2 ee21 462b 5e2c 9afc 25a8
00000040: 1a63 330f 0aad cb1f dab8 0835 2712 df65
00000050: 8f5d 3962 0f9b 03cc aa52 c7e2 b8ea 22d2
00000060: 3ea6 4fe0 0308 0583 6bf1 034d 5160 03be
00000070: 3eb9 47ff c0e3 d8dd 8491 3a25 4e68 08d2
00000080: d504 d7cb fbee e4f3 aa22 e3aa 1141 18e2
00000090: 5898 e70f 4207 24b3 0c4b 0847 88a5 bbcc
000000a0: e709 aca5 4da8 7067 2e90 2069 4fc6 ac81
000000b0: f942 0059 bbad eaf4 e9b9 659d dfb3 87e9
000000c0: 4715 a367 3119 22d0 5860 e6da 0a62 af26
000000d0: 8aa7 6cb1 4542 f2a1 6dd0 52c8 6b48 1f2e
000000e0: f58a 1560 21cd 2a31 8cd2 b684 175b 8ad3
000000f0: 0c9b 9c04 aeef 4303 3de0 2d50 bfa4 eefd
-42 21 26 -83 -19 -13 -32 -20
-119 101 107 23 -53 105 -114 -32
-41 -91 105 59 -20 -32 -59 -31
-47 104 35 -70 -45 -98 -1 75
81 -22 114 -80 -109 9 -29 29
-25 76 22 28 -12 -96 108 -120
-23 -111 -32 73 56 -78 -18 33
70 43 94 44 -102 -4 37 -88
26 99 51 15 10 -83 -53 31
-38 -72 8 53 39 18 -33 101
-113 93 57 98 15 -101 3 -52
-86 82 -57 -30 -72 -22 34 -46
62 -90 79 -32 3 8 5 -125
107 -15 3 77 81 96 3 -66
62 -71 71 -1 -64 -29 -40 -35
-124 -111 58 37 78 104 8 -46
-43 4 -41 -53 -5 -18 -28 -13
-86 34 -29 -86 17 65 24 -30
88 -104 -25 15 66 7 36 -77
12 75 8 71 -120 -91 -69 -52
-25 9 -84 -91 77 -88 112 103
46 -112 32 105 79 -58 -84 -127
-7 66 0 89 -69 -83 -22 -12
-23 -71 101 -99 -33 -77 -121 -23
71 21 -93 103 49 25 34 -48
88 96 -26 -38 10 98 -81 38
-118 -89 108 -79 69 66 -14 -95
109 -48 82 -56 107 72 31 46
-11 -118 21 96 33 -51 42 49
-116 -46 -74 -124 23 91 -118 -45
12 -101 -100 4 -82 -17 67 3
61 -32 45 80 -65 -92 -18 -3

sequential/dense/MatMul i1 [84, 120] scale=0.0012336122 zero_point=0
00000000: 1814 e5c9 b4f7 06fb f8a7 1131 f2f5 2120
00000010: efdb 2e35 ee14 58bd f712 14e9 dc16 c9bf
00000020: 0e29 fe13 fffa 080c d030 fd07 e42e ebd3
00000030: f6f1 5521 1906 0c15 9902 06f6 f330 14ed
00000040: 0410 fece f11a ffef dc2a ea37 ee03 ca12
00000050: 123c d6d6 2ecc 2c39 c014 da44 fc07 fae5
00000060: 1b15 ecdd 1a0a 10f0 3cfb f0f0 0e33 e422
00000070: 353e e3f0 34db f42b bbbb 242e 30f7 e3fe
00000080: f024 d70d dbc2 35d3 e2e0 d2ce 3440 d6cf
00000090: 15d2 ebd5 f709 0aed f7e3 2c1e 10ed bcdf
000000a0: 3133 db0b eefe c41b 17fe fe1c 093d eb4f
000000b0: 36ce dcf4 e021 e6d6 ff13 1dea 22d3 1f40
000000c0: 08e8 0c42 d7b2 e906 fa10 a321 0d15 1cc6
000000d0: 0b2f ddc9 e517 1d11 63d2 e131 fec7 0a45
000000e0: dcf5 e714 bc06 20ee de33 b31f f5f4 0fd0
000000f0: e309 ff20 fdf9 d8fd 2410 d916 2826 de10
0.029606692 0.024672244 -0.03330753 -0.06784867 -0.09375453 -0.01110251 0.007401673 -0.006168061
-0.0098688975 -0.10979149 0.020971406 0.060446996 -0.01727057 -0.013569734 0.0407092 0.03947559
-0.020971406 -0.04564365 0.056746162 0.065381445 -0.02220502 0.024672244 0.10855787 -0.08265202
-0.01110251 0.02220502 0.024672244 -0.028373081 -0.04441004 0.027139468 -0.06784867 -0.080184795
0.01727057 0.0505781 -0.0024672244 0.023438632 -0.0012336122 -0.007401673 0.0098688975 0.014803346
-0.059213385 0.059213385 -0.0037008366 0.008635285 -0.03454114 0.056746162 -0.025905855 -0.055512547
-0.012336122 -0.018504184 0.104857035 0.0407092 0.030840304 0.007401673 0.014803346 0.025905855
-0.12706205 0.0024672244 0.007401673 -0.012336122 -0.016036958 0.059213385 0.024672244 -0.023438632
0.0049344487 0.019737795 -0.0024672244 -0.061680607 -0.018504184 0.032073915 -0.0012336122 -0.020971406
-0.04441004 0.05181171 -0.027139468 0.06784867 -0.02220502 0.0037008366 -0.06661506 0.02220502
0.02220502 0.074016735 -0.05181171 -0.05181171 0.056746162 -0.06414783 0.054278936 0.0703159
-0.07895118 0.024672244 -0.046877265 0.083885625 -0.0049344487 0.008635285 -0.007401673 -0.03330753
0.03330753 0.025905855 -0.024672244 -0.043176427 0.032073915 0.012336122 0.019737795 -0.019737795
0.074016735 -0.006168061 -0.019737795 -0.019737795 0.01727057 0.06291422 -0.03454114 0.041942813
0.065381445 0.07648396 -0.035774752 -0.019737795 0.06414783 -0.04564365 -0.014803346 0.053045325
-0.08511924 -0.08511924 0.04441004 0.056746162 0.059213385 -0.01110251 -0.035774752 -0.0024672244
-0.019737795 0.04441004 -0.0505781 0.016036958 -0.04564365 -0.07648396 0.065381445 -0.055512547
-0.037008367 -0.03947559 -0.056746162 -0.061680607 0.06414783 0.07895118 -0.05181171 -0.060446996
0.025905855 -0.056746162 -0.025905855 -0.053045325 -0.01110251 0.01110251 0.012336122 -0.023438632
-0.01110251 -0.035774752 0.054278936 0.037008367 0.019737795 -0.023438632 -0.083885625 -0.0407092
0.060446996 0.06291422 -0.04564365 0.013569734 -0.02220502 -0.0024672244 -0.074016735 0.03330753
0.028373081 -0.0024672244 -0.0024672244 0.03454114 0.01110251 0.07525034 -0.025905855 0.09745536
0.06661506 -0.061680607 -0.04441004 -0.014803346 -0.03947559 0.0407092 -0.032073915 -0.05181171
-0.0012336122 0.023438632 0.035774752 -0.027139468 0.041942813 -0.055512547 0.03824198 0.07895118
0.0098688975 -0.029606692 0.014803346 0.0814184 -0.0505781 -0.09622175 -0.028373081 0.007401673
-0.007401673 0.019737795 -0.11472593 0.0407092 0.016036958 0.025905855 0.03454114 -0.071549505
0.013569734 0.057979774 -0.043176427 -0.06784867 -0.03330753 0.028373081 0.035774752 0.020971406
0.12212761 -0.056746162 -0.03824198 0.060446996 -0.0024672244 -0.0703159 0.012336122 0.08511924
-0.04441004 -0.013569734 -0.030840304 0.024672244 -0.083885625 0.007401673 0.03947559 -0.02220502
-0.041942813 0.06291422 -0.09498814 0.03824198 -0.013569734 -0.014803346 0.018504184 -0.059213385
-0.035774752 0.01110251 -0.0012336122 0.03947559 -0.0037008366 -0.008635285 -0.049344487 -0.0037008366
0.04441004 0.019737795 -0.048110876 0.027139468 0.049344487 0.046877265 -0.041942813 0.019737795

sequential/dense_1/MatMul i1 [10, 84] scale=0.0012843655 zero_point=0
00000000: fdff 0a0f de08 1f25 16f0 e9d6 e6e4 fa16
00000010: d921 c1f7 d722 09fd ed41 b4ed 1bda 6ffd
00000020: 3203 e927 04dd 0c06 2ae5 3fdd f607 fcc7
00000030: 2904 30ef 31e3 22f3 19ba f0b8 3307 14c2
00000040: 2ae5 f5fe 1df5 dd18 340b 18f2 fd11 10f8
00000050: f807 ebe9 0706 110e e20c 1121 1501 dae5
00000060: eaee ee24 d71d bb09 de0f fc0e e942 c1fe
00000070: 17cd 71f1 28f8 e220 0be8 0415 28dc 3ad8
00000080: f714 f9c3 2906 38f3 2cf2 18ea 14b5 fbad
00000090: 340e 27c9 2de5 f710 2bed d018 2bf8 20fb
000000a0: f10f 0cf2 f3fc fff7 0405 fe07 f014 161a
000000b0: 1df1 e2d9 f9f4 e329 d012 aa04 dc04 fd0e
000000c0: e334 bb00 25d3 7ff1 37ef d91f 16e3 f40a
000000d0: 2bcf 2bd7 fd16 fdc0 1d07 31ef 1df6 1bde
000000e0: 1bb6 ef9c 2f0f 1dc8 25db 0610 2ff2 d61c
000000f0: 36fa 2204 ef07 0602 f3fd ecf6 0afa f710
-0.0038530966 -0.0012843655 0.012843655 0.019265484 -0.043668427 0.010274924 0.039815333 0.047521524
0.028256042 -0.020549849 -0.029540408 -0.05394335 -0.033393502 -0.035962235 -0.0077061933 0.028256042
-0.050090257 0.042384062 -0.08091503 -0.01155929 -0.052658986 0.043668427 0.01155929 -0.0038530966
-0.024402946 0.08348376 -0.097611785 -0.024402946 0.03467787 -0.048805892 0.14256458 -0.0038530966
0.064218275 0.0038530966 -0.029540408 0.050090257 0.005137462 -0.044952795 0.0154123865 0.0077061933
0.05394335 -0.03467787 0.08091503 -0.044952795 -0.012843655 0.008990559 -0.005137462 -0.07320884
0.052658986 0.005137462 0.061649546 -0.021834213 0.062933914 -0.0372466 0.043668427 -0.016696751
0.032109138 -0.08990559 -0.020549849 -0.09247432 0.06550264 0.008990559 0.02568731 -0.079630665
0.05394335 -0.03467787 -0.014128021 -0.002568731 0.0372466 -0.014128021 -0.044952795 0.030824773
0.066787004 0.014128021 0.030824773 -0.017981118 -0.0038530966 0.021834213 0.020549849 -0.010274924
-0.010274924 0.008990559 -0.026971675 -0.029540408 0.008990559 0.0077061933 0.021834213 0.017981118
-0.038530968 0.0154123865 0.021834213 0.042384062 0.026971675 0.0012843655 -0.048805892 -0.03467787
-0.028256042 -0.02311858 -0.02311858 0.04623716 -0.052658986 0.0372466 -0.08862122 0.01155929
-0.043668427 0.019265484 -0.005137462 0.017981118 -0.029540408 0.084768124 -0.08091503 -0.002568731
0.029540408 -0.06550264 0.1451333 -0.019265484 0.05137462 -0.010274924 -0.038530968 0.041099697
0.014128021 -0.030824773 0.005137462 0.026971675 0.05137462 -0.04623716 0.0744932 -0.05137462
-0.01155929 0.02568731 -0.008990559 -0.0783463 0.052658986 0.0077061933 0.07192447 -0.016696751
0.056512084 -0.017981118 0.030824773 -0.028256042 0.02568731 -0.09632742 -0.0064218277 -0.10660234
0.066787004 0.017981118 0.050090257 -0.0706401 0.05779645 -0.03467787 -0.01155929 0.020549849
0.05522772 -0.024402946 -0.061649546 0.030824773 0.05522772 -0.010274924 0.041099697 -0.0064218277
-0.019265484 0.019265484 0.0154123865 -0.017981118 -0.016696751 -0.005137462 -0.0012843655 -0.01155929
0.005137462 0.0064218277 -0.002568731 0.008990559 -0.020549849 0.02568731 0.028256042 0.033393502
0.0372466 -0.019265484 -0.038530968 -0.050090257 -0.008990559 -0.0154123865 -0.0372466 0.052658986
-0.061649546 0.02311858 -0.11045544 0.005137462 -0.04623716 0.005137462 -0.0038530966 0.017981118
-0.0372466 0.066787004 -0.08862122 0.0 0.047521524 -0.05779645 0.16311443 -0.019265484
0.0706401 -0.021834213 -0.050090257 0.039815333 0.028256042 -0.0372466 -0.0154123865 0.012843655
0.05522772 -0.062933914 0.05522772 -0.052658986 -0.0038530966 0.028256042 -0.0038530966 -0.082199395
0.0372466 0.008990559 0.062933914 -0.021834213 0.0372466 -0.012843655 0.03467787 -0.043668427
0.03467787 -0.09504305 -0.021834213 -0.12843655 0.06036518 0.019265484 0.0372466 -0.07192447
0.047521524 -0.047521524 0.0077061933 0.020549849 0.06036518 -0.017981118 -0.05394335 0.035962235
0.06935574 -0.0077061933 0.043668427 0.005137462 -0.021834213 0.008990559 0.0077061933 0.002568731
-0.016696751 -0.0038530966 -0.02568731 -0.012843655 0.012843655 -0.0077061933 -0.01155929 0.020549849
