tmp/model_quantized_int8_io.tflite (tflite, 53080 bytes, 5 tensors)

sequential/conv2d/Conv2D i1 [6, 5, 5, 1]
0	0xdc	-36
1	0xde	-34
2	0x46	70
3	0xe9	-23
4	0x58	88
5	0xd4	-44
6	0x70	112
7	0xe0	-32
8	0x48	72
9	0x7f	127
10	0x2b	43
11	0x05	5
12	0xf5	-11
13	0x77	119
14	0x42	66
15	0x76	118
16	0x23	35
17	0x3d	61
18	0x51	81
19	0x06	6
20	0xd7	-41
21	0x41	65
22	0x3f	63
23	0x24	36
24	0x00	0
25	0x40	64
26	0x10	16
27	0x39	57
28	0x0f	15
29	0xf2	-14
30	0x66	102
31	0x33	51
32	0xdc	-36
33	0x31	49
34	0x0a	10
35	0x05	5
36	0x11	17
37	0x67	103
38	0x54	84
39	0x25	37
40	0x31	49
41	0x7d	125
42	0x41	65
43	0x22	34
44	0x7f	127
45	0x66	102
46	0x36	54
47	0x5b	91
48	0x2e	46
49	0x4e	78
50	0x30	48
51	0x49	73
52	0xf6	-10
53	0xec	-20
54	0x7d	125
55	0x6d	109
56	0x19	25
57	0xf4	-12
58	0xd5	-43
59	0x63	99
60	0x56	86
61	0xd7	-41
62	0x01	1
63	0x1f	31
64	0x0e	14
65	0x76	118
66	0x65	101
67	0x7f	127
68	0x12	18
69	0x34	52
70	0xdc	-36
71	0x14	20
72	0x60	96
73	0xf3	-13
74	0x22	34
75	0xcd	-51
76	0x1a	26
77	0xeb	-21
78	0x2f	47
79	0x6a	106
80	0x39	57
81	0x4d	77
82	0x17	23
83	0x20	32
84	0xd0	-48
85	0x4c	76
86	0x56	86
87	0x4a	74
88	0x3c	60
89	0xe0	-32
90	0x36	54
91	0x41	65
92	0x4f	79
93	0x7f	127
94	0x06	6
95	0xef	-17
96	0x27	39
97	0xfd	-3
98	0x72	114
99	0xdd	-35
100	0x38	56
101	0xe9	-23
102	0xe8	-24
103	0xd1	-47
104	0x55	85
105	0xd8	-40
106	0xfa	-6
107	0x24	36
108	0x40	64
109	0x7f	127
110	0x6f	111
111	0xec	-20
112	0x43	67
113	0x35	53
114	0x72	114
115	0x60	96
116	0x3c	60
117	0x51	81
118	0x1b	27
119	0x5e	94
120	0xec	-20
121	0x51	81
122	0x2b	43
123	0x24	36
124	0x2a	42
125	0x44	68
126	0x60	96
127	0xf3	-13
128	0xfb	-5
129	0x19	25
130	0x74	116
131	0x26	38
132	0xe8	-24
133	0xff	-1
134	0x46	70
135	0x20	32
136	0x1f	31
137	0xe0	-32
138	0x33	51
139	0xca	-54
140	0x1e	30
141	0x7f	127
142	0x77	119
143	0x0c	12
144	0x15	21
145	0x46	70
146	0x46	70
147	0x39	57
148	0x2f	47
149	0xfd	-3

sequential/conv2d_1/Conv2D i1 [16, 5, 5, 6]
0	0xa4	-92
1	0xc0	-64
2	0xab	-85
3	0x21	33
4	0xb5	-75
5	0x94	-108
6	0x1f	31
7	0xb5	-75
8	0x1d	29
9	0xca	-54
10	0x8d	-115
11	0xc8	-56
12	0xc2	-62
13	0x8f	-113
14	0xf5	-11
15	0xb0	-80
16	0x06	6
17	0xa7	-89
18	0x1a	26
19	0x13	19
20	0xf1	-15
21	0x1f	31
22	0x10	16
23	0xe1	-31
24	0x23	35
25	0xc3	-61
26	0xa4	-92
27	0x1a	26
28	0xd0	-48
29	0xb7	-73
30	0xa3	-93
31	0x1c	28
32	0xd8	-40
33	0xdc	-36
34	0x1e	30
35	0xdf	-33
36	0xb6	-74
37	0xb5	-75
38	0xaa	-86
39	0x8a	-118
40	0x95	-107
41	0xfa	-6
42	0x8f	-113
43	0xf9	-7
44	0x16	22
45	0x0c	12
46	0xed	-19
47	0xf5	-11
48	0xe4	-28
49	0xda	-38
50	0x8e	-114
51	0x23	35
52	0xf8	-8
53	0x9a	-102
54	0xe2	-30
55	0x14	20
56	0xf2	-14
57	0xdf	-33
58	0xa6	-90
59	0xd8	-40
60	0xdb	-37
61	0xac	-84
62	0x81	-127
63	0x9a	-102
64	0x8c	-116
65	0xd7	-41
66	0x97	-105
67	0xe8	-24
68	0xaf	-81
69	0xf8	-8
70	0xec	-20
71	0x29	41
72	0x9d	-99
73	0x15	21
74	0x12	18
75	0x0a	10
76	0xb4	-76
77	0xca	-54
78	0xaa	-86
79	0x02	2
80	0xf8	-8
81	0xa3	-93
82	0xe9	-23
83	0xe0	-32
84	0xea	-22
85	0x0e	14
86	0x92	-110
87	0xfb	-5
88	0xf8	-8
89	0x98	-104
90	0xfa	-6
91	0x92	-110
92	0x96	-106
93	0xab	-85
94	0x9b	-101
95	0xe6	-26
96	0x0d	13
97	0xad	-83
98	0xb0	-80
99	0x26	38
100	0x03	3
101	0xc4	-60
102	0x05	5
103	0x88	-120
104	0xa8	-88
105	0xc9	-55
106	0x93	-109
107	0xbc	-68
108	0x9a	-102
109	0xb1	-79
110	0x07	7
111	0x0f	15
112	0xc3	-61
113	0x17	23
114	0xb5	-75
115	0x0b	11
116	0x23	35
117	0x1b	27
118	0xe2	-30
119	0xd2	-46
120	0xfe	-2
121	0xe9	-23
122	0xd3	-45
123	0xf9	-7
124	0xea	-22
125	0x19	25
126	0xf5	-11
127	0x99	-103
128	0xea	-22
129	0x86	-122
130	0xf5	-11
131	0xbb	-69
132	0xdf	-33
133	0xeb	-21
134	0x24	36
135	0xdd	-35
136	0xdb	-37
137	0x1e	30
138	0xcc	-52
139	0xab	-85
140	0x8f	-113
141	0xdc	-36
142	0x10	16
143	0x12	18
144	0x20	32
145	0xa8	-88
146	0xc5	-59
147	0xf0	-16
148	0x8c	-116
149	0xff	-1
150	0xa7	-89
151	0x24	36
152	0x93	-109
153	0x9d	-99
154	0xd6	-42
155	0xbf	-65
156	0x0f	15
157	0xfc	-4
158	0x91	-111
159	0xaf	-81
160	0xb3	-77
161	0xe8	-24
162	0xa5	-91
163	0xfb	-5
164	0xca	-54
165	0xcb	-53
166	0x04	4
167	0x21	33
168	0xf4	-12
169	0x26	38
170	0x0b	11
171	0xc6	-58
172	0xa4	-92
173	0xea	-22
174	0x2a	42
175	0x94	-108
176	0xd0	-48
177	0x17	23
178	0x07	7
179	0xfb	-5
180	0xe8	-24
181	0xf7	-9
182	0xaa	-86
183	0x07	7
184	0x26	38
185	0xdd	-35
186	0xeb	-21
187	0xd4	-44
188	0x9c	-100
189	0xa9	-87
190	0xb7	-73
191	0xc9	-55
192	0x2d	45
193	0xd1	-47
194	0xc6	-58
195	0xa3	-93
196	0x18	24
197	0x27	39
198	0x29	41
199	0xd6	-42
200	0x0d	13
201	0x14	20
202	0x99	-103
203	0xe3	-29
204	0xae	-82
205	0xb4	-76
206	0xbc	-68
207	0x12	18
208	0xc3	-61
209	0xd3	-45
210	0xe7	-25
211	0x95	-107
212	0x9d	-99
213	0xec	-20
214	0xa5	-91
215	0xf6	-10
216	0xe0	-32
217	0x03	3
218	0x0a	10
219	0xae	-82
220	0x1c	28
221	0xd0	-48
222	0xd1	-47
223	0x0a	10
224	0xf9	-7
225	0xb2	-78
226	0xef	-17
227	0x1a	26
228	0x1e	30
229	0xd9	-39
230	0x1f	31
231	0x26	38
232	0x95	-107
233	0xac	-84
234	0x17	23
235	0xb6	-74
236	0x1d	29
237	0x1f	31
238	0xee	-18
239	0xf7	-9
240	0xff	-1
241	0xc0	-64
242	0x92	-110
243	0x85	-123
244	0xa4	-92
245	0xcd	-51
246	0x8f	-113
247	0xe2	-30
248	0xcb	-53
249	0x9d	-99
250	0xee	-18
251	0xc7	-57
252	0xe4	-28
253	0x98	-104
254	0xed	-19
255	0xe9	-23

sequential/conv2d_2/Conv2D i1 [120, 4, 4, 16]
0	0xd6	-42
1	0x15	21
2	0x1b	27
3	0xac	-84
4	0xec	-20
5	0xf4	-12
6	0xe0	-32
7	0xec	-20
8	0x87	-121
9	0x67	103
10	0x6e	110
11	0x18	24
12	0xcc	-52
13	0x6b	107
14	0x8c	-116
15	0xe0	-32
16	0xd6	-42
17	0xa4	-92
18	0x6a	106
19	0x3b	59
20	0xec	-20
21	0xe1	-31
22	0xc5	-59
23	0xe1	-31
24	0xd0	-48
25	0x69	105
26	0x24	36
27	0xb9	-71
28	0xd2	-46
29	0x9e	-98
30	0xfe	-2
31	0x4d	77
32	0x52	82
33	0xe9	-23
34	0x72	114
35	0xaf	-81
36	0x91	-111
37	0x09	9
38	0xe2	-30
39	0x1d	29
40	0xe6	-26
41	0x4c	76
42	0x14	20
43	0x1c	28
44	0xf4	-12
45	0x9f	-97
46	0x6c	108
47	0x87	-121
48	0xe8	-24
49	0x8f	-113
50	0xe0	-32
51	0x49	73
52	0x39	57
53	0xb1	-79
54	0xed	-19
55	0x21	33
56	0x46	70
57	0x2b	43
58	0x5f	95
59	0x2d	45
60	0x98	-104
61	0xfd	-3
62	0x23	35
63	0xa8	-88
64	0x1a	26
65	0x65	101
66	0x34	52
67	0x0f	15
68	0x0a	10
69	0xad	-83
70	0xcc	-52
71	0x20	32
72	0xda	-38
73	0xb8	-72
74	0x0b	11
75	0x36	54
76	0x29	41
77	0x13	19
78	0xdf	-33
79	0x66	102
80	0x8e	-114
81	0x60	96
82	0x3a	58
83	0x64	100
84	0x0f	15
85	0x9b	-101
86	0x04	4
87	0xcc	-52
88	0xa9	-87
89	0x53	83
90	0xc7	-57
91	0xe2	-30
92	0xb7	-73
93	0xeb	-21
94	0x22	34
95	0xd2	-46
96	0x3f	63
97	0xa5	-91
98	0x4f	79
99	0xdf	-33
100	0x03	3
101	0x09	9
102	0x04	4
103	0x82	-126
104	0x6c	108
105	0xf0	-16
106	0x03	3
107	0x4e	78
108	0x52	82
109	0x62	98
110	0x01	1
111	0xbf	-65
112	0x3e	62
113	0xb9	-71
114	0x46	70
115	0xff	-1
116	0xbf	-65
117	0xe4	-28
118	0xd8	-40
119	0xdd	-35
120	0x82	-126
121	0x90	-112
122	0x3b	59
123	0x26	38
124	0x4d	77
125	0x6a	106
126	0x07	7
127	0xd3	-45
128	0xd5	-43
129	0x04	4
130	0xd8	-40
131	0xcb	-53
132	0xfb	-5
133	0xef	-17
134	0xe5	-27
135	0xf4	-12
136	0xa9	-87
137	0x23	35
138	0xe4	-28
139	0xaa	-86
140	0x12	18
141	0x42	66
142	0x18	24
143	0xe2	-30
144	0x5a	90
145	0x98	-104
146	0xe7	-25
147	0x10	16
148	0x42	66
149	0x09	9
150	0x25	37
151	0xb3	-77
152	0x0c	12
153	0x4d	77
154	0x0b	11
155	0x48	72
156	0x86	-122
157	0xa5	-91
158	0xbb	-69
159	0xcd	-51
160	0xe7	-25
161	0x0a	10
162	0xab	-85
163	0xa4	-92
164	0x4d	77
165	0xa8	-88
166	0x71	113
167	0x69	105
168	0x2e	46
169	0x8f	-113
170	0x21	33
171	0x6b	107
172	0x51	81
173	0xc7	-57
174	0xaa	-86
175	0x81	-127
176	0xf9	-7
177	0x43	67
178	0x00	0
179	0x5a	90
180	0xba	-70
181	0xad	-83
182	0xeb	-21
183	0xf5	-11
184	0xe8	-24
185	0xb9	-71
186	0x67	103
187	0x9c	-100
188	0xdf	-33
189	0xb4	-76
190	0x86	-122
191	0xea	-22
192	0x48	72
193	0x15	21
194	0xa2	-94
195	0x68	104
196	0x31	49
197	0x1a	26
198	0x23	35
199	0xcf	-49
200	0x59	89
201	0x61	97
202	0xe6	-26
203	0xda	-38
204	0x0a	10
205	0x63	99
206	0xad	-83
207	0x27	39
208	0x89	-119
209	0xa6	-90
210	0x6e	110
211	0xb1	-79
212	0x45	69
213	0x43	67
214	0xf2	-14
215	0xa1	-95
216	0x6d	109
217	0xcf	-49
218	0x54	84
219	0xc8	-56
220	0x6c	108
221	0x4a	74
222	0x20	32
223	0x2f	47
224	0xf6	-10
225	0x88	-120
226	0x16	22
227	0x62	98
228	0x22	34
229	0xcd	-51
230	0x2b	43
231	0x32	50
232	0x8b	-117
233	0xd2	-46
234	0xb6	-74
235	0x83	-125
236	0x18	24
237	0x5d	93
238	0x89	-119
239	0xd4	-44
240	0x0d	13
241	0x9a	-102
242	0x9a	-102
243	0x04	4
244	0xad	-83
245	0xef	-17
246	0x44	68
247	0x03	3
248	0x3d	61
249	0xe0	-32
250	0x2f	47
251	0x51	81
252	0xbf	-65
253	0xa3	-93
254	0xed	-19
255	0xfe	-2

sequential/dense/MatMul i1 [84, 120] scale=0.0017119474 zero_point=0
0	0x08	0.013695579
1	0xfa	-0.010271684
2	0xc4	-0.10271684
3	0xb3	-0.13181995
4	0xb0	-0.1369558
5	0xe4	-0.047934525
6	0x09	0.015407527
7	0xce	-0.085597366
8	0x03	0.005135842
9	0xd4	-0.07532568
10	0x23	0.059918158
11	0x04	0.0068477895
12	0xe4	-0.047934525
13	0xfe	-0.0034238948
14	0x0f	0.02567921
15	0x26	0.065054
16	0xc1	-0.10785268
17	0xf2	-0.023967262
18	0x37	0.09415711
19	0x33	0.087309316
20	0x04	0.0068477895
21	0xf8	-0.013695579
22	0x50	0.1369558
23	0xee	-0.030815054
24	0xe4	-0.047934525
25	0x11	0.029103106
26	0x49	0.12497216
27	0x11	0.029103106
28	0xe5	-0.04622258
29	0xfc	-0.0068477895
30	0xa8	-0.15065137
31	0xd2	-0.07874958
32	0xf4	-0.020543369
33	0x43	0.114700474
34	0xe7	-0.042798683
35	0x07	0.011983631
36	0xfd	-0.005135842
37	0xc0	-0.10956463
38	0xec	-0.03423895
39	0x2b	0.07361374
40	0xe2	-0.05135842
41	0x42	0.112988524
42	0x0a	0.017119475
43	0x3e	0.10614074
44	0xbc	-0.11641242
45	0x39	0.097581
46	0xe5	-0.04622258
47	0xb3	-0.13181995
48	0xd5	-0.07361374
49	0xbb	-0.118124366
50	0x49	0.12497216
51	0x35	0.09073321
52	0x38	0.09586905
53	0xfe	-0.0034238948
54	0x09	0.015407527
55	0xf0	-0.027391158
56	0x9d	-0.1694828
57	0x18	0.041086737
58	0xfa	-0.010271684
59	0xde	-0.05820621
60	0xbf	-0.11127658
61	0x51	0.13866773
62	0xef	-0.029103106
63	0xd8	-0.0684779
64	0x25	0.06334205
65	0x05	0.008559737
66	0x05	0.008559737
67	0xb9	-0.121548265
68	0x05	0.008559737
69	0x3e	0.10614074
70	0xf5	-0.01883142
71	0x29	0.07018984
72	0xe9	-0.03937479
73	0x2b	0.07361374
74	0xe2	-0.05135842
75	0x35	0.09073321
76	0xc6	-0.09929295
77	0x0d	0.022255316
78	0xb1	-0.13524385
79	0x19	0.042798683
80	0x02	0.0034238948
81	0x3c	0.10271684
82	0xba	-0.119836316
83	0xbc	-0.11641242
84	0x3e	0.10614074
85	0xbe	-0.112988524
86	0x52	0.14037968
87	0x57	0.14893942
88	0xae	-0.14037968
89	0xdb	-0.06334205
90	0xc2	-0.10614074
91	0x1a	0.044510633
92	0xbe	-0.112988524
93	0x3c	0.10271684
94	0xdc	-0.061630107
95	0xbb	-0.118124366
96	0x32	0.085597366
97	0x24	0.061630107
98	0xdb	-0.06334205
99	0xe7	-0.042798683
100	0x37	0.09415711
101	0x0e	0.023967262
102	0x13	0.032527
103	0x2a	0.07190179
104	0x33	0.087309316
105	0xd1	-0.080461524
106	0xe9	-0.03937479
107	0xd8	-0.0684779
108	0x0e	0.023967262
109	0x29	0.07018984
110	0xaf	-0.13866773
111	0x22	0.05820621
112	0x59	0.15236332
113	0x30	0.082173474
114	0xc1	-0.10785268
115	0xd8	-0.0684779
116	0x3d	0.10442879
117	0xf2	-0.023967262
118	0x08	0.013695579
119	0x30	0.082173474
120	0xe5	-0.04622258
121	0x96	-0.18146642
122	0x2a	0.07190179
123	0x0d	0.022255316
124	0x4c	0.130108
125	0xc4	-0.10271684
126	0xd4	-0.07532568
127	0x1e	0.05135842
128	0x07	0.011983631
129	0x38	0.09586905
130	0xd7	-0.07018984
131	0x45	0.118124366
132	0xcb	-0.09073321
133	0xd5	-0.07361374
134	0x3b	0.1010049
135	0xef	-0.029103106
136	0xda	-0.065054
137	0xd0	-0.082173474
138	0xf5	-0.01883142
139	0xcf	-0.083885424
140	0x44	0.11641242
141	0x51	0.13866773
142	0xc6	-0.09929295
143	0xcb	-0.09073321
144	0xe4	-0.047934525
145	0xcd	-0.087309316
146	0x07	0.011983631
147	0xd1	-0.080461524
148	0xda	-0.065054
149	0xe9	-0.03937479
150	0x23	0.059918158
151	0x27	0.06676595
152	0xfe	-0.0034238948
153	0xd1	-0.080461524
154	0x27	0.06676595
155	0x24	0.061630107
156	0x3f	0.10785268
157	0x0e	0.023967262
158	0xc5	-0.1010049
159	0x00	0.0
160	0x26	0.065054
161	0x42	0.112988524
162	0xb6	-0.1266841
163	0x00	0.0
164	0xd4	-0.07532568
165	0xe1	-0.05307037
166	0xaf	-0.13866773
167	0x2a	0.07190179
168	0x3b	0.1010049
169	0x13	0.032527
170	0xf3	-0.022255316
171	0x36	0.09244516
172	0x08	0.013695579
173	0x51	0.13866773
174	0x19	0.042798683
175	0x4d	0.13181995
176	0x56	0.14722748
177	0x00	0.0
178	0xbe	-0.112988524
179	0xc5	-0.1010049
180	0xe5	-0.04622258
181	0x10	0.027391158
182	0xc8	-0.09586905
183	0xe9	-0.03937479
184	0xe0	-0.054782316
185	0x26	0.065054
186	0x19	0.042798683
187	0xdd	-0.059918158
188	0x29	0.07018984
189	0xb4	-0.130108
190	0x0a	0.017119475
191	0x38	0.09586905
192	0xf2	-0.023967262
193	0xec	-0.03423895
194	0xff	-0.0017119474
195	0x48	0.123260215
196	0xb4	-0.130108
197	0xbb	-0.118124366
198	0xfd	-0.005135842
199	0x43	0.114700474
200	0xf5	-0.01883142
201	0x31	0.083885424
202	0xc5	-0.1010049
203	0xdb	-0.06334205
204	0x20	0.054782316
205	0x2e	0.07874958
206	0x08	0.013695579
207	0xbf	-0.11127658
208	0xec	-0.03423895
209	0x41	0.11127658
210	0xc0	-0.10956463
211	0xef	-0.029103106
212	0xd0	-0.082173474
213	0x10	0.027391158
214	0x55	0.14551553
215	0x2a	0.07190179
216	0x6c	0.18489031
217	0xb3	-0.13181995
218	0xbb	-0.118124366
219	0x4d	0.13181995
220	0x3b	0.1010049
221	0xb4	-0.130108
222	0x20	0.054782316
223	0x4c	0.130108
224	0xc8	-0.09586905
225	0xc1	-0.10785268
226	0xe7	-0.042798683
227	0x11	0.029103106
228	0xb4	-0.130108
229	0xfb	-0.008559737
230	0x43	0.114700474
231	0xde	-0.05820621
232	0x18	0.041086737
233	0x38	0.09586905
234	0xce	-0.085597366
235	0x02	0.0034238948
236	0xe9	-0.03937479
237	0xdf	-0.056494262
238	0xe9	-0.03937479
239	0xac	-0.14380358
240	0xde	-0.05820621
241	0x16	0.03766284
242	0x1a	0.044510633
243	0x35	0.09073321
244	0xf2	-0.023967262
245	0xcd	-0.087309316
246	0xe4	-0.047934525
247	0xff	-0.0017119474
248	0x36	0.09244516
249	0x39	0.097581
250	0xfb	-0.008559737
251	0x07	0.011983631
252	0x2e	0.07874958
253	0x2a	0.07190179
254	0xa7	-0.15236332
255	0x09	0.015407527

sequential/dense_1/MatMul i1 [10, 84] scale=0.0013863305 zero_point=0
0	0xca	-0.07486185
1	0x4b	0.10397478
2	0xef	-0.023567617
3	0x25	0.051294226
4	0xe3	-0.040203582
5	0xec	-0.02772661
6	0x5a	0.12476974
7	0x0e	0.019408626
8	0x14	0.02772661
9	0x1e	0.041589916
10	0x2a	0.058225878
11	0x9c	-0.13863304
12	0xcc	-0.07208918
13	0xfb	-0.0069316523
14	0xcb	-0.07347552
15	0x19	0.03465826
16	0xfa	-0.008317983
17	0x12	0.024953948
18	0xc0	-0.08872515
19	0xbb	-0.095656805
20	0x18	0.03327193
21	0x3b	0.081793495
22	0xaa	-0.11922442
23	0x2b	0.05961221
24	0xcb	-0.07347552
25	0x37	0.07624818
26	0xb5	-0.10397478
27	0xef	-0.023567617
28	0xe2	-0.041589916
29	0xd5	-0.05961221
30	0x7b	0.17051865
31	0x0e	0.019408626
32	0x41	0.09011148
33	0x1e	0.041589916
34	0xd0	-0.06654386
35	0x32	0.06931652
36	0x17	0.0318856
37	0xe7	-0.03465826
38	0xfb	-0.0069316523
39	0x27	0.05406689
40	0xf1	-0.020794958
41	0xee	-0.024953948
42	0x07	0.009704313
43	0xd6	-0.058225878
44	0xd8	-0.05545322
45	0x50	0.11090644
46	0xe5	-0.037430923
47	0x9b	-0.14001937
48	0x09	0.012476974
49	0x40	0.08872515
50	0x20	0.044362575
51	0xf2	-0.019408626
52	0x31	0.06793019
53	0xda	-0.05268056
54	0xcb	-0.07347552
55	0xff	-0.0013863305
56	0x21	0.045748904
57	0xb7	-0.10120212
58	0xc3	-0.08456616
59	0xa7	-0.12338341
60	0x45	0.095656805
61	0x3f	0.08733882
62	0x0e	0.019408626
63	0x01	0.0013863305
64	0x04	0.005545322
65	0xda	-0.05268056
66	0x02	0.002772661
67	0x1c	0.038817253
68	0x18	0.03327193
69	0x14	0.02772661
70	0xe2	-0.041589916
71	0x0d	0.018022295
72	0xfa	-0.008317983
73	0xf3	-0.018022295
74	0x05	0.0069316523
75	0xdc	-0.049907897
76	0xc1	-0.08733882
77	0x48	0.09981579
78	0x58	0.12199708
79	0x02	0.002772661
80	0x37	0.07624818
81	0x05	0.0069316523
82	0xb9	-0.098429464
83	0x02	0.002772661
84	0xd6	-0.058225878
85	0xf1	-0.020794958
86	0xbb	-0.095656805
87	0x14	0.02772661
88	0xbc	-0.09427047
89	0x32	0.06931652
90	0x67	0.14279203
91	0x14	0.02772661
92	0xd9	-0.05406689
93	0x10	0.022181287
94	0xb7	-0.10120212
95	0x2a	0.058225878
96	0x20	0.044362575
97	0xd9	-0.05406689
98	0xe7	-0.03465826
99	0x21	0.045748904
100	0xee	-0.024953948
101	0x10	0.022181287
102	0xa5	-0.12615608
103	0x25	0.051294226
104	0xde	-0.047135234
105	0xf8	-0.011090644
106	0x10	0.022181287
107	0xe3	-0.040203582
108	0xd6	-0.058225878
109	0x3c	0.08317983
110	0xbf	-0.09011148
111	0x37	0.07624818
112	0xf0	-0.022181287
113	0xbd	-0.09288414
114	0x6f	0.15388268
115	0xe3	-0.040203582
116	0x0d	0.018022295
117	0xdb	-0.051294226
118	0xf5	-0.015249635
119	0x34	0.07208918
120	0x05	0.0069316523
121	0xe1	-0.042976245
122	0xfa	-0.008317983
123	0xcd	-0.07070285
124	0x3f	0.08733882
125	0xc6	-0.080407165
126	0x7c	0.17190498
127	0xef	-0.023567617
128	0x0f	0.020794958
129	0xed	-0.02634028
130	0xd8	-0.05545322
131	0x9f	-0.13447405
132	0x61	0.13447405
133	0xf7	-0.012476974
134	0x5b	0.12615608
135	0xf0	-0.022181287
136	0x46	0.097043134
137	0xfa	-0.008317983
138	0x5f	0.1317014
139	0x12	0.024953948
140	0x7a	0.16913232
141	0xaf	-0.11229277
142	0x37	0.07624818
143	0xb0	-0.11090644
144	0x17	0.0318856
145	0x5a	0.12476974
146	0x5b	0.12615608
147	0xc5	-0.081793495
148	0x50	0.11090644
149	0xb9	-0.098429464
150	0xda	-0.05268056
151	0xd6	-0.058225878
152	0x38	0.077634506
153	0x0f	0.020794958
154	0xb1	-0.10952011
155	0x11	0.023567617
156	0x3e	0.08595249
157	0xfd	-0.0041589914
158	0x43	0.09288414
159	0xd2	-0.0637712
160	0xb7	-0.10120212
161	0xe3	-0.040203582
162	0xcb	-0.07347552
163	0x3f	0.08733882
164	0xb8	-0.09981579
165	0x0a	0.013863305
166	0xd3	-0.06238487
167	0xe9	-0.0318856
168	0x1c	0.038817253
169	0xd9	-0.05406689
170	0x04	0.005545322
171	0xe1	-0.042976245
172	0xd1	-0.06515753
173	0x58	0.12199708
174	0xff	-0.0013863305
175	0x31	0.06793019
176	0x31	0.06793019
177	0xf9	-0.009704313
178	0xb5	-0.10397478
179	0x8b	-0.16220066
180	0xea	-0.03049927
181	0xf2	-0.019408626
182	0xec	-0.02772661
183	0x27	0.05406689
184	0xea	-0.03049927
185	0x16	0.03049927
186	0xaf	-0.11229277
187	0x27	0.05406689
188	0xbb	-0.095656805
189	0x3c	0.08317983
190	0x71	0.15665534
191	0x2c	0.06099854
192	0x05	0.0069316523
193	0x4b	0.10397478
194	0xca	-0.07486185
195	0x0d	0.018022295
196	0x2d	0.06238487
197	0xe9	-0.0318856
198	0x61	0.13447405
199	0xe8	-0.03327193
200	0xff	-0.0013863305
201	0x03	0.0041589914
202	0xf0	-0.022181287
203	0x04	0.005545322
204	0xf6	-0.013863305
205	0xfe	-0.002772661
206	0x2b	0.05961221
207	0x2f	0.06515753
208	0xcd	-0.07070285
209	0xbe	-0.09149781
210	0x62	0.13586038
211	0xe7	-0.03465826
212	0xfb	-0.0069316523
213	0xf8	-0.011090644
214	0xe1	-0.042976245
215	0xa0	-0.13308772
216	0x2b	0.05961221
217	0xff	-0.0013863305
218	0xe9	-0.0318856
219	0xf5	-0.015249635
220	0x49	0.10120212
221	0xd7	-0.056839548
222	0x08	0.011090644
223	0xde	-0.047135234
224	0x59	0.12338341
225	0xb6	-0.10258845
226	0x0e	0.019408626
227	0xcb	-0.07347552
228	0x13	0.02634028
229	0xdd	-0.048521567
230	0x54	0.116451755
231	0xb5	-0.10397478
232	0x34	0.07208918
233	0xb9	-0.098429464
234	0x16	0.03049927
235	0x1c	0.038817253
236	0x58	0.12199708
237	0xd3	-0.06238487
238	0xba	-0.097043134
239	0x2c	0.06099854
240	0x5f	0.1317014
241	0xfa	-0.008317983
242	0x2f	0.06515753
243	0x05	0.0069316523
244	0x09	0.012476974
245	0xe8	-0.03327193
246	0xaa	-0.11922442
247	0x11	0.023567617
248	0x0a	0.013863305
249	0xfa	-0.008317983
250	0x01	0.0013863305
251	0xdb	-0.051294226
252	0xeb	-0.029112939
253	0x1a	0.03604459
254	0x4f	0.10952011
255	0xee	-0.024953948
