tmp/model.tflite (tflite, 181444 bytes, 10 tensors)

dense_1/bias f4 [10]
00000000: 8c47 26bd a536 9dbc 3400 8b3c 617a 68bb
00000010: c869 2e3a 9bda c63c 4549 e9bb 3158 313b
00000020: f513 d43b 9124 f03b
-0.040595576 -0.019191096 0.01696787 -0.0035473334 0.0006653336 0.024274161 -0.00711933 0.0027060623
0.0064721056 0.007328578

dense/bias f4 [84]
00000000: 4aa6 acb9 5d80 17bd 79be e3bb 98e0 2c3c
00000010: 3477 29bc ce2d 743b c8dc d5bb cf82 7e3c
00000020: 9c7a 583c 7e80 c9bb 8352 0bba db2b a73c
00000030: e948 c23b 4699 ac3b c29f 7c3b 9a9c debb
00000040: b2b7 54bc ece6 4c3c d493 7a3a b4b3 efbb
00000050: b62a 7538 6f5b 13bb 079c c73c 239d b7bb
00000060: ea52 7dba d550 e8bb dca2 3e3c 6483 8bbc
00000070: 3c51 923c b49d 5a3c 812a a8bc d1ef 81bc
00000080: ad8f 1f3a e12a 21bc 3f0a 743b db72 9dbb
00000090: fe03 8b3c 4ab6 bcba 16b1 adbc 8096 e13b
000000a0: fda6 ffbb 2888 12bb be19 413c 224e 89bb
000000b0: d770 6e3c 3979 64bc 2c39 873c 6bd3 413a
000000c0: 3be4 23bc 4078 a4bc 5a76 63bc 39ae 553b
000000d0: a34c ecbb 06cb 9a39 dbf6 05bc 7547 493c
000000e0: 834e dfb9 f568 62bc 2b76 963c a9ff 9a3c
000000f0: b361 0cbb a51e 17bc 0bd1 0ebb 3b59 3ebc
00000100: 3ba9 dcbc 02a3 8c3c ae11 473c 171b d83b
00000110: 67ed 11bb 6550 e23b 61ea d9bb 3e84 733c
00000120: e6e7 0e3b 1ef0 1ebc 8fa4 c03b ca87 ccbb
00000130: 921f d83b 1750 dfbb 2bea ca3b 08d8 abbc
00000140: bf5d 75bb 04a2 d53a 1dd6 643b 3ed6 1aba
-0.00032930291 -0.03698765 -0.0069501963 0.010551594 -0.010343362 0.0037258747 -0.0065265633 0.015534117
0.013212826 -0.0061493507 -0.00053147244 0.020406654 0.0059291017 0.005267295 0.0038547372 -0.0067935707
-0.0129832495 0.012506228 0.0009558771 -0.0073151235 5.845233e-05 -0.0022484919 0.024366392 -0.005603449
-0.0009663539 -0.007089714 0.011635508 -0.017030425 0.017861001 0.013343263 -0.02052808 -0.015861424
0.0006086778 -0.009836883 0.0037237552 -0.0048049516 0.016969677 -0.0014397588 -0.021202605 0.006884396
-0.007801889 -0.0022358987 0.011785923 -0.0041902224 0.01455327 -0.013944917 0.016506754 0.00073938695
-0.010003145 -0.02007687 -0.013883198 0.0032605065 -0.0072112842 0.00029524433 -0.008176531 0.012285103
-0.0004259237 -0.013818969 0.018366894 0.018920736 -0.0021420538 -0.009223615 -0.002179208 -0.011617954
-0.026936164 0.017167572 0.012150211 0.0065950262 -0.0022266747 0.0069065564 -0.0066502546 0.014863072
0.0021805703 -0.009700803 0.005878992 -0.0062417733 0.0065955603 -0.0068149674 0.006192466 -0.020977035
-0.003743991 0.0016298895 0.003491766 -0.00059065584

sequential/dense/MatMul f4 [84, 120]
00000000: b313 1f3d 2379 fbbd 0962 68be 2879 32be
00000010: 9941 91bd 38b2 70be 677f 873d e171 85bd
00000020: 739f dabd 422e 0dbe 6a5c 883e 8307 95bd
00000030: 864b 0ebe 110f f0bc 596d 513e e806 803e
00000040: 0327 92be 0f68 b9bc 6df4 403e 8c6e d83d
00000050: 91d2 b1bd 0c57 c53d 1566 c03d 6e55 93be
00000060: 8aea aabd 28e4 233e 43e4 a03d 6f32 a83d
00000070: 4f15 06be c7b5 2c3d 4b51 8cbd 95cc ccbd
00000080: f75b 933d 0de4 073e 3f54 d4bd 54c8 513d
00000090: 9c56 1e3c ba2a e5bd 7962 d73d 8358 ff3d
000000a0: e83a 86bd 079f 8f3d 3dba b5bc 1c25 33bc
000000b0: d13a 68be d320 af3d c710 05be a2e6 2bbe
000000c0: 5bc1 21be 03f1 2ebd a7a8 873e ae4a 70bd
000000d0: 8043 233e b720 163d fbc9 363d eabf ffbd
000000e0: 853a 01be bbc7 af3d 4b13 b4bd a9a8 4c3c
000000f0: 807f b2be d22b 803d c39c b43d ade2 c6bc
00000100: 82a4 813d 220d 3b3e 3e4c 123c e36b d3bc
00000110: 5af7 29bd 4e7c 843e a575 1f3d 942a 8c3e
00000120: 8e2d f53d 5f9c d1bd f5eb b5bd c6c3 d13d
00000130: eecf 23be 0bec 783d 8645 58be 6531 3a3e
00000140: 4bea 5a3e 43da 033e 404b 55be 967e 1abe
00000150: cd56 8b3e 8057 04be 5417 023e ec7a 383e
00000160: 8f03 bbbd c0cf cc3b e07c 08be ad09 ba3d
00000170: fe6d 1abd 1086 6dbd f8ef 963c 326b ccbd
00000180: 6ae7 403e c662 a73d a131 1cbd c015 223d
00000190: 2c4e 973e 9b9c 6cbe 8cf7 c93d 8d45 753c
000001a0: af42 683d be72 9bbd 958b e83c 8937 d6bd
000001b0: d1ed 593c f4a6 c03b 7847 c5bd a176 273e
000001c0: 24fe fe3d e265 90bd 357c efbd b47f 4abd
000001d0: c2ff 2e3e e86f c3bc da45 233d d11d 9f3e
000001e0: a8a1 09be 38b1 82bd d8d2 103e 1acc 0d3e
000001f0: d636 813e 533f 4dbd e956 413e 5e5e 353d
00000200: bed5 133e 9ca8 dd3d 4673 96be 7051 6a3e
00000210: 613d 63be d110 7cbe ce28 f53d 8556 14be
00000220: da0f 35be 11c0 c1bd 970c 1d3c c13e 0abe
00000230: 1376 cf3d befc 683d 4e2e 39be 0b03 113d
00000240: a2cf f2bd 0d3d 93be f117 de3d a0e6 92bd
00000250: 1e66 eabc 18fb 85be 6a6d c53d 1088 923e
00000260: fe0d 2c3d c014 a8be bf16 a23d bd4f b33d
00000270: c8fa 133e 8a43 c2bd 628d f0bd 8a23 19be
00000280: 8f13 b03e f523 513e fd1c 14be 301c 60bd
00000290: 0db1 b9be 30e5 79bd 379d 50bd cc28 373e
000002a0: 22d9 02bd 791e 8dbc 7ef4 61be 57d6 413e
000002b0: 5464 6fbc fc8c 653c c62f 193e 914e 463e
000002c0: 6ce3 9e3e 2ecd edba 6721 f9bd ef62 aabe
000002d0: 8cc4 72be 6a0f 273e 1ae7 3fbe b7d6 8abb
000002e0: 981b e2bd 0679 dabd 112d 743e 9875 cc3c
000002f0: d130 4f3e 67aa 37be f7d4 11be 2714 853c
00000300: f5f0 1b3e 6821 aebe 8bed db3d 3d20 663e
00000310: 3398 d2bd 35e3 edbd 372b 85bd 0a9a 563e
00000320: 2b38 0f3e 04ac 363e 64c9 45be 9f84 3ebe
00000330: db0d 8abb 7da3 f73c 6a5b 4bbe 93e6 0c3c
00000340: c2b3 14be 3b6a 8bbe 7abb 20be 2c1f efbd
00000350: 29fc 6fbe ae5a fa3d 311d ff3d 87f8 e73d
00000360: 8a8e e03d c964 25be 42d7 25be 818f 4b3e
00000370: e0c9 d0bd 6fd2 5abe 32b5 9abb 39c2 4e3e
00000380: 5203 98bd 1705 10be 55b4 41be c589 0d3d
00000390: e9a3 56be aba8 a63d 72a5 0fbc 053e 6bbb
000003a0: f29d 033e 8826 603d 71fd 75bd bcb4 cc3d
000003b0: d198 9abc a97f 96bd 019a 4ebe 8e08 11be
000003c0: cdfa 29be d74c 9d3d bde7 053e 7669 d53d
000003d0: 4d45 d23d 3150 083e 63a7 0ebd 434a 92bb
000003e0: fd65 1c3d 70cf a53d ee27 29be 6ba5 febd
000003f0: fbfb 803d 02c5 803e 8406 19be 1e6a 74bd
0.038837146 -0.12278964 -0.22693647 -0.1742903 -0.0709259 -0.23505485 0.06616097 -0.06515861
-0.10674944 -0.13787177 0.26633006 -0.07276823 -0.13895997 -0.02930406 0.20451869 0.2500527
-0.2854539 -0.022632627 0.18843241 0.1056796 -0.086827405 0.096357435 0.093944706 -0.28776115
-0.08345516 0.16005003 0.078560375 0.082127444 -0.13094066 0.042165544 -0.06851443 -0.099999584
0.07195275 0.13270588 -0.10367631 0.05121644 0.009664204 -0.1118979 0.10516829 0.12468054
-0.06554204 0.07012754 -0.022183532 -0.0109341405 -0.22678687 0.085511826 -0.12994681 -0.16787198
-0.15796416 -0.042710315 0.2649586 -0.05866497 0.15943718 0.036652293 0.044626217 -0.124877766
-0.1261998 0.085830174 -0.08792742 0.012491384 -0.348629 0.06258358 0.088189624 -0.02427801
0.063302055 0.18266729 0.00892931 -0.02580828 -0.04149566 0.25876087 0.038930554 0.27376235
0.119715795 -0.102349035 -0.08882896 0.10242419 -0.15997288 0.060771983 -0.21120271 0.18182905
0.21378438 0.12876229 -0.20829487 -0.15087351 0.2721466 -0.12924004 0.12704211 0.18015641
-0.09131538 0.0062503517 -0.13328886 0.09083877 -0.037702553 -0.05798918 0.018424973 -0.099813834
0.18838277 0.081731364 -0.038133267 0.039571524 0.29551828 -0.23106615 0.09861669 0.0149701955
0.05670422 -0.07590245 0.02838687 -0.10459811 0.013301329 0.0058792774 -0.09632772 0.16353847
0.12450817 -0.070506826 -0.116936125 -0.049438193 0.17089751 -0.023857072 0.039861538 0.31077436
-0.13440573 -0.06381458 0.1414293 0.1384739 0.2523715 -0.05010922 0.1888081 0.04427945
0.14437005 0.10823175 -0.29384822 0.22882628 -0.22191383 -0.2461579 0.119706735 -0.1448613
-0.17681828 -0.09460462 0.009585521 -0.13500501 0.10129943 0.05688166 -0.1808407 0.035403293
-0.11856009 -0.28757516 0.1084441 -0.071728945 -0.028613146 -0.26168132 0.0964001 0.28619432
0.04200553 -0.3282833 0.07914495 0.08755443 0.14451134 -0.09485538 -0.11745717 -0.14954963
0.34389922 0.20423873 -0.14464183 -0.05471438 -0.36267892 -0.061009586 -0.05093118 0.17886657
-0.031945355 -0.017226445 -0.22065923 0.1892942 -0.014611322 0.014010664 0.1495963 0.19365908
0.31032884 -0.0018142813 -0.12164574 -0.33278605 -0.23707789 0.16314474 -0.18740502 -0.004237022
-0.11040419 -0.10667615 0.23845316 0.024958417 0.20233466 -0.17936097 -0.14241396 0.016244961
0.15228637 -0.34009862 0.10738667 0.22473235 -0.10282936 -0.11615602 -0.06502383 0.20957199
0.1398627 0.17839056 -0.19315106 -0.18605278 -0.0042130775 0.030229324 -0.1985909 0.008599895
-0.14521697 -0.27229485 -0.15696517 -0.116758674 -0.23436035 0.12224327 0.1245674 0.113267
0.10964687 -0.16151728 -0.16195396 0.19878961 -0.101947546 -0.21369337 -0.004721307 0.20191278
-0.07422508 -0.14064442 -0.18916447 0.034555215 -0.20960964 0.081376396 -0.008767473 -0.003589512
0.1285322 0.054724246 -0.060056154 0.0999541 -0.018871697 -0.07348568 -0.20175935 -0.1416342
-0.16599579 0.07680672 0.13076682 0.10420506 0.10267124 0.1331184 -0.0348276 -0.004464419
0.0381832 0.08096206 -0.16519138 -0.12433895 0.062980615 0.25150305 -0.14943892 -0.059671514

sequential/dense_1/MatMul f4 [10, 84]
00000000: 42f4 b1be 0283 cf3e e2e3 5abe b082 3f3e
00000010: 25a5 e3bd 2d02 b9bc 6a80 b83e 9ffa 4e3e
00000020: c272 2d3e 037a a43e 285c 8b3e f006 cdbe
00000030: 2db9 9ebe bbdd 973d 6a13 83be df24 a4bc
00000040: 5706 e63e 7e7b f73d ede3 4fbe 59b1 d2be
00000050: 32d8 cc3e 49fd a83e b396 61be befe eb3e
00000060: d5c6 94be b0fb c03e 39b5 7ebe 68bf 7dbd
00000070: 046f f3be 8751 3f3e 6c01 aa3e ef24 ea3d
00000080: 18d5 7ebd e7aa c63e d317 8cbe 0006 963e
00000090: 1439 a3bb 7866 6e3e 3c0d 5e3e 09cc ce3e
000000a0: a79a 81be f572 00be 7baf 36be 0499 9cbe
000000b0: b554 e4be 2cad d43e 8f41 f6be dd90 86be
000000c0: e982 33be 8964 bc3e 8a7f e3bd 9e80 2cbe
000000d0: 835f 983d 5d5a 82be 82b2 9cbe e780 303e
000000e0: aa98 a13e 4f7a 68be aaed 62be cd41 11bc
000000f0: 04bd 823e f6c9 a23e e392 9a3e 10a5 783d
00000100: 11b8 a0be 865f 45be 4c42 95be 4ec4 8a3e
00000110: 7f12 153e 73ec 3e3e 6419 283e 5358 053e
00000120: a118 76be 0548 39bd 44f0 9abe 120b 22be
00000130: a310 abbe 3349 7a3e 6ead 613e 4d0e 063e
00000140: b83f c43e b03f 0dbe f312 9bbe e6a4 e7b9
00000150: a685 b5be e335 c4bd ddaa 6bbe 62d2 00be
00000160: d734 55be 4f31 ad3e c9eb b73e c9a3 44be
00000170: 9770 10bf e774 8b3e 0849 a1be f6f6 bf3e
00000180: 260f 863e 69f3 b5be 4355 aa3d 0200 433d
00000190: 45cb d53c d06c 23be a360 a5be 9ada c03e
000001a0: 4954 64be 861d 4ebe c381 dc3d 5dcb 87be
000001b0: ddc1 613d f10b b13c a0fd a0bd a978 133f
000001c0: d491 cfbd 0456 7bbe 3618 40bd 8405 28be
000001d0: d598 25be f836 99be 6f19 7d3d 2250 f53d
000001e0: b785 fcbd d5bc 70be 2f8f 10be f686 bdbe
000001f0: c2b3 893e dcbf c8be b82d 933e 929d 563c
00000200: c9a9 de3d 210c 56be 804f 16be 94f8 b6be
00000210: f2d2 dd3e 8579 61bd 847e eb3e dbd4 bebe
00000220: dc5d 563d 92b8 713d 96e3 a33e 58de 243e
00000230: 360b 6f3e 1115 b2be b27b 9f3e c63b b6be
00000240: ba3b 21be f5e9 9e3e e66f b53e e029 16be
00000250: 15a8 bc3e dd21 a2be 7873 d6bd f559 e0be
00000260: b84e 513e 6ba6 113e f96c 6ebe 2003 843d
00000270: 70d3 953e 82a9 a53d f7cd d03e 4c31 4cbe
00000280: 98ef 87be 7538 89be bc9f c7be 5c3c b83e
00000290: f52a 96be 7b38 253e 8bd3 8bbe 86e6 c2bd
000002a0: c690 353e b778 0abe 230f 93bd 7bf6 d1be
000002b0: b81a 8fbe 789b 843e b07b 81bd 5752 a03e
000002c0: 6c73 7a3e b7e3 aa3a cad2 33be c006 dfbe
000002d0: acb7 5fbd 513f f13c f656 a53d 614a 5c3c
000002e0: b6d8 a7bd 6835 943d e629 293c c346 b53e
000002f0: ea51 95be 2c43 a03e c572 983e f5ed 9c3e
00000300: 497d 183e 352b 9e3e 9d78 b03a 99dc 83bd
00000310: 0e67 2f3e 946a ce3c a6a3 37be 0bb5 edbd
00000320: cedc e1bd 7467 8fbc 4c22 e73b c951 66bd
00000330: b1aa 82be 905a 8f3d 81ca cb3e 2098 cb3e
00000340: 02ea abbe 6f0c bc3d 01de 833e d105 dcbd
00000350: 5ab6 d6bc 3b78 00be de64 82be 9b64 99be
00000360: 9819 103e 188d 39be f684 d0be dbe5 003e
00000370: 67cc 6b3e 46a7 babd 08f0 c0bd 48cf 5abe
00000380: 89af de3e cc3b 7c3e 20e6 3e3e e3c3 3a3e
00000390: 2cba 65be 82bf 2dbe 8f90 e03e 5a19 d1bd
000003a0: 8099 7b3e 3702 56be 77fd 863e bdb6 273e
000003b0: bf54 ab3e c1e5 8cbe e40b 8bbe d4ca 6b3e
000003c0: f48f 9e3e 4052 f135 ff37 433e 7c23 9f3d
000003d0: 6b6e 233e 809c 9fbe 3d98 cdbe 172c c83b
000003e0: 2426 b63d eb58 89be a33f 1a3e 5523 42be
000003f0: b254 a5be 62af 503d 3c8c 853e 0820 e1be
-0.34756666 0.4052964 -0.21375993 0.18702197 -0.11115483 -0.022584045 0.36035472 0.20212792
0.16938308 0.32124338 0.27218747 -0.40044355 -0.31000653 0.074153386 -0.2560075 -0.020037113
0.44926712 0.12084101 -0.2030179 -0.4115093 0.40008694 0.3300574 -0.22030143 0.4609279
-0.29057947 0.37692022 -0.24873818 -0.061950117 -0.47545636 0.18683444 0.3320421 0.11432826
-0.06221494 0.38802263 -0.27361926 0.29301453 -0.0049811695 0.23281276 0.21684736 0.4039004
-0.25313303 -0.12543853 -0.17840378 -0.30585492 -0.44595876 0.4153837 -0.48096892 -0.26282397
-0.17530407 0.36795452 -0.111083105 -0.16845939 0.074400924 -0.25459567 -0.3060494 0.17236672
0.31561786 -0.22702907 -0.22160974 -0.008865786 0.25534832 0.3179471 0.3019019 0.06070429
-0.31390432 -0.1927472 -0.29152143 0.27102894 0.14557837 0.18644886 0.16415936 0.13021974
-0.24032833 -0.0452347 -0.30261433 -0.15824535 -0.3341113 0.24441986 0.22038814 0.13091393
0.38329864 -0.13793826 -0.30287895 -0.00044182612 -0.35453528 -0.095805906 -0.23014398 -0.12580255
-0.20820938 0.33826682 0.35922077 -0.19203104 -0.564218 0.27237627 -0.3150103 0.37493104
0.26183432 -0.3553727 0.08317044 0.04760743 0.026097903 -0.15959477 -0.3230029 0.3766678
-0.22297777 -0.2012845 0.107669376 -0.2652234 0.055116523 0.02161214 -0.07860875 0.5760599
-0.101352364 -0.24544531 -0.04689809 -0.16408354 -0.16171582 -0.2992475 0.061791833 0.11978175
-0.123301916 -0.23509534 -0.1411712 -0.3701703 0.26894957 -0.39208877 0.28745818 0.013099091
0.10872228 -0.20903064 -0.14678764 -0.35736525 0.43325 -0.05504753 0.4599496 -0.3727177
0.052335605 0.05901391 0.32009572 0.16100442 0.2334412 -0.34781697 0.3114906 -0.3559248
-0.1574544 0.3103787 0.35436934 -0.14664412 0.36846986 -0.3166646 -0.10471243 -0.43818632
0.20440185 0.1422364 -0.23283757 0.064459085 0.29262877 0.08088972 0.4078214 -0.1994068
-0.26549983 -0.26800886 -0.38989055 0.3598355 -0.2932965 0.16134827 -0.27309832 -0.09516625
0.17731008 -0.13522612 -0.071806215 -0.41008362 -0.27950072 0.25899863 -0.0632242 0.3131282
0.24458092 0.0013037835 -0.17560878 -0.43559837 -0.054618523 0.029449137 0.08073227 0.013445468
-0.08195631 0.07236749 0.010324931 0.3540555 -0.29164058 0.31301248 0.29775062 0.30650297
0.14891542 0.3089234 0.001346368 -0.0643856 0.17129156 0.025197305 -0.1793352 -0.11606797
-0.11028443 -0.017505385 0.007053649 -0.05623034 -0.25520852 0.06999695 0.39802936 0.397645
-0.3357697 0.09182059 0.25755313 -0.10743297 -0.026209999 -0.12545864 -0.2546758 -0.29959568
0.14072263 -0.18120229 -0.4072644 0.12587683 0.23027192 -0.09113936 -0.09420782 -0.21368134
0.43493298 0.24632186 0.18642473 0.18238787 -0.224343 -0.16967586 0.4386029 -0.102099136
0.24570274 -0.20899282 0.26365253 0.16378303 0.33463094 -0.27519038 -0.2715751 0.23026592
0.30969203 1.7979837e-06 0.1906433 0.0777044 0.1596009 -0.31174088 -0.4015521 0.0061087715
0.088939935 -0.26825652 0.15063338 -0.1895879 -0.3229118 0.050948508 0.26083553 -0.4396975

sequential/conv2d/Conv2D f4 [6, 5, 5, 1]
00000000: 2553 d0be 6919 c2be a06b 84bd 0df1 bebd
00000010: d271 3b3e 73ed c8be 3a90 913c c89d 44bc
00000020: bba1 983e 4b83 ea3e d3a9 2bbe 98d2 97bd
00000030: e0e6 2c3e d662 fe3e d082 e83e f6eb 8c3a
00000040: a8f5 483b 1d54 963e d348 c73e 3320 993e
00000050: 0665 c2be e094 92bd 994d ec3d 8672 d43d
00000060: 353b 7e3d 781a abbe 2444 cbbe b5bc 8fbe
00000070: 2366 a5be 5020 cebe 06c7 47be 261e 64be
00000080: 762b 7ebe fea1 80bc ec89 29be 94db 98be
00000090: 3ecc b8bd 470a 8c3e a073 7b3e a76d 9d3d
000000a0: 3917 6cbd 21cd b23e 0ffc a83e 8f12 7c3e
000000b0: 9d69 ba3e b6dc 523e 41bd a03e 7955 d23e
000000c0: 6dac 983e 78a3 953e e4bd 3c3e c905 4f3e
000000d0: 7bb8 53bd 1b74 33be 875a cb3d 7abd 913e
000000e0: a2f3 f13c 55aa 4dbe 4639 bdbe d125 c3bd
000000f0: c61d 603e 1e8f 26be 7afe 83be 0cf7 91be
00000100: 56d9 aabe 6ff7 963e 7a71 153e 2bee f83c
00000110: 8ed8 89be b975 5abe 3c30 c93c 072b 7e3d
00000120: 3ad7 a33d 9a88 60be 5502 04be 17ef e1be
00000130: aec2 62be 4e37 89be 156a 0abe bae5 a8bd
00000140: 23a4 8abd d489 043e 2f76 923d b57b fd3b
00000150: d48e adbe 7635 373e 1651 ae3e d227 a63e
00000160: 9509 403e d03d 71be 4f79 6b3e b74b af3e
00000170: 2f69 bb3e bbf0 b53e 34c5 0cbe cd86 0a3c
00000180: 2b31 643e b17b cf3d 9abc 5a3e 7078 8ebe
00000190: 50aa 8fbe b9fb dabe f060 b5be e0d4 7fbe
000001a0: 3991 243e 9db0 e5be 381d c2be bda4 64be
000001b0: 9958 463c 5f8a 8c3e ddf2 a4bd 9833 acbe
000001c0: 9fa5 90bd ab2d b43d a420 983e 0ca0 a03c
000001d0: dc3d fabc badb 013e 30c0 043e c01c 9b3e
000001e0: 43db 82bd 9c68 333e e873 3b3e e290 503e
000001f0: 93a2 723e ad75 f63c 54f6 293d 0144 8cbe
00000200: b945 b3be 12a5 abbe bc45 9f3e dc9e d73d
00000210: 83b8 18be 2cd6 95be 47f6 5bbe b146 7e3e
00000220: c509 713e e609 0dbc b7e3 aabd bbef d9be
00000230: 914a 973e 2c6f ff3e 9050 ce3e 5847 48bd
00000240: bc92 18be 8c43 d13e 6c37 c83e 6766 993e
00000250: 678e 073e 7411 a8bd
-0.40688434 -0.3791001 -0.0646584 -0.093233205 0.18305138 -0.3924366 0.017768968 -0.012000509
0.2981089 0.45803294 -0.16764002 -0.074132144 0.16884947 0.4968478 0.45412302 0.0010751474
0.0030664 0.29361048 0.38922748 0.2990738 -0.379677 -0.07157302 0.11538238 0.10373406
0.062068183 -0.33418632 -0.39700425 -0.2807366 -0.32304487 -0.40259027 -0.19509515 -0.22277126
-0.24821267 -0.015702244 -0.1655652 -0.29855025 -0.09023331 0.2735159 0.24555826 0.0768693
-0.057639334 0.34922126 0.33004805 0.24616455 0.36408702 0.20592007 0.3139439 0.41080835
0.2981905 0.2922628 0.18431813 0.2021705 -0.051689606 -0.1752476 0.09929376 0.28464872
0.029535118 -0.20084508 -0.3695776 -0.09528697 0.21886358 -0.16265532 -0.25780088 -0.28508794
-0.3336894 0.29485652 0.14594069 0.030387005 -0.2692303 -0.2133397 0.024559133 0.062052753
0.080000356 -0.2192711 -0.12891515 -0.44127724 -0.22144577 -0.26800007 -0.1351703 -0.08246942
-0.06769588 0.12943202 0.07151448 0.0077356943 -0.33898032 0.17891487 0.3404624 0.32452255
0.18753655 -0.23558736 0.22995494 0.34237453 0.36603686 0.35535225 -0.13747102 0.008454991
0.22284381 0.10131014 0.21361008 -0.27826262 -0.28059626 -0.42770174 -0.3542552 -0.24983549
0.16071023 -0.44861308 -0.37912917 -0.22328468 0.012106084 0.2744932 -0.08054135 -0.33633113
-0.0706284 0.08797773 0.29712403 0.019607566 -0.030547075 0.12681475 0.12963939 0.30295372
-0.06389477 0.17520374 0.18305933 0.20367768 0.2369483 0.030085409 0.041494682 -0.27395633
-0.35014132 -0.33524376 0.3110789 0.10528347 -0.14914136 -0.29264963 -0.21480666 0.24831654
0.23538883 -0.008608317 -0.083442144 -0.42565712 0.29549077 0.49889505 0.4029584 -0.048896164
-0.14899725 0.40871847 0.39104784 0.2996094 0.13237916 -0.08206454

sequential/conv2d_1/Conv2D f4 [16, 5, 5, 6]
00000000: 5856 65be 39fe 3fbe b677 a53d 05ef 94bc
00000010: d00c 27be f5d7 f6bd 9abc d3bd 0a07 82be
00000020: 0de2 853e 5d12 52be 6be2 46be 18ff 07be
00000030: 0bf2 5abe d904 a9be e72c 503e f227 8ebe
00000040: 42e9 093c 6ee1 88be 46b4 a9bd ba47 24be
00000050: d528 3c3e 619d 08be 9b48 a03d 7dee 57be
00000060: e488 7a3d bc73 32be 778a a2bd 9ee6 d5bd
00000070: a584 863d bb4b 85be 8235 2abe 1424 343e
00000080: f27e c33d 9047 b53c 41e1 f63d 23f4 0b3e
00000090: df5e 51be 35ee 30bc ed15 ed3d df58 1fbe
000000a0: 3497 b33b af87 0f3e 81d2 7bbe 46aa 203d
000000b0: 0a3f 7e3e b46a 56bd bab1 5c3e 14fa bdb9
000000c0: 6bcb d2bd 5f53 70bc 24b0 843d 96aa c2bc
000000d0: 6535 6c3e ec2e 47be aac3 123d 42fb a73d
000000e0: 169e 863c 7211 d5bd 2846 003e c37f 32be
000000f0: 84ea 2c3d 4753 153e 3ce1 3ebe 7c0a 5f3d
00000100: b14f 95bd cffe 223e 14dd 16be 082e 453e
00000110: 012a 8c3c 326d 0f3e 9307 b43d 61c3 903e
00000120: 2f53 15be 930c 673e 6eb2 2d3e 782e ef3d
00000130: 76e3 e83d af79 9d3d 36eb f3bd 0d1d 143e
00000140: e17a 243e e68c 1bbd afb0 1a3e 1c61 3f3c
00000150: e9d2 443d 5181 d83d c337 99bd 004e 293c
00000160: e235 233e 3185 37be 18d6 063e 5ca6 0eba
00000170: 0279 87be 022e 503d c2d8 4bbe a62f c13d
00000180: 7ba0 8a3d 9713 0f3d a3c5 efbd 8d53 403e
00000190: b9b6 59bd 0e4a a83d b33f 1c3d 89f7 503c
000001a0: 7c2b 85bd acfd a63d c639 d0bd 162a 4d3d
000001b0: dfc2 ffbd ab6b 853c 7635 083e 3cf9 143e
000001c0: 1a80 42bd 31b2 1a3e f941 67bd a8b6 9f3d
000001d0: 829b 053e a75f a33d 0631 063d ed0c a9bc
000001e0: 514e b03d 0ffa e4ba 63fa 25be 140b 3f3d
000001f0: 176a 27be 8313 a23d 63fa 6a3d d293 7ebd
00000200: 2828 dbbd a0ad ccbd 0c86 03be c797 03bd
00000210: c777 af3c 750d b43d e8da ab3b e601 853d
00000220: 625b ffbd cb6f 013e 2237 54bd 1572 a9bc
00000230: 4f51 8bbd ff51 8e3d 5378 85bd f903 323e
00000240: d87d 603d e31e 52bd 1704 183c 30a5 1b3d
00000250: 0a83 13be ab45 d43d bfc4 5d3d be7b 7c3e
00000260: c968 4dbe a1a9 803c 2d6f 8b3d 5dcd f03c
00000270: 6877 583e af79 7c3e c920 65be 0e94 ab3d
00000280: b694 133d a2a3 0a3e c9e9 993d 1278 8c3e
00000290: a019 12be d73d 1b3e 5a10 053e 44b1 843e
000002a0: 733c 283e d2e1 a93e 8635 2abd aac7 153e
000002b0: 4124 d7bb 1ca3 4f3e e18d 433e c8c7 e93d
000002c0: 7848 80bd de69 783e 2fd2 9c3d a06f 603e
000002d0: e5de 2e3e ef6b 213e e208 4fbe cf26 183e
000002e0: e7c7 023e 2bb3 f53c 0a51 4f3e 0dfd 123e
000002f0: 87fa 80be 7f22 a23d 13aa 5abd 6c4f 403d
00000300: 9408 863e d173 163e 70f0 3cbe 2f27 d13d
00000310: 820b c43b f4b8 693e cb45 703e 2de2 1b3e
00000320: 95f3 a9bd 5daf 743e 1d12 43be a616 323e
00000330: 79aa 3e3c 95c9 a13d 69e7 f7bd 88bb 6c3e
00000340: ebd4 2ebe 746b 2a3e c4eb fa3d 7c2e 1bbe
00000350: db7e 1cbe cf05 843d 3856 00be 676a b2bc
00000360: 4bb7 0a3e 9a46 9bbc 3ca5 73bd eb92 183c
00000370: e8ad 77bc b21e 8abd 08d5 d33d dbf0 8f3c
00000380: 9222 b3bd 52cd 333d 1466 dfbd fff4 923d
00000390: 72bd 463e f352 eb3b bfbe 4bbd 221a 5b3e
000003a0: 1557 73be 1f50 3b3a 4aa8 e83d c54f dabc
000003b0: 1c24 f53b e4aa 603e bbe7 19be d872 2a3e
000003c0: 660b 1fbd 8f7a 97be 7aac 4a3d 2830 60be
000003d0: 2380 44be d7fd 25be a8f9 23be 7daf 88be
000003e0: 5a5f 883d 29af 58be 977c ccbd e803 5ebe
000003f0: de64 cf3b 035c a4be efe5 d73b f67c d7bd
-0.22396219 -0.18749322 0.08079474 -0.01818038 -0.16313481 -0.12052909 -0.10338707 -0.25395995
0.26149026 -0.20514818 -0.19422309 -0.13280904 -0.21381395 -0.3301151 0.20329629 -0.2776485
0.008417429 -0.2673449 -0.082863376 -0.16042987 0.18374951 -0.13341285 0.078263484 -0.2108707
0.061165705 -0.17426962 -0.07936566 -0.10444377 0.06568269 -0.2603434 -0.16621974 0.17591888
0.09545697 0.02212885 0.120546825 0.1366735 -0.20446347 -0.0107989805 0.11576448 -0.15561245
0.0054806713 0.14016603 -0.2459202 0.039224885 0.24828735 -0.052347854 0.21552172 -0.00036235212
-0.10292705 -0.014668315 0.06478909 -0.023762982 0.23067243 -0.19451493 0.03583113 0.082022205
0.016432803 -0.10403718 0.12526762 -0.1743155 0.04221584 0.14582549 -0.18640608 0.054453358
-0.072905906 0.15917514 -0.14732772 0.19255841 0.017109873 0.14006498 0.08790507 0.28274062
-0.14582513 0.2256339 0.16962597 0.11678785 0.1137151 0.07689225 -0.11910097 0.14464207
0.160625 -0.037976168 0.15106462 0.0116808675 0.048052702 0.1057154 -0.07481339 0.010333538
0.15938523 -0.17921902 0.13167608 -0.00054416596 -0.2645951 0.050825126 -0.19906905 0.09432916
0.067688905 0.03493079 -0.11707618 0.18781872 -0.053152774 0.0821725 0.038146686 0.0127543295
-0.065024346 0.08153853 -0.101672694 0.050088964 -0.124883406 0.016286692 0.13301644 0.145482
-0.04748545 0.15107037 -0.0564594 0.07798511 0.13047603 0.079772286 0.032761596 -0.020636046
0.08608688 -0.0017469543 -0.16208796 0.046641424 -0.16349064 0.07913878 0.057367694 -0.06215269
-0.107010186 -0.09994054 -0.12844104 -0.032127168 0.021419419 0.08791629 0.0052446015 0.06494503
-0.12468602 0.12640302 -0.05181039 -0.020684281 -0.06802618 0.06949233 -0.06517091 0.17384328
0.054807514 -0.051298987 0.009278319 0.037999332 -0.14405456 0.103648506 0.05414271 0.24656579
-0.20059504 0.015705885 0.068083145 0.0293948 0.211393 0.24655794 -0.22375788 0.083778486
0.036030494 0.13538983 0.07515294 0.27435356 -0.14267588 0.15160309 0.12994519 0.25916493
0.1642931 0.331801 -0.04155495 0.14626947 -0.006565601 0.20277065 0.19097091 0.114150584
-0.06263822 0.24259135 0.07657277 0.21917582 0.17077215 0.1576383 -0.20218232 0.14858554
0.12771569 0.02999266 0.20245758 0.14354344 -0.25191137 0.07916736 -0.05338485 0.046950743
0.2617842 0.14692618 -0.18451095 0.10212552 0.005982817 0.2282446 0.23464124 0.15222998
-0.08298413 0.23895021 -0.19049878 0.17391452 0.011637324 0.07899777 -0.12104685 0.23118412
-0.1707341 0.16642553 0.12252 -0.15154451 -0.15282767 0.064464204 -0.1253289 -0.021779252
0.13546483 -0.018954564 -0.05948375 0.009312372 -0.015117146 -0.06744136 0.10343367 0.017570904
-0.08746828 0.04389698 -0.10908142 0.071756355 0.19408205 0.007181519 -0.049742457 0.21396688
-0.23763688 0.0007145423 0.113602236 -0.026649365 0.007481111 0.2194019 -0.15029804 0.16645372
-0.03882923 -0.29585692 0.049480893 -0.2189337 -0.19189505 -0.16210113 -0.16013205 -0.26696387
0.06658812 -0.21160568 -0.09984701 -0.21681178 0.006329163 -0.3210145 0.0065886895 -0.10521881

sequential/conv2d_2/Conv2D f4 [120, 4, 4, 16]
00000000: fbbd f3bb ae48 9dbc 5e0c 923c 4ba7 c4bc
00000010: 2bb0 3bbc 0ec5 60bc ab81 0d3c c946 35bd
00000020: e937 44bd f791 303d 82b8 823d 3c4b 1fbb
00000030: 1a03 91bc 0c57 453d 8e90 17bd c59a 3b3c
00000040: 5b21 383b d683 a7bd 47d7 9d3d a8ff 833c
00000050: bb3d d0bc 2e84 1fbd a904 723c e652 f2bc
00000060: 663d 8fbc 921a f43c 38ee ff3c 0191 56bd
00000070: 7b78 c4bc ae51 34bd d8ae 9e3c aa50 923d
00000080: 134a 823d 747b 1bbd a2e1 893d dfad 48bd
00000090: 5ec1 7bbd ef27 2dbc dc24 09bc 0af0 2e3c
000000a0: 4945 10bc 8712 343c 46b2 b0b9 aa91 4fbc
000000b0: c193 d4bc a9d1 e1bc 801a 273d 8327 15bd
000000c0: 3a9e 873b ae28 96bd b8a3 0e3b 21d0 193d
000000d0: b815 e23c 136d 4bbd 3135 653c 7880 cc3c
000000e0: 21c1 a23c 2dc0 383d ed6a 833d e73b 733c
000000f0: 2c30 26bd 16a0 023b dcc7 dd3b 7c3d 17bd
00000100: f8c4 203d 58b4 7e3c 5603 643d 42ce 08bd
00000110: 237e 1abc 66c6 46bd a23a 79bc 16e4 413c
00000120: 7c12 4bbc 0eb2 78bd 0c57 bebc d673 ae3c
00000130: 213b 533c 1d0d 013c 866e 60bc 38fc 3c3d
00000140: 7f91 d8bc ac8c cc3c 3956 363d 8951 823d
00000150: c74b 493c 48da 53bd 70a2 ae3c bf87 81bc
00000160: 909d 47bd 571d 863d 7996 353c b038 99ba
00000170: 2a8d 2abd a62c b1bb b187 813b 2f63 e0bc
00000180: 16e9 bc3b c692 99bc 2998 8a3c 9b63 55ba
00000190: 2687 753c f8de 353c fc57 b6bc 79e0 81bd
000001a0: 4392 313d 2226 c9bc 2224 d6bb 965d 253c
000001b0: a83b 2b3d 7074 7c3d 17c7 1d39 cc03 91bc
000001c0: 3544 573d 258f 7fbd 85a3 653d 6711 b9bc
000001d0: 959a 42bd 37b7 fbbc 2bd4 3e3c 8bcb 60bd
000001e0: 3661 34bd 172f 40bd daca 1d3d 7d4f 8b3c
000001f0: 3b50 2c3d 3c01 cb3c 33ec 543c d5b4 a7bb
00000200: 6e92 5abd e7a2 633d c792 39bd 99e5 273b
00000210: f681 9c3c 8a75 e73c 646d 08bd 6742 513d
00000220: 8cbf 1fbd fce2 5e3d 367f 3dbb e60b e1bb
00000230: f148 883c 8cf7 443c e7eb b93b c4bb 6abd
00000240: 9281 533d 4f15 3fba 4b71 7cbd 20f8 413d
00000250: 4cc0 c9bb 884f 043c 7234 163d e3fe 99bd
00000260: ab14 673d 90fd 993d 8233 123d d3a3 6b3c
00000270: 34df a1bd adab 1bbd a17a 00bc 94ca 1c3c
00000280: 3049 c6bc 731b 003d f6fb 22bd a41d 44bd
00000290: 0876 2e3d cfc9 18bd af42 223d 3a71 d83d
000002a0: dd39 953c adbf 91bd 3ca6 b3bb 6c57 cc3c
000002b0: 3e06 d33c fabf ddba 5152 19bd c1f5 57bd
000002c0: 32c2 b4bb ea84 723d 99e8 b9bc 41d4 4c3d
000002d0: a157 23bd ed2a 4bbc 3daf 61bc c855 0dbc
000002e0: 98a9 0c3c b2bc b5ba 3560 683d 5550 d8bc
000002f0: 1b3d d3bc 7183 29bd 36a8 4abd af1c 87bc
00000300: de51 163d 3406 24bd 8b31 eebc 47ae 813d
00000310: 1907 903c 1fa2 1fbb 6bad 7d3d 845a 65bd
00000320: 8abe f13c 3cb3 9d3d b6b2 0b3d c783 e0bc
00000330: f3fb c63c 84ff 363d c03e debc 70d2 1c3d
00000340: ec48 38bd 7c53 76bd ef7f 873d f999 6fbc
00000350: ed59 bf3c 7cbb 87bc 6b81 073d 973c 11bc
00000360: 188b 5a3d c70c 3c3c a385 9a3d 9cd5 9ebd
00000370: 327d e13c 7c70 983d 1ed3 b13c 275d 793d
00000380: 00f4 c3bc 913f 2dbd 1813 dcb9 e508 943d
00000390: af13 ff3c dadf 0bbd 5c9b 863a 3b47 4c3d
000003a0: bd50 25bd 862d d73b eb1a 04bc 9c81 a4bd
000003b0: adcf 7d3c 0fe8 783d 2b9d 5fbd 4ad7 3cbc
000003c0: 9905 403b 1807 3cbd a2f2 3ebd bd7d d8bb
000003d0: 4f87 13bd 0613 bbbc 245a 283d bbf7 0bbc
000003e0: fff1 103d 756d 4ebc ba2a e63c 294e 403c
000003f0: 9c0c 47bc 84c6 e7bc de15 993b 6697 fb3c
-0.007438419 -0.019199695 0.017828163 -0.024005553 -0.011455576 -0.0137188565 0.008636872 -0.04425696
-0.047904883 0.043107953 0.06382848 -0.0024306318 -0.017701674 0.048178717 -0.037003092 0.011450474
0.0028096053 -0.081794426 0.077070765 0.016113117 -0.02542006 -0.038944416 0.014771619 -0.029580545
-0.017485332 0.029797826 0.031241521 -0.05238438 -0.02398323 -0.04402321 0.019370481 0.07144292
0.06361785 -0.03795953 0.06732489 -0.04899394 -0.061463706 -0.010568603 -0.008370604 0.010677347
-0.008805581 0.010990745 -0.0003370216 -0.012669006 -0.02594936 -0.027565794 0.040796757 -0.036414634
0.004138735 -0.07331978 0.0021765064 0.037552003 0.027598247 -0.04966457 0.013989733 0.024963602
0.019867482 0.045105148 0.06416879 0.014845825 -0.040573284 0.0019931844 0.00676821 -0.03692387
0.039250344 0.015545927 0.055667244 -0.033399828 -0.009429487 -0.04852905 -0.015211733 0.011834165
-0.012394544 -0.06071668 -0.023234867 0.02129547 0.012892515 0.007876662 -0.013698226 0.046138972
-0.026436565 0.024969421 0.044515822 0.06363208 0.012286133 -0.05172184 0.02131769 -0.0158118
-0.048734248 0.06548565 0.011083239 -0.0011689868 -0.04163853 -0.005406934 0.0039529433 -0.027391044
0.0057650907 -0.018746745 0.016918259 -0.00081401475 0.014985835 0.011100523 -0.022258751 -0.06341643
0.043352377 -0.024554316 -0.006535069 0.010093113 0.04180494 0.06163448 0.00015046854 -0.017702006
0.05255528 -0.062392373 0.056064148 -0.022591306 -0.047510702 -0.030727012 0.0116472645 -0.054881614
-0.04403802 -0.04691991 0.038523532 0.017005676 0.0420687 0.024780862 0.012995767 -0.0051179924
-0.053362302 0.055575278 -0.045305993 0.0025619029 0.019104939 0.02825429 -0.033307448 0.051088717
-0.039001033 0.054415688 -0.0028914935 -0.0068678735 0.016636344 0.01202191 0.0056738737 -0.057307974
0.05163724 -0.0007289247 -0.061631482 0.04735577 -0.006156957 0.008075602 0.03667111 -0.07519319
0.056416195 0.07519066 0.035693653 0.01438232 -0.07903901 -0.03800552 -0.007841737 0.009569783
-0.02420482 0.031276178 -0.03979107 -0.04787983 0.042593032 -0.037301835 0.039614376 0.10568471
0.018216068 -0.071166374 -0.005482463 0.02494403 0.025759812 -0.0016918175 -0.03743202 -0.052724604
-0.005516314 0.059208788 -0.022693919 0.05000711 -0.03987849 -0.012400371 -0.01377469 -0.008626409
0.008585356 -0.001386544 0.056732375 -0.026405493 -0.025785973 -0.041385118 -0.049476825 -0.01649317
0.03669917 -0.04004498 -0.029076358 0.06332069 0.01758151 -0.0024358106 0.061932962 -0.055994526
0.029509801 0.07700202 0.03410598 -0.027406586 0.02429006 0.044677272 -0.02712953 0.038286626
-0.04499142 -0.06013821 0.06616198 -0.014624112 0.02335831 -0.016568892 0.033082407 -0.008864543
0.053355306 0.011477656 0.075450204 -0.077555865 0.027525518 0.0744333 0.021707114 0.060879853
-0.02392006 -0.04229695 -0.00041975896 0.07228259 0.031137316 -0.03414903 0.0010269689 0.04987262
-0.0403602 0.006566706 -0.008063058 -0.080325335 0.015491408 0.060768183 -0.054593246 -0.011525938
0.0029300211 -0.045905203 -0.04661811 -0.006606786 -0.036017712 -0.02283622 0.04110159 -0.00854295
0.035387035 -0.012599339 0.028096545 0.011737385 -0.012149002 -0.028292902 0.004671796 0.03071184

sequential/conv2d/BiasAdd;sequential/conv2d/Conv2D;conv2d/bias f4 [6]
00000000: 68bd c6be 93f6 d8be f2b4 a83e 0e72 cebe
00000010: af99 ab3e 942c b2be
-0.3881638 -0.4237562 0.3295055 -0.40321392 0.3351569 -0.34799635

sequential/conv2d_1/BiasAdd;sequential/conv2d_1/Conv2D;conv2d_1/bias f4 [16]
00000000: 6b76 91bc 193e 3f3c b30c e1bc 352f 043c
00000010: 0ad8 83b9 e679 fbbb a76a f23b cfca a63c
00000020: 306a 8d3c dfcc 043d 5976 903c d271 5bbc
00000030: 58c4 86bc 089e 793b 27d3 b6bc 524c c03c
-0.017756661 0.01167252 -0.027471876 0.008067896 -0.0002514723 -0.0076744435 0.007397968 0.020360379
0.017262548 0.032421943 0.017634558 -0.013393836 -0.016451046 0.0038088579 -0.022317482 0.023473892

sequential/conv2d_2/BiasAdd;sequential/conv2d_2/Conv2D;conv2d_2/bias f4 [120]
00000000: 2d68 abba 12d6 703b 3ccd f2ba 6fcf 78bb
00000010: 964d d83a 5ac3 f9ba 1d5d acba b0e8 a63a
00000020: bbdb 65b7 9edb c5bb d94f f83a c165 b13a
00000030: 2e2d 3f3b 82e4 8d3a 94a9 f338 61c5 963b
00000040: 6d47 49ba 2078 32bb d4e1 1cb9 baea 323b
00000050: 4518 28bb 9e11 bbb9 e031 08ba 4bc7 0eba
00000060: ac25 983b a963 853b 6c10 6639 e33e e5b9
00000070: 762e dbba 2395 503b c6f3 1a39 fbd1 ae3a
00000080: 7b3a 25bb dbeb d439 c18a 0cbb cea5 f73b
00000090: f91e 1a3b ebbb 5ebb 8123 023b 1483 833a
000000a0: 62d6 d93a c458 ca3a 5a06 fabb 5617 b139
000000b0: fd23 85ba 5580 3cb8 131f 5b3b 4e68 993b
000000c0: 8f9e bdba 37d0 03bb 20d2 a73b c01b 693a
000000d0: 3d15 393b a0d2 5238 7a77 493b ead9 bfbb
000000e0: 373b e4ba b07f c13b bce0 d339 154a 83ba
000000f0: 25c4 cb3a 4c7d 263a 1e04 533b 0fc1 9e3a
00000100: c95a 663a 9163 843a 647c 0cb9 98c3 4d3a
00000110: 1c0f be39 ed7d 3d3b e887 2e3b 2b8f 783a
00000120: a7fa fd38 fa37 a9ba be9c ec3a 1921 743a
00000130: 0e7a 133b 9166 083b 4f52 88bb cc64 dd3a
00000140: 4c98 733b ffc9 943b 658b 22ba b519 b93a
00000150: 96ec 0838 0bda a7ba 7fb2 f33a bef3 873a
00000160: 068f c03b e1d9 7639 cd80 11ba 16ea fa3a
00000170: 2d94 3fbb 7e94 993a 8004 80ba 1b71 a63b
00000180: 722e 6bba d089 edba 19bb d53a 160c 9c38
00000190: 0994 2b3a 227d 02b9 4c5f 14bb 7cdc 1e3b
000001a0: 595a f13a b04d f0ba aeb1 3d3b 66b5 c9bb
000001b0: 63a6 00bb a0e0 313b 46ee 9dba 0656 18bb
000001c0: b00c cc3a 3790 83b9 fa67 8b3b bc04 47ba
000001d0: f765 833b 1670 443a 5b16 a5ba 1ee3 d23a
-0.0013077311 0.003674869 -0.0018524299 -0.0037965437 0.0016502615 -0.0019055412 -0.0013150309 0.0012734141
-1.3700624e-05 -0.0060381433 0.0018944695 0.0013534353 0.0029171216 0.0010825547 0.00011618729 0.004601166
-0.0007678185 -0.0027232245 -0.00014961447 0.0027300552 -0.0025649231 -0.00035680545 -0.000519542 -0.0005446567
0.0046431627 0.0040707183 0.00021940627 -0.00043725138 -0.001672222 0.0031827174 0.00014777397 0.0013337726
-0.002521186 0.00040611517 -0.0021445008 0.0075576073 0.0023516996 -0.003398652 0.0019857588 0.0010033571
0.0016619677 0.0015437831 -0.0076301517 0.00033777457 -0.001015782 -4.494221e-05 0.003343527 0.0046816235
-0.001446681 -0.002011312 0.0051214844 0.00088923797 0.0028241419 5.026406e-05 0.003074138 -0.005854835
-0.0017412667 0.005905114 0.00040412496 -0.0010016585 0.0015546127 0.0006351068 0.00321985 0.0012111979
0.0008787332 0.0010100474 -0.0001339778 0.0007849275 0.0003625088 0.002891417 0.00266313 0.0009481783
0.00012110668 -0.0012910359 0.0018052084 0.0009312793 0.002250317 0.0020813087 -0.0041602026 0.0016891002
0.0037169633 0.0045406814 -0.0006200581 0.0014122041 3.2645265e-05 -0.0012806071 0.0018592625 0.0010372323
0.0058764247 0.00023541554 -0.0005550504 0.0019143249 -0.0029232607 0.0011717228 -0.0009766966 0.005079401
-0.00089714595 -0.0018122736 0.001630637 7.440911e-05 0.0006545191 -0.00012444382 -0.002263981 0.0024240306
0.0018413767 -0.00183337 0.0028945017 -0.0061556576 -0.0019630424 0.0027141944 -0.001204916 -0.0023244633
0.0015567746 -0.00025093716 0.0042543383 -0.0007591953 0.004009958 0.0007493509 -0.0012595163 0.0016089415
