tmp_out/model_quantized_int8_io.tflite (tflite, 53080 bytes, 5 tensors)

sequential/conv2d/Conv2D i1 [6, 5, 5, 1]
000000 98 9f ef e8 2f 9c 05 fd 4c 75 d5 ed 2b 7f 74 00
       -104 -97 -17 -24 47 -100 5 -3 76 117 -43 -19 43 127 116 0
000010 01 4b 63 4c 9f ee 1d 1b 10 99 85 a9 9c 84 c4 bb
       1 75 99 76 -97 -18 29 27 16 -103 -123 -87 -100 -124 -60 -69
000020 b3 fb cd a4 e4 55 4c 18 ee 6c 66 4c 71 40 61 7f
       -77 -5 -51 -92 -28 85 76 24 -18 108 102 76 113 64 97 127
000030 5c 5a 3f 45 ee c4 22 62 0a bb 81 df 4b c8 a7 9e
       92 90 63 69 -18 -60 34 98 10 -69 -127 -33 75 -56 -89 -98
000040 8d 65 32 0a a3 b7 08 15 1b b5 d4 81 c0 b3 d9 e8
       -115 101 50 10 -93 -73 8 21 27 -75 -44 -127 -64 -77 -39 -24
000050 ed 25 15 02 9e 33 62 5d 36 bc 42 63 69 66 d8 02
       -19 37 21 2 -98 51 98 93 54 -68 66 99 105 102 -40 2
000060 40 1d 3d b0 b1 87 9c b9 2d 81 95 c1 03 4e e9 a1
       64 29 61 -80 -79 -121 -100 -71 45 -127 -107 -63 3 78 -23 -95
000070 ec 19 54 06 f7 24 25 56 ee 32 34 3a 43 08 0b ba
       -20 25 84 6 -9 36 37 86 -18 50 52 58 67 8 11 -70
000080 a7 ab 4f 1b da b6 c9 3f 3c fe eb 94 4b 7f 67 f4
       -89 -85 79 27 -38 -74 -55 63 60 -2 -21 -108 75 127 103 -12
000090 da 68 64 4c 22 eb
       -38 104 100 76 34 -21

sequential/conv2d_1/Conv2D i1 [16, 5, 5, 6]
000000 aa b8 1f f9 c1 d2 d8 9e 65 b1 b5 cd ae 81 4e 95
       -86 -72 31 -7 -63 -46 -40 -98 101 -79 -75 -51 -82 -127 78 -107
000010 03 99 e0 c2 47 cd 1e af 18 bd e1 d8 19 9c c0 44
       3 -103 -32 -62 71 -51 30 -81 24 -67 -31 -40 25 -100 -64 68
000020 25 09 2e 35 b1 fc 2d c4 02 36 a1 0f 60 ec 53 00
       37 9 46 53 -79 -4 45 -60 2 54 -95 15 96 -20 83 0
000030 d8 fa 19 f7 59 b5 0e 20 06 d8 30 bd 10 38 b8 15
       -40 -6 25 -9 89 -75 14 32 6 -40 48 -67 16 56 -72 21
000040 e4 3d c7 4a 07 36 22 6d c8 57 41 2d 2c 1e d2 38
       -28 61 -57 74 7 54 34 109 -56 87 65 45 44 30 -46 56
000050 3e f1 3a 04 12 29 e3 04 3d bb 33 00 9a 14 b3 24
       62 -15 58 4 18 41 -29 4 61 -69 51 0 -102 20 -77 36
000060 1a 0d d3 48 ec 20 0f 05 e7 1f d9 13 d0 06 33 38
       26 13 -45 72 -20 32 15 5 -25 31 -39 19 -48 6 51 56
000070 ee 3a ea 1e 32 1f 0d f8 21 ff c2 12 c1 1e 16 e8
       -18 58 -22 30 50 31 13 -8 33 -1 -62 18 -63 30 22 -24
000080 d7 da cf f4 08 22 02 19 d0 31 ec f8 e6 1b e7 43
       -41 -38 -49 -12 8 34 2 25 -48 49 -20 -8 -26 27 -25 67
000090 15 ec 04 0f c9 28 13 58 b8 06 18 0b 4c 58 b0 1e
       21 -20 4 15 -55 40 19 88 -72 6 24 11 76 88 -80 30
0000a0 0d 30 1b 62 cd 36 2f 5d 3b 77 f1 34 fe 49 44 29
       13 48 27 98 -51 54 47 93 59 119 -15 52 -2 73 68 41
0000b0 ea 57 1b 4e 3d 38 b8 35 2e 0b 48 33 a6 1c ed 11
       -22 87 27 78 61 56 -72 53 46 11 72 51 -90 28 -19 17
0000c0 5e 35 be 25 02 52 54 36 e2 56 bc 3e 04 1c d5 53
       94 53 -66 37 2 82 84 54 -30 86 -68 62 4 28 -43 83
0000d0 c3 3c 2c ca c9 17 d3 f8 30 f9 eb 03 fb e8 25 06
       -61 60 44 -54 -55 23 -45 -8 48 -7 -21 3 -5 -24 37 6
0000e0 e1 10 d9 1a 45 03 ee 4d ab 00 29 f6 03 4f ca 3c
       -31 16 -39 26 69 3 -18 77 -85 0 41 -10 3 79 -54 60
0000f0 f2 96 12 b2 bb c6 c7 a0 18 b4 dc b2 02 8d 02 da
       -14 -106 18 -78 -69 -58 -57 -96 24 -76 -36 -78 2 -115 2 -38

sequential/conv2d_2/Conv2D i1 [120, 4, 4, 16]
000000 f7 e9 15 e3 f2 f0 0a cb c6 34 4d fd eb 3a d4 0e
       -9 -23 21 -29 -14 -16 10 -53 -58 52 77 -3 -21 58 -44 14
000010 03 9e 5d 13 e1 d1 12 dc eb 24 26 c1 e3 cb 17 56
       3 -98 93 19 -31 -47 18 -36 -21 36 38 -63 -29 -53 23 86
000020 4c d2 51 c5 b6 f3 f6 0d f5 0d 00 f1 e1 df 31 d4
       76 -46 81 -59 -74 -13 -10 13 -11 13 0 -15 -31 -33 49 -44
000030 05 a8 03 2d 21 c4 11 1e 18 36 4d 12 cf 02 08 d4
       5 -88 3 45 33 -60 17 30 24 54 77 18 -49 2 8 -44
000040 2f 13 43 d8 f5 c6 ee 0e f1 b7 e4 1a 0f 09 f0 37
       47 19 67 -40 -11 -58 -18 14 -15 -73 -28 26 15 9 -16 55
000050 e0 1e 35 4c 0f c2 1a ed c5 4f 0d ff ce fa 05 df
       -32 30 53 76 15 -62 26 -19 -59 79 13 -1 -50 -6 5 -33
000060 07 e9 14 ff 12 0d e5 b4 34 e2 f8 0c 32 4a 00 eb
       7 -23 20 -1 18 13 -27 -76 52 -30 -8 12 50 74 0 -21
000070 3f b5 43 e5 c7 db 0e be cb c8 2e 14 33 1e 10 fa
       63 -75 67 -27 -57 -37 14 -66 -53 -56 46 20 51 30 16 -6
000080 c0 43 ca 03 17 22 d8 3d d1 41 fd f8 14 0e 07 bb
       -64 67 -54 3 23 34 -40 61 -47 65 -3 -8 20 14 7 -69
000090 3e ff b6 39 f9 0a 2c a6 44 5a 2b 11 a1 d2 f7 0b
       62 -1 -74 57 -7 10 44 -90 68 90 43 17 -95 -46 -9 11
0000a0 e3 26 d0 c6 33 d3 30 7f 16 aa f9 1e 1f fe d3 c1
       -29 38 -48 -58 51 -45 48 127 22 -86 -7 30 31 -2 -45 -63
0000b0 f9 47 e5 3c d0 f1 ef f6 0a fe 44 e0 e1 ce c5 ec
       -7 71 -27 60 -48 -15 -17 -10 10 -2 68 -32 -31 -50 -59 -20
0000c0 2c d0 dd 4c 15 fd 4a bd 23 5d 29 df 1d 36 df 2e
       44 -48 -35 76 21 -3 74 -67 35 93 41 -33 29 54 -33 46
0000d0 ca b8 50 ee 1c ec 28 f5 40 0e 5b a3 21 59 1a 49
       -54 -72 80 -18 28 -20 40 -11 64 14 91 -93 33 89 26 73
0000e0 e3 cd ff 57 25 d7 01 3c cf 08 f6 9f 13 49 be f2
       -29 -51 -1 87 37 -41 1 60 -49 8 -10 -97 19 73 -66 -14
0000f0 04 c9 c8 f8 d5 e5 31 f6 2b f1 22 0e f1 de 06 25
       4 -55 -56 -8 -43 -27 49 -10 43 -15 34 14 -15 -34 6 37

sequential/dense/MatMul i1 [84, 120] scale=0.0040522157 zero_point=0
000000 0a e2 c8 d5 ee c6 10 f0 e6 de 42 ee de f9 32 3e
       0.04052216 -0.121566474 -0.22692408 -0.17424528 -0.07293988 -0.2350285 0.06483545 -0.06483545 -0.10535761 -0.13777533 0.26744625 -0.07293988 -0.13777533 -0.02836551 0.20261079 0.25123736
000010 ba fa 2f 1a eb 18 17 b9 eb 27 13 14 e0 0a ef e7
       -0.2836551 -0.024313293 0.19045414 0.10535761 -0.08509653 0.09725317 0.09320096 -0.28770733 -0.08509653 0.15803641 0.0769921 0.08104432 -0.1296709 0.04052216 -0.068887666 -0.101305395
000020 12 21 e6 0d 02 e4 1a 1f f0 11 fb fd c8 15 e0 d7
       0.07293988 0.13372312 -0.10535761 0.052678805 0.008104431 -0.11346204 0.10535761 0.12561868 -0.06483545 0.068887666 -0.02026108 -0.012156647 -0.22692408 0.08509653 -0.1296709 -0.16614084
000030 d9 f5 41 f2 27 09 0b e1 e1 15 ea 03 aa 0f 16 fa
       -0.15803641 -0.044574372 0.26339403 -0.05673102 0.15803641 0.03646994 0.044574372 -0.12561868 -0.12561868 0.08509653 -0.089148745 0.012156647 -0.34849057 0.060783237 0.089148745 -0.024313293
000040 10 2d 02 fa f6 40 0a 44 1e e7 ea 19 d9 0f cc 2d
       0.06483545 0.18234971 0.008104431 -0.024313293 -0.04052216 0.2593418 0.04052216 0.27555066 0.121566474 -0.101305395 -0.089148745 0.101305395 -0.15803641 0.060783237 -0.21071522 0.18234971
000050 35 20 cd db 43 e0 1f 2c e9 02 df 16 f7 f2 05 e7
       0.21476743 0.1296709 -0.206663 -0.14993198 0.27149844 -0.1296709 0.12561868 0.17829749 -0.09320096 0.008104431 -0.13372312 0.089148745 -0.03646994 -0.05673102 0.02026108 -0.101305395
000060 2e 14 f7 0a 49 c7 18 04 0e ed 07 e6 03 01 e8 28
       0.18640192 0.08104432 -0.03646994 0.04052216 0.29581174 -0.2309763 0.09725317 0.016208863 0.05673102 -0.0769921 0.02836551 -0.10535761 0.012156647 0.0040522157 -0.09725317 0.16208863
000070 1f ef e3 f4 2a fa 0a 4d df f0 23 22 3e f4 2f 0b
       0.12561868 -0.068887666 -0.11751425 -0.048626587 0.17019306 -0.024313293 0.04052216 0.3120206 -0.13372312 -0.06483545 0.14182755 0.13777533 0.25123736 -0.048626587 0.19045414 0.044574372
000080 24 1b b7 38 c9 c3 1e dc d4 e9 02 df 19 0e d3 09
       0.14587976 0.109409824 -0.29581174 0.22692408 -0.22287187 -0.24718516 0.121566474 -0.14587976 -0.17829749 -0.09320096 0.008104431 -0.13372312 0.101305395 0.05673102 -0.18234971 0.03646994
000090 e3 b9 1b ee f9 bf 18 47 0a af 14 16 24 e9 e3 db
       -0.11751425 -0.28770733 0.109409824 -0.07293988 -0.02836551 -0.26339403 0.09725317 0.28770733 0.04052216 -0.3282295 0.08104432 0.089148745 0.14587976 -0.09320096 -0.11751425 -0.14993198
0000a0 55 32 dc f2 a6 f1 f3 2c f8 fc ca 2f fc 03 25 30
       0.34443834 0.20261079 -0.14587976 -0.05673102 -0.36469942 -0.060783237 -0.052678805 0.17829749 -0.032417726 -0.016208863 -0.21881965 0.19045414 -0.016208863 0.012156647 0.14993198 0.19450635
0000b0 4d 00 e2 ae c5 28 d2 ff e5 e6 3b 06 32 d4 dd 04
       0.3120206 0.0 -0.121566474 -0.33228168 -0.23908073 0.16208863 -0.18640192 -0.0040522157 -0.109409824 -0.10535761 0.23908073 0.024313293 0.20261079 -0.17829749 -0.14182755 0.016208863
0000c0 26 ac 1b 37 e7 e3 f0 34 23 2c d0 d2 ff 07 cf 02
       0.1539842 -0.34038612 0.109409824 0.22287187 -0.101305395 -0.11751425 -0.06483545 0.21071522 0.14182755 0.17829749 -0.19450635 -0.18640192 -0.0040522157 0.02836551 -0.19855857 0.008104431
0000d0 dc bd d9 e3 c6 1e 1f 1c 1b d8 d8 31 e7 cb ff 32
       -0.14587976 -0.27149844 -0.15803641 -0.11751425 -0.2350285 0.121566474 0.12561868 0.11346204 0.109409824 -0.16208863 -0.16208863 0.19855857 -0.101305395 -0.21476743 -0.0040522157 0.20261079
0000e0 ee dd d1 09 cc 14 fe ff 20 0e f1 19 fb ee ce dd
       -0.07293988 -0.14182755 -0.19045414 0.03646994 -0.21071522 0.08104432 -0.008104431 -0.0040522157 0.1296709 0.05673102 -0.060783237 0.101305395 -0.02026108 -0.07293988 -0.20261079 -0.14182755
0000f0 d7 13 20 1a 19 21 f7 ff 09 14 d7 e1 10 3e db f1
       -0.16614084 0.0769921 0.1296709 0.10535761 0.101305395 0.13372312 -0.03646994 -0.0040522157 0.03646994 0.08104432 -0.16614084 -0.12561868 0.06483545 0.25123736 -0.14993198 -0.060783237

sequential/dense_1/MatMul i1 [10, 84] scale=0.0045359046 zero_point=0
000000 b3 59 d1 29 e7 fb 4f 2d 25 47 3c a8 bc 10 c8 fc
       -0.34926465 0.40369552 -0.21318752 0.1859721 -0.11339761 -0.022679523 0.35833648 0.2041157 0.16782847 0.32204923 0.27215427 -0.3991596 -0.30844152 0.072574474 -0.25401065 -0.018143618
000010 63 1b d3 a5 58 49 cf 66 c0 53 c9 f2 97 29 49 19
       0.44905457 0.122469425 -0.2041157 -0.41276732 0.3991596 0.33112103 -0.22225933 0.46266228 -0.2902979 0.37648007 -0.24947475 -0.06350266 -0.47627 0.1859721 0.33112103 0.11339761
000020 f2 56 c4 41 ff 33 30 59 c8 e4 d9 bd 9e 5c 96 c6
       -0.06350266 0.39008778 -0.27215427 0.2948338 -0.0045359046 0.23133114 0.21772343 0.40369552 -0.25401065 -0.12700532 -0.17690028 -0.3039056 -0.44451866 0.41730323 -0.4808059 -0.26308247
000030 d9 51 e8 db 10 c8 bd 26 46 ce cf fe 38 46 43 0d
       -0.17690028 0.36740828 -0.108861715 -0.16782847 0.072574474 -0.25401065 -0.3039056 0.17236437 0.31751332 -0.22679523 -0.22225933 -0.009071809 0.25401065 0.31751332 0.3039056 0.05896676
000040 bb d6 c0 3c 20 29 24 1d cb f6 bd dd b6 36 31 1d
       -0.31297743 -0.190508 -0.2902979 0.27215427 0.14514895 0.1859721 0.16329257 0.13154124 -0.24040295 -0.045359045 -0.3039056 -0.15875666 -0.33565694 0.24493885 0.22225933 0.13154124
000050 55 e2 bd 00 b2 eb cd e4 d2 4b 4f d6 84 3c bb 53
       0.3855519 -0.13607714 -0.3039056 0.0 -0.35380057 -0.095254 -0.23133114 -0.12700532 -0.20865162 0.34019285 0.35833648 -0.190508 -0.5624522 0.27215427 -0.31297743 0.37648007
000060 3a b2 12 0a 06 dd b9 53 cf d4 18 c6 0c 05 ef 7f
       0.26308247 -0.35380057 0.081646286 0.045359045 0.027215429 -0.15875666 -0.32204923 0.37648007 -0.22225933 -0.1995798 0.108861715 -0.26308247 0.054430857 0.022679523 -0.07711038 0.5760599
000070 ea ca f6 dc dc be 0e 1a e5 cc e1 ae 3b aa 3f 03
       -0.0997899 -0.24493885 -0.045359045 -0.16329257 -0.16329257 -0.2993697 0.06350266 0.11793352 -0.122469425 -0.23586704 -0.14061305 -0.3719442 0.26761836 -0.39008778 0.28576198 0.013607714
000080 18 d2 e0 b1 60 f4 65 ae 0c 0d 47 23 33 b3 45 b2
       0.108861715 -0.20865162 -0.14514895 -0.35833648 0.43544686 -0.054430857 0.45812637 -0.3719442 0.054430857 0.05896676 0.32204923 0.15875666 0.23133114 -0.34926465 0.31297743 -0.35380057
000090 dd 44 4e e0 51 ba e9 9f 2d 1f cd 0e 41 12 5a d4
       -0.15875666 0.30844152 0.35380057 -0.14514895 0.36740828 -0.31751332 -0.10432581 -0.43998274 0.2041157 0.14061305 -0.23133114 0.06350266 0.2948338 0.081646286 0.4082314 -0.1995798
0000a0 c5 c5 aa 4f bf 24 c4 eb 27 e2 f0 a6 c2 39 f2 45
       -0.26761836 -0.26761836 -0.39008778 0.35833648 -0.2948338 0.16329257 -0.27215427 -0.095254 0.17690028 -0.13607714 -0.072574474 -0.4082314 -0.2812261 0.25854656 -0.06350266 0.31297743
0000b0 36 00 d9 a0 f4 06 12 03 ee 10 02 4e c0 45 42 44
       0.24493885 0.0 -0.17690028 -0.43544686 -0.054430857 0.027215429 0.081646286 0.013607714 -0.081646286 0.072574474 0.009071809 0.35380057 -0.2902979 0.31297743 0.2993697 0.30844152
0000c0 21 44 00 f2 26 06 d8 e6 e8 fc 02 f4 c8 0f 58 58
       0.14968485 0.30844152 0.0 -0.06350266 0.17236437 0.027215429 -0.18143618 -0.11793352 -0.108861715 -0.018143618 0.009071809 -0.054430857 -0.25401065 0.06803857 0.3991596 0.3991596
0000d0 b6 14 39 e8 fa e4 c8 be 1f d8 a6 1c 33 ec eb d1
       -0.33565694 0.09071809 0.25854656 -0.108861715 -0.027215429 -0.12700532 -0.25401065 -0.2993697 0.14061305 -0.18143618 -0.4082314 0.12700532 0.23133114 -0.09071809 -0.095254 -0.21318752
0000e0 60 36 29 28 cf db 61 e9 36 d2 3a 24 4a c3 c4 33
       0.43544686 0.24493885 0.1859721 0.18143618 -0.22225933 -0.16782847 0.43998274 -0.10432581 0.24493885 -0.20865162 0.26308247 0.16329257 0.33565694 -0.27669019 -0.27215427 0.23133114
0000f0 44 00 2a 11 23 bb a7 01 14 c5 21 d6 b9 0b 3a 9f
       0.30844152 0.0 0.190508 0.07711038 0.15875666 -0.31297743 -0.40369552 0.0045359046 0.09071809 -0.26761836 0.14968485 -0.190508 -0.32204923 0.04989495 0.26308247 -0.43998274
