tmp_out/model.tflite (tflite, 181444 bytes, 10 tensors)

dense_1/bias f4 [10]
0	0xbd26478d	-0.04059558
1	0xbc9d369e	-0.019191083
2	0x3c8b0032	0.016967867
3	0xbb687a59	-0.0035473316
4	0x3a2e6976	0.0006653288
5	0x3cc6daa0	0.02427417
6	0xbbe94946	-0.0071193306
7	0x3b31582f	0.0027060618
8	0x3bd413fe	0.00647211
9	0x3bf02492	0.0073285783

dense/bias f4 [84]
0	0xb9aca680	-0.0003293045
1	0xbd17805e	-0.036987655
2	0xbbe3be77	-0.0069501954
3	0x3c2ce096	0.010551592
4	0xbc29773a	-0.010343367
5	0x3b742dee	0.0037258822
6	0xbbd5dcc1	-0.00652656
7	0x3c7e82cd	0.015534115
8	0x3c587a8d	0.013212812
9	0xbbc98085	-0.006149354
10	0xba0b52ce	-0.0005314768
11	0x3ca72bde	0.02040666
12	0x3bc248f7	0.0059291082
13	0x3bac993d	0.005267291
14	0x3b7c9fe4	0.003854745
15	0xbbde9c90	-0.006793566
16	0xbc54b7ab	-0.012983243
17	0x3c4ce6f1	0.012506233
18	0x3a7a93a4	0.00095587433
19	0xbbefb3b9	-0.007315126
20	0x38752521	5.844713e-05
21	0xbb135b73	-0.0022484928
22	0x3cc79c0b	0.0243664
23	0xbbb79d28	-0.0056034513
24	0xba7d5268	-0.00096634636
25	0xbbe850d9	-0.007089716
26	0x3c3ea2d6	0.011635503
27	0xbc8b8365	-0.017030427
28	0x3c92513e	0.017861005
29	0x3c5a9daa	0.013343254
30	0xbca82a81	-0.02052808
31	0xbc81efd0	-0.015861422
32	0x3a1f8fe6	0.0006086811
33	0xbc212add	-0.00983688
34	0x3b740a45	0.0037237566
35	0xbb9d72da	-0.004804951
36	0x3c8b03fd	0.016969675
37	0xbabcb6a4	-0.0014397693
38	0xbcadb111	-0.021202596
39	0x3be1967e	0.006884395
40	0xbbffa6fb	-0.007801888
41	0xbb128825	-0.002235898
42	0x3c4119ba	0.011785919
43	0xbb894e13	-0.0041902154
44	0x3c6e70df	0.014553278
45	0xbc647928	-0.0139449015
46	0x3c873926	0.016506743
47	0x3a41d35f	0.00073938625
48	0xbc23e43a	-0.010003144
49	0xbca47839	-0.020076858
50	0xbc637667	-0.01388321
51	0x3b55ae2e	0.003260504
52	0xbbec4c84	-0.00721127
53	0x399acae8	0.00029524346
54	0xbc05f6e4	-0.008176539
55	0x3c494779	0.012285107
56	0xb9df4e18	-0.0004259206
57	0xbc6268ef	-0.013818963
58	0x3c96762a	0.018366892
59	0x3c9affab	0.01892074
60	0xbb0c61ba	-0.0021420554
61	0xbc171ea5	-0.009223615
62	0xbb0ed0ee	-0.0021792012
63	0xbc3e5932	-0.0116179455
64	0xbcdca93e	-0.02693617
65	0x3c8ca305	0.017167578
66	0x3c4711ab	0.0121502085
67	0x3bd81b31	0.0065950383
68	0xbb11ed5e	-0.0022266726
69	0x3be25062	0.006906555
70	0xbbd9ea69	-0.0066502583
71	0x3c738448	0.014863081
72	0x3b0ee7d2	0.0021805656
73	0xbc1ef022	-0.009700807
74	0x3bc0a4a2	0.0058790008
75	0xbbcc87be	-0.0062417677
76	0x3bd81f8f	0.006595559
77	0xbbdf5017	-0.0068149674
78	0x3bcaea3c	0.0061924737
79	0xbcabd806	-0.020977031
80	0xbb755df3	-0.0037440031
81	0x3ad5a1eb	0.0016298866
82	0x3b64d637	0.003491772
83	0xba1ad61e	-0.000590654

sequential/dense/MatMul f4 [84, 120]
0	0x3d1f13b7	0.03883716
1	0xbdfb7924	-0.12278965
2	0xbe686208	-0.22693646
3	0xbe327927	-0.17429028
4	0xbd914195	-0.07092587
5	0xbe70b23d	-0.23505493
6	0x3d877f72	0.06616105
7	0xbd8571df	-0.0651586
8	0xbdda9f71	-0.10674942
9	0xbe0d2e41	-0.13787176
10	0x3e885c6c	0.26633012
11	0xbd950780	-0.07276821
12	0xbe0e4b84	-0.13895994
13	0xbcf00f15	-0.029304067
14	0x3e516d56	0.20451865
15	0x3e8006e9	0.25005272
16	0xbe922701	-0.28545383
17	0xbcb96800	-0.022632599
18	0x3e40f46a	0.18843237
19	0x3dd86e8d	0.10567961
20	0xbdb1d289	-0.086827345
21	0x3dc55710	0.096357465
22	0x3dc0660d	0.09394465
23	0xbe93556d	-0.28776112
24	0xbdaaea8a	-0.08345516
25	0x3e23e427	0.16005002
26	0x3da0e441	0.07856036
27	0x3da8326c	0.08212742
28	0xbe061554	-0.13094074
29	0x3d2cb5c4	0.042165533
30	0xbd8c5155	-0.0685145
31	0xbdcccc97	-0.0999996
32	0x3d935bf2	0.071952716
33	0x3e07e40e	0.1327059
34	0xbdd45437	-0.10367625
35	0x3d51c84e	0.051216416
36	0x3c1e5685	0.009664183
37	0xbde52ac6	-0.11189799
38	0x3dd76275	0.10516826
39	0x3dff5881	0.12468053
40	0xbd863ae5	-0.06554202
41	0x3d8f9f0b	0.07012757
42	0xbcb5ba33	-0.022183513
43	0xbc332510	-0.010934129
44	0xbe683ad4	-0.22678691
45	0x3daf20da	0.08551188
46	0xbe0510c5	-0.12994678
47	0xbe2be6a4	-0.16787201
48	0xbe21c15a	-0.15796414
49	0xbd2ef100	-0.042710304
50	0x3e87a8a6	0.26495856
51	0xbd704aae	-0.05866497
52	0x3e234381	0.1594372
53	0x3d1620bf	0.036652323
54	0x3d36c9fb	0.044626217
55	0xbdffbfe8	-0.12487775
56	0xbe013a88	-0.12619984
57	0x3dafc7c2	0.08583023
58	0xbdb41349	-0.08792741
59	0x3c4ca896	0.012491366
60	0xbeb27f7f	-0.34862897
61	0x3d802bd7	0.06258362
62	0x3db49cc8	0.08818966
63	0xbcc6e2b2	-0.024278019
64	0x3d81a487	0.06330209
65	0x3e3b0d1c	0.1826672
66	0x3c124c73	0.00892936
67	0xbcd36beb	-0.025808295
68	0xbd29f74c	-0.041495606
69	0x3e847c4e	0.25876087
70	0x3d1f75a8	0.038930565
71	0x3e8c2a95	0.27376238
72	0x3df52d8e	0.119715795
73	0xbdd19c64	-0.10234907
74	0xbdb5ebf4	-0.08882895
75	0x3dd1c3c3	0.10242417
76	0xbe23cff1	-0.15997292
77	0x3d78ec16	0.060772024
78	0xbe584587	-0.21120273
79	0x3e3a3163	0.18182902
80	0x3e5aea4f	0.21378444
81	0x3e03da44	0.1287623
82	0xbe554b3f	-0.20829485
83	0xbe1a7e96	-0.15087351
84	0x3e8b56cd	0.2721466
85	0xbe045783	-0.12924008
86	0x3e021752	0.12704208
87	0x3e387aed	0.18015642
88	0xbdbb0390	-0.09131539
89	0x3bcccf98	0.006250333
90	0xbe087ce2	-0.13328889
91	0x3dba09b2	0.090838805
92	0xbd1a6dfb	-0.03770254
93	0xbd6d8614	-0.057989195
94	0x3c96f016	0.018425029
95	0xbdcc6b31	-0.09981383
96	0x3e40e768	0.18838274
97	0x3da762c5	0.08173136
98	0xbd1c31a0	-0.038133264
99	0x3d2215c1	0.039571527
100	0x3e974e29	0.2955182
101	0xbe6c9c9d	-0.23106618
102	0x3dc9f788	0.09861666
103	0x3c7545b5	0.014970233
104	0x3d684299	0.056704137
105	0xbd9b72bc	-0.07590243
106	0x3ce88ba6	0.028386902
107	0xbdd63787	-0.1045981
108	0x3c59ed78	0.013301246
109	0x3bc0a71e	0.005879297
110	0xbdc54779	-0.09632773
111	0x3e2776a1	0.16353847
112	0x3dfefe2a	0.12450822
113	0xbd9065dc	-0.07050678
114	0xbdef7c36	-0.11693613
115	0xbd4a7fb7	-0.049438205
116	0x3e2effc1	0.1708975
117	0xbcc36fe7	-0.02385707
118	0x3d2345e4	0.039861575
119	0x3e9f1dd4	0.31077445
120	0xbe09a1a8	-0.13440573
121	0xbd82b137	-0.06381457
122	0x3e10d2d9	0.14142932
123	0x3e0dcc1a	0.1384739
124	0x3e8136d5	0.25237146
125	0xbd4d3f56	-0.05010923
126	0x3e4156e3	0.18880801
127	0x3d355e51	0.0442794
128	0x3e13d5bd	0.14437003
129	0x3ddda89d	0.10823176
130	0xbe967347	-0.29384825
131	0x3e6a5169	0.22882618
132	0xbe633d67	-0.22191392
133	0xbe7c10d4	-0.24615794
134	0x3df528cf	0.11970674
135	0xbe145687	-0.14486133
136	0xbe350fdb	-0.1768183
137	0xbdc1c01a	-0.094604686
138	0x3c1d0c9c	0.009585526
139	0xbe0a3ec4	-0.13500506
140	0x3dcf761c	0.101299495
141	0x3d68fcc2	0.056881674
142	0xbe392e4c	-0.18084067
143	0x3d11030c	0.035403296
144	0xbdf2cfa4	-0.118560106
145	0xbe933d0d	-0.28757516
146	0x3dde17ef	0.10844409
147	0xbd92e6a5	-0.07172898
148	0xbcea65e1	-0.028613033
149	0xbe85fb19	-0.26168135
150	0x3dc56d6f	0.096400134
151	0x3e92880f	0.2861943
152	0x3d2c0df5	0.042005498
153	0xbea814bf	-0.32828328
154	0x3da216bd	0.07914493
155	0x3db34fbc	0.087554425
156	0x3e13fac8	0.14451134
157	0xbdc24389	-0.094855376
158	0xbdf08d61	-0.11745716
159	0xbe19238c	-0.14954966
160	0x3eb01391	0.34389928
161	0x3e5123f7	0.20423876
162	0xbe141cff	-0.14464186
163	0xbd601c34	-0.054714397
164	0xbeb9b10e	-0.36267895
165	0xbd79e530	-0.061009586
166	0xbd509d37	-0.05093118
167	0x3e3728ce	0.1788666
168	0xbd02d937	-0.031945433
169	0xbc8d1e76	-0.017226439
170	0xbe61f480	-0.22065926
171	0x3e41d657	0.1892942
172	0xbc6f6459	-0.014611327
173	0x3c658ced	0.01401065
174	0x3e192fc3	0.14959626
175	0x3e464e94	0.19365913
176	0x3e9ee36e	0.3103289
177	0xbaedcd3b	-0.0018142828
178	0xbdf92165	-0.121645726
179	0xbeaa62ef	-0.33278605
180	0xbe72c48c	-0.23707789
181	0x3e270f6a	0.16314474
182	0xbe3fe71b	-0.18740503
183	0xbb8ad726	-0.0042370735
184	0xbde21b93	-0.110404156
185	0xbdda7907	-0.106676154
186	0x3e742d15	0.23845322
187	0x3ccc7594	0.02495841
188	0x3e4f30ce	0.20233461
189	0xbe37aa67	-0.17936097
190	0xbe11d4f6	-0.14241394
191	0x3c85141a	0.016244937
192	0x3e1bf0f2	0.15228632
193	0xbeae2167	-0.3400986
194	0x3ddbed84	0.10738662
195	0x3e66203c	0.22473234
196	0xbdd29836	-0.10282938
197	0xbdede337	-0.116156034
198	0xbd852b35	-0.06502382
199	0x3e569a06	0.20957193
200	0x3e0f382d	0.13986273
201	0x3e36ac02	0.17839053
202	0xbe45c966	-0.19315109
203	0xbe3e849d	-0.18605275
204	0xbb8a0e45	-0.004213127
205	0x3cf7a36c	0.030229293
206	0xbe4b5b6b	-0.19859092
207	0x3c0ce6e4	0.0085999705
208	0xbe14b3c3	-0.14521699
209	0xbe8b6a3c	-0.27229488
210	0xbe20bb79	-0.15696515
211	0xbdef1f2d	-0.11675868
212	0xbe6ffc28	-0.23436034
213	0x3dfa5ab8	0.122243345
214	0x3dff1d2c	0.12456736
215	0x3de7f886	0.11326699
216	0x3de08e86	0.10964684
217	0xbe2564cc	-0.16151732
218	0xbe25d73f	-0.16195391
219	0x3e4b8f7e	0.19878957
220	0xbdd0c9e0	-0.101947546
221	0xbe5ad26a	-0.21369329
222	0xbb9ab523	-0.0047213
223	0x3e4ec23c	0.20191282
224	0xbd98034b	-0.07422503
225	0xbe100519	-0.14064445
226	0xbe41b455	-0.18916447
227	0x3d0d89c9	0.03455523
228	0xbe56a3f1	-0.20960976
229	0x3da6a8aa	0.08137639
230	0xbc0fa599	-0.008767509
231	0xbb6b3e37	-0.0035895237
232	0x3e039df0	0.12853217
233	0x3d60269f	0.054724332
234	0xbd75fd71	-0.060056154
235	0x3dccb4c2	0.09995414
236	0xbc9a98db	-0.018871715
237	0xbd967fa9	-0.07348568
238	0xbe4e9a03	-0.20175938
239	0xbe11088c	-0.14163417
240	0xbe29fad1	-0.16599585
241	0x3d9d4cd6	0.07680671
242	0x3e05e7bb	0.1307668
243	0x3dd56975	0.10420505
244	0x3dd24558	0.102671325
245	0x3e085030	0.13311839
246	0xbd0ea775	-0.03482767
247	0xbb924a22	-0.0044644037
248	0x3d1c65fd	0.0381832
249	0x3da5cf6e	0.08096205
250	0xbe2927f0	-0.16519141
251	0xbdfea577	-0.12433904
252	0x3d80fbfc	0.06298062
253	0x3e80c501	0.25150302
254	0xbe190685	-0.14943893
255	0xbd746a1d	-0.05967151

sequential/dense_1/MatMul f4 [10, 84]
0	0xbeb1f441	-0.34756663
1	0x3ecf8304	0.40529644
2	0xbe5ae3e4	-0.21375996
3	0x3e3f82b0	0.18702197
4	0xbde3a529	-0.11115486
5	0xbcb90237	-0.022584064
6	0x3eb88068	0.36035466
7	0x3e4efaa2	0.20212796
8	0x3e2d72c8	0.16938317
9	0x3ea47a04	0.3212434
10	0x3e8b5c2c	0.2721876
11	0xbecd06ee	-0.4004435
12	0xbe9eb92e	-0.31000656
13	0x3d97ddb4	0.074153334
14	0xbe83136a	-0.2560075
15	0xbca42496	-0.020036977
16	0x3ee60655	0.44926706
17	0x3df77b7d	0.120841004
18	0xbe4fe3ee	-0.20301792
19	0xbed2b157	-0.41150925
20	0x3eccd832	0.40008694
21	0x3ea8fd48	0.33005738
22	0xbe6196b3	-0.22030143
23	0x3eebfebf	0.46092793
24	0xbe94c6d4	-0.29057944
25	0x3ec0fbb1	0.37692025
26	0xbe7eb538	-0.24873817
27	0xbd7dbf6c	-0.061950132
28	0xbef36f02	-0.4754563
29	0x3e3f5187	0.18683444
30	0x3eaa016b	0.33204207
31	0x3dea24f1	0.11432827
32	0xbd7ed51a	-0.06221495
33	0x3ec6aae3	0.3880225
34	0xbe8c17d4	-0.2736193
35	0x3e960602	0.2930146
36	0xbba3391e	-0.004981174
37	0x3e6e6679	0.23281278
38	0x3e5e0d3e	0.21684739
39	0x3ececc0f	0.4039006
40	0xbe819aa8	-0.25313306
41	0xbe0072ef	-0.12543844
42	0xbe36af7d	-0.17840381
43	0xbe9c9907	-0.305855
44	0xbee454b2	-0.44595867
45	0x3ed4ad2b	0.41538367
46	0xbef6418d	-0.48096886
47	0xbe8690dc	-0.26282394
48	0xbe3382e5	-0.17530401
49	0x3ebc6489	0.36795452
50	0xbde37f88	-0.11108309
51	0xbe2c809c	-0.16845936
52	0x3d985f80	0.0744009
53	0xbe825a5e	-0.2545957
54	0xbe9cb280	-0.30604935
55	0x3e3080e9	0.17236675
56	0x3ea198ab	0.3156179
57	0xbe687a57	-0.22702919
58	0xbe62edab	-0.22160976
59	0xbc1141ad	-0.008865756
60	0x3e82bd05	0.25534835
61	0x3ea2c9f6	0.3179471
62	0x3e9a92e0	0.30190182
63	0x3d78a511	0.060704295
64	0xbea0b812	-0.31390435
65	0xbe455f86	-0.1927472
66	0xbe95424d	-0.29152146
67	0x3e8ac44d	0.2710289
68	0x3e15127f	0.14557837
69	0x3e3eec72	0.18644884
70	0x3e281962	0.16415933
71	0x3e055855	0.13021977
72	0xbe76189c	-0.24032825
73	0xbd394805	-0.0452347
74	0xbe9af04a	-0.3026145
75	0xbe220b17	-0.15824543
76	0xbeab10a2	-0.33411127
77	0x3e7a4931	0.24441983
78	0x3e61ad70	0.22038817
79	0x3e060e4c	0.13091391
80	0x3ec43fb7	0.3832986
81	0xbe0d3fb3	-0.1379383
82	0xbe9b12f3	-0.30287895
83	0xb9e7a533	-0.00044182836
84	0xbeb585a6	-0.35453528
85	0xbdc435e6	-0.09580593
86	0xbe6baade	-0.230144
87	0xbe00d262	-0.12580255
88	0xbe5534d4	-0.20820934
89	0x3ead3150	0.33826685
90	0x3eb7ebc9	0.35922077
91	0xbe44a3cb	-0.19203107
92	0xbf107096	-0.5642179
93	0x3e8b74e7	0.27237627
94	0xbea1490b	-0.3150104
95	0x3ebff6f7	0.37493107
96	0x3e860f23	0.26183423
97	0xbeb5f369	-0.3553727
98	0x3daa553d	0.08317039
99	0x3d42fffa	0.0476074
100	0x3cd5cb48	0.026097909
101	0xbe236ccf	-0.15959476
102	0xbea560a4	-0.32300293
103	0x3ec0da9a	0.3766678
104	0xbe645447	-0.22297774
105	0xbe4e1d88	-0.20128453
106	0x3ddc81c4	0.10766938
107	0xbe87cb5e	-0.26522344
108	0x3d61c1e1	0.055116538
109	0x3cb10bf3	0.021612143
110	0xbda0fd9e	-0.07860874
111	0x3f1378a9	0.5760599
112	0xbdcf91da	-0.10135241
113	0xbe7b5601	-0.24544527
114	0xbd401827	-0.046898033
115	0xbe280584	-0.16408354
116	0xbe2598d7	-0.16171585
117	0xbe9936f9	-0.29924753
118	0x3d7d1977	0.061791863
119	0x3df55014	0.11978164
120	0xbdfc85ba	-0.12330194
121	0xbe70bcd5	-0.23509534
122	0xbe108f2f	-0.1411712
123	0xbebd86f3	-0.3701702
124	0x3e89b3c3	0.2689496
125	0xbec8bfd9	-0.39208868
126	0x3e932db5	0.2874581
127	0x3c569d7c	0.013099071
128	0x3ddea9c6	0.108722255
129	0xbe560c27	-0.20903073
130	0xbe164f7d	-0.1467876
131	0xbeb6f893	-0.35736522
132	0x3eddd2f4	0.43325007
133	0xbd617985	-0.05504753
134	0x3eeb7e84	0.4599496
135	0xbebed4d8	-0.37271762
136	0x3d565de4	0.052335635
137	0x3d71b893	0.059013914
138	0x3ea3e397	0.32009575
139	0x3e24de56	0.1610044
140	0x3e6f0b38	0.23344123
141	0xbeb2150d	-0.34781685
142	0x3e9f7bb1	0.31149057
143	0xbeb63bc6	-0.3559248
144	0xbe213bb8	-0.15745437
145	0x3e9ee9f1	0.31037858
146	0x3eb56fe9	0.35436943
147	0xbe1629dd	-0.14664407
148	0x3ebca815	0.36846986
149	0xbea221dd	-0.3166646
150	0xbdd67379	-0.104712434
151	0xbee059f4	-0.4381863
152	0x3e514eb8	0.20440185
153	0x3e11a667	0.14223634
154	0xbe6e6cfb	-0.2328376
155	0x3d84031d	0.06445906
156	0x3e95d372	0.29262882
157	0x3da5a97e	0.08088969
158	0x3ed0cdf5	0.40782133
159	0xbe4c314b	-0.19940679
160	0xbe87ef96	-0.26549977
161	0xbe893878	-0.26800895
162	0xbec79fbb	-0.38989052
163	0x3eb83c5e	0.35983557
164	0xbe962af3	-0.29329643
165	0x3e25387c	0.16134828
166	0xbe8bd38c	-0.27309835
167	0xbdc2e685	-0.09516624
168	0x3e3590c6	0.17731008
169	0xbe0a78ba	-0.13522616
170	0xbd930f26	-0.07180624
171	0xbed1f67d	-0.41008368
172	0xbe8f1ab5	-0.27950063
173	0x3e849b76	0.25899857
174	0xbd817bb0	-0.0632242
175	0x3ea05257	0.3131282
176	0x3e7a7369	0.24458088
177	0x3aaae3bd	0.0013037842
178	0xbe33d2c8	-0.17560875
179	0xbedf06c1	-0.4355984
180	0xbd5fb7b6	-0.05461856
181	0x3cf13f65	0.029449174
182	0x3da556f6	0.08073227
183	0x3c5c4a95	0.013445516
184	0xbda7d8b4	-0.0819563
185	0x3d94356a	0.072367504
186	0x3c2929de	0.010324923
187	0x3eb546c4	0.35405552
188	0xbe9551ea	-0.29164058
189	0x3ea0432e	0.31301254
190	0x3e9872c6	0.29775065
191	0x3e9cedf5	0.30650297
192	0x3e187d44	0.14891535
193	0x3e9e2b35	0.3089234
194	0x3ab078de	0.0013463756
195	0xbd83dc9d	-0.06438563
196	0x3e2f6708	0.17129147
197	0x3cce6aa3	0.025197333
198	0xbe37a3a2	-0.17933515
199	0xbdedb509	-0.11606795
200	0xbde1dccf	-0.11028444
201	0xbc8f6767	-0.01750536
202	0x3be7226e	0.007053665
203	0xbd6651d6	-0.05623039
204	0xbe82aab2	-0.25520855
205	0x3d8f5a97	0.069997005
206	0x3ecbca82	0.3980294
207	0x3ecb981e	0.39764494
208	0xbeabea01	-0.33576968
209	0x3dbc0c72	0.09182061
210	0x3e83de01	0.25755313
211	0xbddc05dd	-0.10743306
212	0xbcd6b649	-0.026209967
213	0xbe00783b	-0.12545864
214	0xbe8264e1	-0.2546759
215	0xbe996499	-0.29959562
216	0x3e10199d	0.1407227
217	0xbe398d13	-0.18120222
218	0xbed084f8	-0.40726447
219	0x3e00e5e1	0.12587692
220	0x3e6bcc65	0.23027189
221	0xbdbaa744	-0.09113935
222	0xbdc0f00a	-0.09420784
223	0xbe5acf47	-0.21368133
224	0x3edeaf86	0.4349329
225	0x3e7c3bcb	0.24632184
226	0x3e3ee61f	0.18642472
227	0x3e3ac3e6	0.18238792
228	0xbe65ba30	-0.22434306
229	0xbe2dbf83	-0.16967587
230	0x3ee0908e	0.43860286
231	0xbdd1195c	-0.10209915
232	0x3e7b9982	0.24570277
233	0xbe56023d	-0.20899291
234	0x3e86fd76	0.2636525
235	0x3e27b6bf	0.16378306
236	0x3eab54bf	0.33463094
237	0xbe8ce5c1	-0.27519038
238	0xbe8b0be7	-0.27157518
239	0x3e6bcad5	0.23026593
240	0x3e9e8ff4	0.30969203
241	0x35f227c0	1.8041974e-06
242	0x3e433800	0.19064331
243	0x3d9f2381	0.07770444
244	0x3e236e6c	0.15960091
245	0xbe9f9c7e	-0.31174082
246	0xbecd983e	-0.40155214
247	0x3bc82c1d	0.0061087743
248	0x3db62621	0.08893991
249	0xbe8958eb	-0.26825652
250	0x3e1a3fa4	0.1506334
251	0xbe422359	-0.18958797
252	0xbea554ae	-0.32291168
253	0x3d50af5c	0.050948486
254	0x3e858c3d	0.26083556
255	0xbee1200b	-0.4396976

sequential/conv2d/Conv2D f4 [6, 5, 5, 1]
0	0xbed05325	-0.40688434
1	0xbec21966	-0.37910002
2	0xbd846b9f	-0.064658396
3	0xbdbef110	-0.09323323
4	0x3e3b71d1	0.18305136
5	0xbec8ed73	-0.3924366
6	0x3c919032	0.017768953
7	0xbc449de8	-0.012000538
8	0x3e98a1ba	0.29810888
9	0x3eea834a	0.4580329
10	0xbe2ba9d3	-0.16764002
11	0xbd97d29c	-0.074132174
12	0x3e2ce6e1	0.16884948
13	0x3efe62d7	0.49684784
14	0x3ee882d0	0.45412302
15	0x3a8ceb13	0.001075121
16	0x3b48f57e	0.0030663903
17	0x3e96541c	0.29361045
18	0x3ec748d5	0.38922754
19	0x3e992034	0.29907382
20	0xbec26505	-0.37967697
21	0xbd9294df	-0.07157301
22	0x3dec4d9c	0.1153824
23	0x3dd47284	0.103734046
24	0x3d7e3b35	0.062068183
25	0xbeab1a79	-0.33418635
26	0xbecb4422	-0.3970042
27	0xbe8fbcb4	-0.28073657
28	0xbea56622	-0.32304484
29	0xbece2050	-0.40259027
30	0xbe47c706	-0.19509515
31	0xbe641e22	-0.2227712
32	0xbe7e2b76	-0.24821267
33	0xbc80a1f7	-0.01570223
34	0xbe2989f0	-0.16556525
35	0xbe98db93	-0.29855022
36	0xbdb8cc3c	-0.090233296
37	0x3e8c0a47	0.2735159
38	0x3e7b739a	0.24555817
39	0x3d9d6da7	0.0768693
40	0xbd6c172f	-0.057639297
41	0x3eb2cd21	0.34922126
42	0x3ea8fc0e	0.33004802
43	0x3e7c128a	0.24616447
44	0x3eba699d	0.36408702
45	0x3e52dcb4	0.20592004
46	0x3ea0bd44	0.31394398
47	0x3ed25577	0.4108083
48	0x3e98ac6c	0.29819047
49	0x3e95a377	0.29226276
50	0x3e3cbde8	0.18431818
51	0x3e4f05cb	0.20217054
52	0xbd53b886	-0.051689647
53	0xbe337418	-0.17524755
54	0x3dcb5a8b	0.09929379
55	0x3e91bd7b	0.28464875
56	0x3cf1f39e	0.029535111
57	0xbe4daa52	-0.20084503
58	0xbebd3948	-0.36957765
59	0xbdc325d3	-0.09528699
60	0x3e601dc6	0.21886358
61	0xbe268f1f	-0.16265534
62	0xbe83fe7a	-0.25780088
63	0xbe91f70a	-0.28508788
64	0xbeaad956	-0.3336894
65	0x3e96f770	0.29485655
66	0x3e157178	0.14594066
67	0x3cf8ee28	0.030387
68	0xbe89d88d	-0.26923028
69	0xbe5a75b6	-0.21333966
70	0x3cc93027	0.024559094
71	0x3d7e2aff	0.062052723
72	0x3da3d739	0.08000035
73	0xbe60889b	-0.21927111
74	0xbe040256	-0.12891516
75	0xbee1ef16	-0.4412772
76	0xbe62c2ae	-0.22144577
77	0xbe89374b	-0.26799998
78	0xbe0a6a17	-0.13517033
79	0xbda8e5bc	-0.08246943
80	0xbd8aa424	-0.067695886
81	0x3e0489d8	0.12943208
82	0x3d927638	0.07151455
83	0x3bfd7bd6	0.0077357097
84	0xbead8ed4	-0.33898032
85	0x3e373577	0.17891489
86	0x3eae5119	0.34046248
87	0x3ea627d2	0.32452255
88	0x3e400993	0.18753652
89	0xbe713dd4	-0.23558742
90	0x3e6b7951	0.22995497
91	0x3eaf4bbb	0.34237465
92	0x3ebb692f	0.36603686
93	0x3eb5f0b9	0.3553522
94	0xbe0cc534	-0.13747102
95	0x3c0a86e3	0.008455011
96	0x3e64312b	0.22284381
97	0x3dcf7baa	0.10131009
98	0x3e5abc97	0.21361004
99	0xbe8e7873	-0.2782627
100	0xbe8faa51	-0.2805963
101	0xbedafbb8	-0.4277017
102	0xbeb560f0	-0.3542552
103	0xbe7fd4e0	-0.24983549
104	0x3e249134	0.16071016
105	0xbee5b09a	-0.448613
106	0xbec21d38	-0.37912917
107	0xbe64a4bd	-0.22328468
108	0x3c465893	0.012106079
109	0x3e8c8a60	0.27449322
110	0xbda4f2dd	-0.08054135
111	0xbeac3398	-0.33633113
112	0xbd90a59e	-0.07062839
113	0x3db42da8	0.08797771
114	0x3e9820a5	0.29712406
115	0x3ca0a015	0.019607583
116	0xbcfa3df2	-0.030547116
117	0x3e01dbbb	0.12681477
118	0x3e04c030	0.12963939
119	0x3e9b1cc0	0.30295372
120	0xbd82db46	-0.06389479
121	0x3e33689e	0.17520377
122	0x3e3b73eb	0.18305938
123	0x3e5090e4	0.20367771
124	0x3e72a297	0.23694836
125	0x3cf675a2	0.030085389
126	0x3d29f64b	0.04149465
127	0xbe8c4402	-0.27395636
128	0xbeb345b9	-0.35014132
129	0xbeaba515	-0.33524385
130	0x3e9f45be	0.31107897
131	0x3dd79edc	0.10528347
132	0xbe18b883	-0.14914136
133	0xbe95d62e	-0.2926497
134	0xbe5bf64b	-0.21480672
135	0x3e7e46b1	0.24831654
136	0x3e7109c2	0.23538879
137	0xbc0d0a37	-0.008608392
138	0xbdaae3b8	-0.08344215
139	0xbed9efbb	-0.42565712
140	0x3e974a92	0.2954908
141	0x3eff6f2d	0.49889508
142	0x3ece5093	0.40295848
143	0xbd484751	-0.048896138
144	0xbe1892b9	-0.1489972
145	0x3ed1438b	0.40871844
146	0x3ec8376b	0.3910478
147	0x3e996667	0.2996094
148	0x3e078e6c	0.13237923
149	0xbda8116d	-0.08206449

sequential/conv2d_1/Conv2D f4 [16, 5, 5, 6]
0	0xbe655658	-0.22396219
1	0xbe3ffe37	-0.18749319
2	0x3da577b8	0.08079475
3	0xbc94eef8	-0.018180355
4	0xbe270ccf	-0.1631348
5	0xbdf6d7f5	-0.12052909
6	0xbdd3bc9e	-0.1033871
7	0xbe82070b	-0.25395998
8	0x3e85e20c	0.26149023
9	0xbe52125c	-0.20514816
10	0xbe46e26a	-0.19422308
11	0xbe07ff17	-0.13280903
12	0xbe5af20c	-0.21381396
13	0xbea904da	-0.33011514
14	0x3e502ceb	0.20329635
15	0xbe8e27f2	-0.2776485
16	0x3c09e947	0.008417434
17	0xbe88e16e	-0.2673449
18	0xbda9b443	-0.08286335
19	0xbe2447bb	-0.16042988
20	0x3e3c28d3	0.18374948
21	0xbe089d63	-0.13341288
22	0x3da04897	0.078263454
23	0xbe57ee7f	-0.21087073
24	0x3d7a88e1	0.061165694
25	0xbe3273c0	-0.17426968
26	0xbda28a75	-0.07936565
27	0xbdd5e693	-0.10444369
28	0x3d8684a5	0.06568269
29	0xbe854bbb	-0.2603434
30	0xbe2a3584	-0.16621977
31	0x3e342410	0.17591882
32	0x3dc37eef	0.09545695
33	0x3cb54790	0.02212885
34	0x3df6e13a	0.12054677
35	0x3e0bf427	0.13667355
36	0xbe515ee1	-0.2044635
37	0xbc30ee70	-0.010799035
38	0x3ded15ed	0.11576448
39	0xbe1f58e4	-0.15561253
40	0x3bb3973d	0.0054806755
41	0x3e0f87b0	0.14016604
42	0xbe7bd282	-0.24592021
43	0x3d20aa4e	0.039224915
44	0x3e7e3f0b	0.24828736
45	0xbd566ab3	-0.05234785
46	0x3e5cb1b9	0.21552171
47	0xb9bdf859	-0.00036233923
48	0xbdd2cb66	-0.102927014
49	0xbc705340	-0.014668286
50	0x3d84b01e	0.06478904
51	0xbcc2aa96	-0.023762982
52	0x3e6c3565	0.23067243
53	0xbe472eee	-0.19451496
54	0x3d12c3ab	0.035831135
55	0x3da7fb45	0.08202223
56	0x3c869e0b	0.016432783
57	0xbdd51175	-0.1040372
58	0x3e004627	0.12526761
59	0xbe327fc3	-0.1743155
60	0x3d2cea7a	0.0422158
61	0x3e155345	0.14582546
62	0xbe3ee136	-0.18640599
63	0x3d5f0a75	0.054453332
64	0xbd954fb0	-0.0729059
65	0x3e22fed1	0.15917517
66	0xbe16dd16	-0.14732775
67	0x3e452e08	0.19255841
68	0x3c8c2a0f	0.017109899
69	0x3e0f6d2d	0.14006491
70	0x3db4079c	0.08790514
71	0x3e90c364	0.2827407
72	0xbe15532c	-0.14582509
73	0x3e670c94	0.22563392
74	0x3e2db26b	0.16962592
75	0x3def2e79	0.11678786
76	0x3de8e37c	0.11371514
77	0x3d9d79b5	0.076892294
78	0xbdf3eb3a	-0.119101
79	0x3e141d0a	0.14464203
80	0x3e247adc	0.16062492
81	0xbd1b8ce5	-0.037976164
82	0x3e1ab0ac	0.15106457
83	0x3c3f6141	0.011680902
84	0x3d44d2e7	0.048052695
85	0x3dd8814f	0.10571539
86	0xbd9937c5	-0.0748134
87	0x3c294dec	0.010333519
88	0x3e2335e0	0.1593852
89	0xbe378533	-0.17921905
90	0x3e06d617	0.13167606
91	0xba0ea43c	-0.0005441343
92	0xbe877901	-0.26459506
93	0x3d502e02	0.050825126
94	0xbe4bd8c0	-0.19906902
95	0x3dc12fa1	0.094329126
96	0x3d8aa07c	0.06768891
97	0x3d0f13a7	0.03493085
98	0xbdefc5a1	-0.117076166
99	0x3e40538c	0.1878187
100	0xbd59b6b2	-0.053152747
101	0x3da84a0d	0.08217249
102	0x3d1c3fbb	0.038146716
103	0x3c50f794	0.01275434
104	0xbd852b7c	-0.065024346
105	0x3da6fda9	0.081538506
106	0xbdd039c2	-0.101672664
107	0x3d4d2a11	0.050088946
108	0xbdffc2db	-0.124883376
109	0x3c856bb0	0.016286701
110	0x3e083575	0.13301642
111	0x3e14f93c	0.145482
112	0xbd428021	-0.047485474
113	0x3e1ab234	0.15107042
114	0xbd6741f5	-0.056459386
115	0x3d9fb6aa	0.07798512
116	0x3e059b81	0.13047601
117	0x3da35fa5	0.07977227
118	0x3d063109	0.032761607
119	0xbca90ce9	-0.020636039
120	0x3db04e50	0.08608687
121	0xbae4f903	-0.0017469231
122	0xbe25fa5e	-0.16208789
123	0x3d3f0b19	0.046641443
124	0xbe276a1a	-0.16349068
125	0x3da21381	0.07913876
126	0x3d6afa62	0.05736769
127	0xbd7e93c6	-0.062152646
128	0xbddb2825	-0.10701016
129	0xbdccad97	-0.09994047
130	0xbe03860a	-0.128441
131	0xbd0397ca	-0.03212718
132	0x3caf77cc	0.021419428
133	0x3db40d75	0.08791629
134	0x3babdaa1	0.0052445685
135	0x3d8501e4	0.06494501
136	0xbdff5b64	-0.12468603
137	0x3e016fcb	0.12640302
138	0xbd543718	-0.051810354
139	0xbca9720a	-0.02068426
140	0xbd8b5153	-0.06802621
141	0x3d8e5200	0.06949234
142	0xbd85784f	-0.06517088
143	0x3e3203f9	0.17384328
144	0x3d607dd7	0.05480751
145	0xbd521ee0	-0.051298976
146	0x3c1803fb	0.009278293
147	0x3d1ba534	0.037999347
148	0xbe138309	-0.14405455
149	0x3dd445a9	0.10364849
150	0x3d5dc4cb	0.054142755
151	0x3e7c7bbf	0.2465658
152	0xbe4d68c7	-0.200595
153	0x3c80a996	0.015705865
154	0x3d8b6f2c	0.06808314
155	0x3cf0cd6a	0.029394824
156	0x3e58776c	0.21139306
157	0x3e7c79aa	0.24655786
158	0xbe6520c4	-0.2237578
159	0x3dab9412	0.083778515
160	0x3d1394bd	0.03603052
161	0x3e0aa3a4	0.13538986
162	0x3d99e9c1	0.07515288
163	0x3e8c7812	0.27435356
164	0xbe1219a4	-0.14267594
165	0x3e1b3dd9	0.15160312
166	0x3e05105c	0.12994522
167	0x3e84b148	0.25916505
168	0x3e283c71	0.16429307
169	0x3ea9e1d3	0.33180103
170	0xbd2a3581	-0.04155493
171	0x3e15c7a9	0.14626946
172	0xbbd72433	-0.0065655946
173	0x3e4fa321	0.20277072
174	0x3e438ddf	0.19097088
175	0x3de9c7c9	0.11415059
176	0xbd804875	-0.0626382
177	0x3e7869dd	0.24259134
178	0x3d9cd22f	0.07657277
179	0x3e606fa2	0.21917585
180	0x3e2edee5	0.17077215
181	0x3e216bee	0.15763828
182	0xbe4f08e3	-0.20218234
183	0x3e1826ce	0.14858553
184	0x3e02c7e3	0.12771563
185	0x3cf5b330	0.02999267
186	0x3e4f5106	0.20245752
187	0x3e12fd0c	0.14354342
188	0xbe80fa86	-0.25191134
189	0x3da2227b	0.07916733
190	0xbd5aaa11	-0.053384844
191	0x3d404f6a	0.046950735
192	0x3e860895	0.26178423
193	0x3e1673cd	0.14692612
194	0xbe3cf074	-0.184511
195	0x3dd1272f	0.10212552
196	0x3bc40bbc	0.005982844
197	0x3e69b8f1	0.22824456
198	0x3e7045c9	0.23464121
199	0x3e1be22e	0.15223
200	0xbda9f391	-0.0829841
201	0x3e74af5e	0.23895022
202	0xbe431221	-0.19049884
203	0x3e3216a6	0.17391452
204	0x3c3eaa80	0.01163733
205	0x3da1c997	0.07899778
206	0xbdf7e767	-0.12104683
207	0x3e6cbb83	0.23118405
208	0xbe2ed4e9	-0.17073406
209	0x3e2a6b75	0.16642554
210	0x3dfaebc5	0.12252001
211	0xbe1b2e7f	-0.15154456
212	0xbe1c7edc	-0.15282768
213	0x3d8405cf	0.064464204
214	0xbe005636	-0.12532887
215	0xbcb26a6f	-0.021779267
216	0x3e0ab748	0.13546479
217	0xbc9b469c	-0.018954568
218	0xbd73a538	-0.059483737
219	0x3c1892eb	0.009312372
220	0xbc77add7	-0.01511713
221	0xbd8a1eb3	-0.06744137
222	0x3dd3d507	0.10343366
223	0x3c8ff0d4	0.01757089
224	0xbdb3228e	-0.08746825
225	0x3d33cd58	0.043897003
226	0xbddf6613	-0.10908141
227	0x3d92f4fd	0.07175634
228	0x3e46bd74	0.19408208
229	0x3beb531c	0.0071815383
230	0xbd4bbebf	-0.049742457
231	0x3e5b1a21	0.21396686
232	0xbe73571b	-0.23763697
233	0x3a3b4d96	0.0007145045
234	0x3de8a847	0.11360221
235	0xbcda4fc9	-0.026649373
236	0x3bf52423	0.0074811145
237	0x3e60aae2	0.21940187
238	0xbe19e7be	-0.15029809
239	0x3e2a72d8	0.16645372
240	0xbd1f0b62	-0.038829215
241	0xbe977a91	-0.29585698
242	0x3d4aac76	0.049480878
243	0xbe603029	-0.21893372
244	0xbe448026	-0.1918951
245	0xbe25fdd5	-0.1621011
246	0xbe23f9a6	-0.16013202
247	0xbe88af7c	-0.26696384
248	0x3d885f5a	0.06658812
249	0xbe58af24	-0.21160561
250	0xbdcc7c9b	-0.09984704
251	0xbe5e03e8	-0.21681178
252	0x3bcf6518	0.00632919
253	0xbea45c03	-0.3210145
254	0x3bd7e620	0.0065887123
255	0xbdd77cf5	-0.105218805

sequential/conv2d_2/Conv2D f4 [120, 4, 4, 16]
0	0xbbf3bdd6	-0.0074384017
1	0xbc9d48b4	-0.019199707
2	0x3c920c5f	0.017828165
3	0xbcc4a74d	-0.024005556
4	0xbc3bb016	-0.011455556
5	0xbc60c509	-0.013718852
6	0x3c0d819b	0.008636857
7	0xbd3546c9	-0.04425696
8	0xbd4437e9	-0.047904883
9	0x3d3091fc	0.04310797
10	0x3d82b881	0.063828476
11	0xbb1f4b5e	-0.0024306397
12	0xbc910321	-0.017701687
13	0x3d455706	0.048178695
14	0xbd179093	-0.03700311
15	0x3c3b9acc	0.011450481
16	0x3b382156	0.0028096042
17	0xbda783d3	-0.0817944
18	0x3d9dd746	0.07707076
19	0x3c83ffaa	0.016113121
20	0xbcd03db9	-0.025420057
21	0xbd1f842f	-0.03894442
22	0x3c7204ba	0.014771635
23	0xbcf252e5	-0.029580543
24	0xbc8f3d6b	-0.017485341
25	0x3cf41a85	0.029797802
26	0x3cffee42	0.03124154
27	0xbd5690ff	-0.052384373
28	0xbcc47872	-0.023983214
29	0xbd3451ac	-0.0440232
30	0x3c9eaed1	0.019370468
31	0x3d9250a7	0.071442895
32	0x3d824a12	0.06361784
33	0xbd1b7b74	-0.03795953
34	0x3d89e19d	0.067324854
35	0xbd48addb	-0.048993926
36	0xbd7bc15f	-0.06146371
37	0xbc2d27ec	-0.0105686
38	0xbc0924d9	-0.008370602
39	0x3c2ef012	0.010677354
40	0xbc104553	-0.008805591
41	0x3c341296	0.010990759
42	0xb9b0b221	-0.00033702052
43	0xbc4f919a	-0.012668991
44	0xbcd493c6	-0.02594937
45	0xbce1d1a7	-0.02756579
46	0x3d271a7b	0.040796738
47	0xbd152780	-0.036414623
48	0x3b879e3b	0.0041387356
49	0xbd9628b5	-0.07331983
50	0x3b0ea3b2	0.002176505
51	0x3d19d021	0.037552003
52	0x3ce215bb	0.027598253
53	0xbd4b6d12	-0.049664564
54	0x3c65353c	0.013989743
55	0x3ccc8073	0.024963593
56	0x3ca2c128	0.019867495
57	0x3d38c02a	0.045105137
58	0x3d836aeb	0.06416877
59	0x3c733bed	0.01484583
60	0xbd263028	-0.04057327
61	0x3b02a026	0.0019931882
62	0x3bddc7dc	0.00676821
63	0xbd173d7d	-0.036923874
64	0x3d20c4fd	0.039250363
65	0x3c7eb437	0.015545896
66	0x3d640353	0.055667233
67	0xbd08ce46	-0.033399843
68	0xbc1a7e33	-0.009429502
69	0xbd46c663	-0.04852904
70	0xbc793aa5	-0.015211736
71	0x3c41e40f	0.011834159
72	0xbc4b1297	-0.012394569
73	0xbd78b20b	-0.06071667
74	0xbcbe5706	-0.023234855
75	0x3cae73dd	0.021295482
76	0x3c533b15	0.012892504
77	0x3c010d1e	0.007876663
78	0xbc606e7d	-0.013698217
79	0x3d3cfc40	0.046139
80	0xbcd89183	-0.026436573
81	0x3ccc8cb0	0.024969429
82	0x3d36563d	0.044515837
83	0x3d82518d	0.06363211
84	0x3c494bc0	0.012286127
85	0xbd53da4c	-0.051721856
86	0x3caea273	0.021317696
87	0xbc8187ce	-0.015811827
88	0xbd479d94	-0.048734263
89	0x3d861d56	0.06548564
90	0x3c35967c	0.011083242
91	0xba99388b	-0.0011689825
92	0xbd2a8d28	-0.041638523
93	0xbbb12cab	-0.005406936
94	0x3b8187cf	0.003952957
95	0xbce0632b	-0.027391037
96	0x3bbce90e	0.005765087
97	0xbc9992c8	-0.018746749
98	0x3c8a9837	0.016918285
99	0xba556393	-0.0008140143
100	0x3c75872b	0.01498584
101	0x3c35defb	0.011100526
102	0xbcb657fa	-0.022258747
103	0xbd81e078	-0.06341642
104	0x3d31923c	0.04335235
105	0xbcc92629	-0.024554329
106	0xbbd6240b	-0.0065350584
107	0x3c255d92	0.01009311
108	0x3d2b3ba9	0.041804943
109	0x3d7c7466	0.061634444
110	0x391dc6a8	0.00015046692
111	0xbc9103d1	-0.017702015
112	0x3d574431	0.052555267
113	0xbd7f8f20	-0.062392354
114	0x3d65a388	0.05606416
115	0xbcb9116f	-0.02259132
116	0xbd429a90	-0.047510684
117	0xbcfbb73e	-0.030727025
118	0x3c3ed42d	0.011647266
119	0xbd60cb8b	-0.054881614
120	0xbd34613f	-0.044038054
121	0xbd402f16	-0.046919905
122	0x3d1dcadd	0.038523544
123	0x3c8b4f78	0.017005667
124	0x3d2c5035	0.04206868
125	0x3ccb0146	0.02478088
126	0x3c54ec34	0.012995768
127	0xbba7b4cd	-0.0051179887
128	0xbd5a926f	-0.053362306
129	0x3d63a2eb	0.055575293
130	0xbd3992c6	-0.04530599
131	0x3b27e580	0.002561897
132	0x3c9c81f1	0.01910493
133	0x3ce77584	0.028254278
134	0xbd086d62	-0.03330744
135	0x3d514267	0.051088717
136	0xbd1fbf87	-0.039001014
137	0x3d5ee2fc	0.054415688
138	0xbb3d7f4c	-0.0028914986
139	0xbbe10bef	-0.0068678777
140	0x3c8848ea	0.01663633
141	0x3c44f783	0.012021902
142	0x3bb9ebe3	0.005673872
143	0xbd6abbbd	-0.057307947
144	0x3d538190	0.051637232
145	0xba3f1565	-0.000728926
146	0xbd7c714c	-0.061631486
147	0x3d41f81c	0.047355756
148	0xbbc9c040	-0.006156951
149	0x3c044f90	0.00807561
150	0x3d163474	0.036671117
151	0xbd99fee2	-0.07519318
152	0x3d6714af	0.05641621
153	0x3d99fd8c	0.07519063
154	0x3d123383	0.035693657
155	0x3c6ba3cf	0.014382317
156	0xbda1df2e	-0.07903896
157	0xbd1babb2	-0.03800554
158	0xbc007aa7	-0.007841743
159	0x3c1ccaa8	0.009569801
160	0xbcc6492a	-0.02420481
161	0x3d001b70	0.031276166
162	0xbd22fbf3	-0.03979106
163	0xbd441da3	-0.047879826
164	0x3d2e7601	0.042593006
165	0xbd18c9cf	-0.037301835
166	0x3d2242ae	0.039614372
167	0x3dd8713a	0.10568471
168	0x3c9539dd	0.018216068
169	0xbd91bfae	-0.07116638
170	0xbbb3a626	-0.005482453
171	0x3ccc5772	0.02494404
172	0x3cd30649	0.025759833
173	0xbaddbfcb	-0.0016918121
174	0xbd195251	-0.03743202
175	0xbd57f5bf	-0.052724596
176	0xbbb4c23a	-0.0055163177
177	0x3d7284e7	0.059208777
178	0xbcb9e892	-0.022693906
179	0x3d4cd43f	0.0500071
180	0xbd23579e	-0.03987848
181	0xbc4b2ae8	-0.012400366
182	0xbc61af38	-0.013774686
183	0xbc0d55c6	-0.008626407
184	0x3c0ca99f	0.008585363
185	0xbab5bc80	-0.0013865381
186	0x3d686033	0.056732368
187	0xbcd85045	-0.026405463
188	0xbcd33d24	-0.02578599
189	0xbd298373	-0.041385125
190	0xbd4aa83d	-0.04947685
191	0xbc871ca5	-0.016493151
192	0x3d1651db	0.036699157
193	0xbd240632	-0.04004497
194	0xbcee318c	-0.02907636
195	0x3d81ae47	0.06332069
196	0x3c900720	0.017581522
197	0xbb1fa214	-0.002435808
198	0x3d7dad68	0.06193295
199	0xbd655a80	-0.05599451
200	0x3cf1be7f	0.02950978
201	0x3d9db335	0.07700197
202	0x3d0bb2b5	0.034105975
203	0xbce083cc	-0.027406596
204	0x3cc6fbfa	0.024290074
205	0x3d36ff82	0.044677265
206	0xbcde3eb9	-0.027129518
207	0x3d1cd26d	0.038286615
208	0xbd3848e9	-0.044991408
209	0xbd76537a	-0.060138203
210	0x3d877fed	0.06616197
211	0xbc6f99ec	-0.0146241
212	0x3cbf59f1	0.023358317
213	0xbc87bb7c	-0.016568892
214	0x3d078172	0.033082433
215	0xbc113ca6	-0.008864557
216	0x3d5a8b1f	0.053355332
217	0x3c3c0cc0	0.011477649
218	0x3d9a85a3	0.075450204
219	0xbd9ed598	-0.077555835
220	0x3ce17d3d	0.027525539
221	0x3d987078	0.07443327
222	0x3cb1d31e	0.021707114
223	0x3d795d25	0.060879845
224	0xbcc3f3fe	-0.023920055
225	0xbd2d3f8f	-0.042296942
226	0xb9dc12a2	-0.00041975552
227	0x3d9408e8	0.07228261
228	0x3cff13bd	0.031137342
229	0xbd0bdfdc	-0.034149036
230	0x3a869b70	0.0010269713
231	0x3d4c473f	0.049872633
232	0xbd2550b7	-0.04036018
233	0x3bd72d82	0.0065667043
234	0xbc041af7	-0.00806307
235	0xbda4819f	-0.08032536
236	0x3c7dcfa5	0.015491401
237	0x3d78e808	0.060768157
238	0xbd5f9d21	-0.05459321
239	0xbc3cd75c	-0.011525955
240	0x3b4005a4	0.0029300237
241	0xbd3c070b	-0.045905154
242	0xbd3ef2a9	-0.046618138
243	0xbbd87db2	-0.006606781
244	0xbd13874b	-0.036017697
245	0xbcbb1307	-0.022836221
246	0x3d285a21	0.04110158
247	0xbc0bf7b3	-0.008542943
248	0x3d10f1fa	0.035387017
249	0xbc4e6d78	-0.012599342
250	0x3ce62ab9	0.028096544
251	0x3c404e1a	0.011737371
252	0xbc470cac	-0.012149017
253	0xbce7c686	-0.028292906
254	0x3b9915c8	0.004671786
255	0x3cfb9769	0.030711846

sequential/conv2d/BiasAdd;sequential/conv2d/Conv2D;conv2d/bias f4 [6]
0	0xbec6bd67	-0.38816378
1	0xbed8f695	-0.42375627
2	0x3ea8b4f3	0.32950553
3	0xbece7211	-0.403214
4	0x3eab99a9	0.3351567
5	0xbeb22c97	-0.34799644

sequential/conv2d_1/BiasAdd;sequential/conv2d_1/Conv2D;conv2d_1/bias f4 [16]
0	0xbc917668	-0.017756656
1	0x3c3f3e0b	0.011672507
2	0xbce10cc6	-0.027471911
3	0x3c042f32	0.008067893
4	0xb983d95e	-0.00025148218
5	0xbbfb79cf	-0.007674433
6	0x3bf26aa0	0.0073979646
7	0x3ca6cad4	0.020360388
8	0x3c8d6a2f	0.017262546
9	0x3d04ccde	0.03242194
10	0x3c907658	0.017634556
11	0xbc5b71d2	-0.013393836
12	0xbc86c457	-0.016451044
13	0x3b799e28	0.0038088653
14	0xbcb6d32f	-0.022317497
15	0x3cc04c4f	0.023473887

sequential/conv2d_2/BiasAdd;sequential/conv2d_2/Conv2D;conv2d_2/bias f4 [120]
0	0xbaab6818	-0.0013077287
1	0x3b70d609	0.0036748669
2	0xbaf2cd21	-0.0018524268
3	0xbb78cf69	-0.0037965423
4	0x3ad84db4	0.001650265
5	0xbaf9c356	-0.0019055407
6	0xbaac5d11	-0.0013150295
7	0x3aa6e8a2	0.0012734125
8	0xb765dc87	-1.3700809e-05
9	0xbbc5db9e	-0.0060381433
10	0x3af84f99	0.001894462
11	0x3ab165ac	0.0013534329
12	0x3b3f2d25	0.0029171195
13	0x3a8de49f	0.0010825581
14	0x38f3a908	0.000116186275
15	0x3b96c54d	0.004601157
16	0xba49472c	-0.0007678147
17	0xbb327808	-0.0027232189
18	0xb91ce2d3	-0.00014961818
19	0x3b32eab7	0.0027300545
20	0xbb281856	-0.002564927
21	0xb9bb1112	-0.00035680138
22	0xba0831b3	-0.0005195394
23	0xba0ec74c	-0.00054465677
24	0x3b9825a7	0.0046431604
25	0x3b8563ac	0.0040707197
26	0x39660f6e	0.00021940257
27	0xb9e53e95	-0.0004372491
28	0xbadb2e8a	-0.0016722244
29	0x3b50953b	0.003182723
30	0x391af4a6	0.00014777723
31	0x3aaed1f8	0.0013337722
32	0xbb253a5c	-0.0025211787
33	0x39d4ebb4	0.00040611404
34	0xbb0c8ac6	-0.002144502
35	0x3bf7a5cb	0.007557606
36	0x3b1a1ed9	0.0023516922
37	0xbb5ebbf3	-0.0033986538
38	0x3b022384	0.0019857595
39	0x3a838314	0.0010033571
40	0x3ad9d65c	0.001661967
41	0x3aca58b4	0.0015437813
42	0xbbfa0654	-0.007630149
43	0x39b11723	0.0003377731
44	0xba852427	-0.0010157869
45	0xb83c814a	-4.4943103e-05
46	0x3b5b1f12	0.0033435267
47	0x3b996843	0.0046816184
48	0xbabd9ec9	-0.0014466877
49	0xbb03d032	-0.0020113108
50	0x3ba7d221	0.005121485
51	0x3a691c09	0.0008892422
52	0x3b39152e	0.0028241384
53	0x3852d6fc	5.026812e-05
54	0x3b497774	0.0030741366
55	0xbbbfd9e7	-0.0058548334
56	0xbae43b13	-0.0017412625
57	0x3bc17fa9	0.005905111
58	0x39d3e0eb	0.00040412633
59	0xba834a3a	-0.0010016628
60	0x3acbc41d	0.0015546117
61	0x3a267d2f	0.0006351051
62	0x3b530418	0.0032198485
63	0x3a9ec10b	0.0012111975
64	0x3a665b1b	0.00087873795
65	0x3a84638a	0.0010100466
66	0xb90c7bb5	-0.00013397525
67	0x3a4dc3ca	0.0007849304
68	0x39be0eca	0.00036250643
69	0x3b3d7e04	0.0028914222
70	0x3b2e87ef	0.0026631316
71	0x3a788f75	0.0009481826
72	0x38fdfc8c	0.000121110206
73	0xbaa937f7	-0.0012910356
74	0x3aec9cdc	0.0018052119
75	0x3a74210b	0.0009312785
76	0x3b137a07	0.0022503154
77	0x3b0866ac	0.002081315
78	0xbb885257	-0.0041602063
79	0x3add64c9	0.0016890998
80	0x3b739845	0.0037169617
81	0x3b94ca1f	0.0045406963
82	0xba228b65	-0.0006200581
83	0x3ab91966	0.0014121949
84	0x3808ec1e	3.2644828e-05
85	0xbaa7d9e2	-0.0012806023
86	0x3af3b281	0.0018592627
87	0x3a87f3c1	0.0010372327
88	0x3bc08f0c	0.0058764275
89	0x3976d8dd	0.00023541176
90	0xba1180e7	-0.0005550519
91	0x3afaea32	0.0019143282
92	0xbb3f943c	-0.0029232642
93	0x3a999487	0.0011717238
94	0xba800484	-0.0009766971
95	0x3ba6712b	0.0050794086
96	0xba6b2e8f	-0.00089714763
97	0xbaed89d3	-0.001812274
98	0x3ad5bb18	0.0016306369
99	0x389c0af7	7.440702e-05
100	0x3a2b93b6	0.0006545143
101	0xb9027cc6	-0.00012444248
102	0xbb145f57	-0.0022639835
103	0x3b1edc97	0.0024240369
104	0x3af15a65	0.001841378
105	0xbaf04de8	-0.0018333765
106	0x3b3db1b4	0.002894503
107	0xbbc9b554	-0.006155649
108	0xbb00a653	-0.0019630387
109	0x3b31e083	0.0027141876
110	0xba9dee64	-0.0012049195
111	0xbb185608	-0.0023244638
112	0x3acc0ccd	0.001556778
113	0xb983905c	-0.00025093823
114	0x3b8b67f7	0.004254337
115	0xba4704d4	-0.0007591967
116	0x3b8365f3	0.004009956
117	0x3a446fe0	0.00074934773
118	0xbaa51666	-0.0012595176
119	0x3ad2e305	0.0016089386
